results/training1/BoundarySequence.onnx (onnx, 550880 bytes, 8 tensors)

network_body.observation_encoder.processors.0.normalizer.running_mean f4 [14]
0	0x00000000	0.0
1	0x00000000	0.0
2	0x00000000	0.0
3	0x00000000	0.0
4	0x00000000	0.0
5	0x00000000	0.0
6	0x00000000	0.0
7	0x00000000	0.0
8	0x00000000	0.0
9	0x00000000	0.0
10	0x00000000	0.0
11	0x00000000	0.0
12	0x00000000	0.0
13	0x00000000	0.0

network_body._body_endoder.seq_layers.0.weight f4 [256, 14]
0	0xbcbed1f8	-0.02329348
1	0x3eb25924	0.34833634
2	0xbe883247	-0.2660086
3	0x3d7d6c42	0.06187082
4	0x3d087039	0.03331015
5	0xbe264251	-0.16236235
6	0xbe78498a	-0.24246803
7	0x3e5d0502	0.21583942
8	0xbea716e6	-0.32634658
9	0x3ef1d0e2	0.47229677
10	0x3de06c2b	0.109581314
11	0xbe7bab41	-0.24577047
12	0xbe71c261	-0.23609306
13	0xbd63cb3e	-0.05561375
14	0x3deaea15	0.11470429
15	0xbea5ac4d	-0.32358018
16	0x3e83f7a6	0.25774878
17	0x3e66c03e	0.22534272
18	0xbeae0d80	-0.33994675
19	0xbeaa0d8c	-0.3321346
20	0x3e9afcb9	0.30270937
21	0x3b24120c	0.002503517
22	0xbd74dc8b	-0.05978064
23	0x3d5d7845	0.054069776
24	0x3e23d48d	0.1599905
25	0x3dcf56c2	0.101239696
26	0x3e755e74	0.23961812
27	0xbe7abe9e	-0.24486777
28	0xbd88d338	-0.06680912
29	0x3daae2ef	0.083440654
30	0xbdb2753e	-0.087137684
31	0xbe823834	-0.25433505
32	0x3d8723a0	0.06598592
33	0xbdfb7c96	-0.12279622
34	0x3cc6383a	0.024196733
35	0x3e7f1e11	0.24913813
36	0x3d952f70	0.072844386
37	0xbd89cc45	-0.067284144
38	0xbe490081	-0.19629098
39	0xbe1c4fb9	-0.15264787
40	0x3df69d2a	0.120416954
41	0xbce69425	-0.028146813
42	0x3e1b6024	0.15173393
43	0xbebdabd5	-0.3704516
44	0xbe906126	-0.28199118
45	0xbd792483	-0.060825836
46	0xbe2494fb	-0.16072457
47	0xbd1c7108	-0.038193733
48	0x3f4059b9	0.75136906
49	0xbe8f0f23	-0.27941236
50	0xbeba7f3e	-0.36425203
51	0xbd9b547e	-0.07584475
52	0x3e445def	0.19176458
53	0xbd80d949	-0.06291444
54	0xbe84ca6b	-0.25935683
55	0x3e2d42a8	0.16919959
56	0xbe724a31	-0.23661114
57	0xbf47f068	-0.78101206
58	0xbcf1f8b2	-0.029537532
59	0x3da25ab2	0.07927455
60	0x3e18c750	0.14919782
61	0xbea1b620	-0.31584263
62	0xbcfa646b	-0.030565461
63	0x3ea6993a	0.32538778
64	0xbee5fed9	-0.44920996
65	0x3ce0128a	0.02735259
66	0xbe4f950d	-0.20271702
67	0xbdfadb4b	-0.12248858
68	0x3def8930	0.11696088
69	0xbea3bca1	-0.3197985
70	0x3cbd9fd2	0.023147497
71	0x3e06d71b	0.13167994
72	0xbe935bbb	-0.28780922
73	0xbb3f89b4	-0.0029226365
74	0xbf063f9c	-0.5244081
75	0xbc83447a	-0.016023863
76	0xbd91fbc6	-0.071281
77	0xbd6a1a76	-0.05715414
78	0x3e462a5c	0.19352096
79	0x3e9efc24	0.31051743
80	0x3efe506b	0.4967073
81	0xbcfca065	-0.0308382
82	0xbdce3f34	-0.10070649
83	0x3df3a16e	0.11896025
84	0x3e479caf	0.19493364
85	0x3e34d46d	0.17659159
86	0xbe1a39c3	-0.15061097
87	0x3e469633	0.19393234
88	0x3b69e393	0.0035688623
89	0xbe240d08	-0.16020596
90	0x3e825e39	0.2546251
91	0x3eb13e2f	0.34617755
92	0xbe5e7adb	-0.21726553
93	0x3d9ce16a	0.07660182
94	0xbef8f30e	-0.48622936
95	0xbe3dfcc2	-0.1855345
96	0x3ea615c3	0.32438478
97	0xbd7e89f2	-0.062143274
98	0x3ea2fac9	0.3183196
99	0xbe0f031f	-0.13966034
100	0xbda55679	-0.08073134
101	0xbddbf198	-0.1073944
102	0xbc9474c2	-0.01812208
103	0x3d4af822	0.049553044
104	0x3ef4078a	0.47662002
105	0xbf3e0bea	-0.7423693
106	0x3d5e5a1c	0.054285154
107	0xbeadc948	-0.33942628
108	0xbe945473	-0.2897068
109	0x3dbd4a89	0.09242732
110	0x3e7a6bf2	0.2445524
111	0x3e609136	0.21930394
112	0xbe5114be	-0.20418069
113	0x3ed6b982	0.41938406
114	0x3d4d6269	0.05014268
115	0x3d38c221	0.04510701
116	0xbd6a6a2e	-0.057230167
117	0x3dadccc5	0.08486322
118	0xbdbb9181	-0.09158612
119	0xbdad04d5	-0.08448187
120	0xbe4b128a	-0.19831291
121	0xbe7264cd	-0.23671265
122	0x3eb5a41d	0.3547677
123	0xbe39539e	-0.18098304
124	0x3e18c6cc	0.14919585
125	0xbd955b59	-0.07292814
126	0xbd803abb	-0.06261202
127	0x3ba8bbd7	0.0051493454
128	0xbd8c5672	-0.06852426
129	0x3e5175b6	0.2045506
130	0x3da4e680	0.08051777
131	0xbe0466a9	-0.12929787
132	0xbd03ef31	-0.032210533
133	0xbbe8dd17	-0.007106434
134	0xbef6c909	-0.48200253
135	0xbdb07e00	-0.086177826
136	0x3eafebcf	0.34359595
137	0x3eae51c0	0.34046745
138	0xbef61437	-0.48062298
139	0x3cb28fe7	0.021797134
140	0x3f4b8a57	0.79507965
141	0xbed771d2	-0.42079026
142	0x3e383f88	0.17992985
143	0x3e765fd7	0.24059997
144	0xbe319178	-0.17340648
145	0x3e650e35	0.22368701
146	0x3d6e5f3a	0.058196284
147	0x3ecdced1	0.4019685
148	0x3e85d294	0.2613722
149	0xbcc750bb	-0.024330487
150	0x3eaa82fa	0.33303052
151	0xbe1ee6d5	-0.15517743
152	0x3df00e75	0.117215075
153	0xbe6ca7d8	-0.23110902
154	0x3e643a39	0.22287835
155	0xbeb263d9	-0.34841803
156	0xbe42d424	-0.19026238
157	0x3ce6fb33	0.028195953
158	0x3e5f3e8f	0.21801208
159	0xbf07f226	-0.53103864
160	0x3e41b12b	0.1891524
161	0xbd8ede82	-0.06976034
162	0xbd8fe684	-0.07026389
163	0xbce4be81	-0.02792287
164	0x3ed0c888	0.40777993
165	0xbe498eb7	-0.19683348
166	0x3ed559b4	0.4167
167	0xbc16d649	-0.009206363
168	0x3ee112ea	0.43959743
169	0x3d9dd148	0.07705933
170	0xbddb6b90	-0.10713875
171	0xbdf91534	-0.12162247
172	0x3e17d187	0.14826022
173	0x3d2ed76b	0.042685907
174	0x3e1da741	0.15395834
175	0x3cb47f3d	0.022033328
176	0xbeb0b829	-0.34515503
177	0x3e627661	0.2211547
178	0x3e6ed7de	0.23324534
179	0x3cb53b3b	0.02212297
180	0x3e91b1c3	0.28455934
181	0xbe4a5d7b	-0.19762222
182	0xbb464c36	-0.0030257828
183	0xbda1bb6c	-0.07897076
184	0x3f22891d	0.6349047
185	0x3d87963a	0.0662045
186	0x3d8c70ce	0.06857453
187	0x3e4773da	0.19477788
188	0x3cb86479	0.022508847
189	0x3d90f3ba	0.07077737
190	0xbefddbab	-0.49581656
191	0x3f00cc99	0.5031219
192	0x3e27905d	0.16363664
193	0x3e8d391a	0.27582628
194	0xbe0ef798	-0.13961637
195	0x3e401a54	0.18760043
196	0x3e1fe49e	0.15614554
197	0xbd9c97f9	-0.07646174
198	0xbf26acdf	-0.6510753
199	0xbef80c9b	-0.48447117
200	0xbe4915ec	-0.19637269
201	0x3f038ba7	0.5138497
202	0xbe8d6213	-0.27613887
203	0x3dd68505	0.1047459
204	0x3e4b5f0c	0.19860476
205	0x3d6a036f	0.05713218
206	0x3e91d951	0.28486112
207	0x3e41c291	0.18921877
208	0xbe5aa0ba	-0.21350375
209	0xbe57a619	-0.21059455
210	0x3bd37e0b	0.0064542345
211	0xbd4f0945	-0.05054595
212	0x3df9990c	0.121873945
213	0x3d669247	0.056291845
214	0x3d4d2f5d	0.050093997
215	0xbb1739ef	-0.0023075303
216	0x3d933b9a	0.071891025
217	0xbe356349	-0.17713656
218	0xbf097b00	-0.5370331
219	0xbe2c93ae	-0.1685321
220	0x3dedd665	0.11613158
221	0x3e945753	0.28972873
222	0x3ccff19d	0.025383765
223	0x3dea42ba	0.11438508
224	0xbe16c6e2	-0.14724305
225	0xbe964d29	-0.29355744
226	0x3d1eb30c	0.03874497
227	0x3e343d6b	0.17601554
228	0x3e00ec43	0.12590127
229	0x3cd30c95	0.025762836
230	0xbddfe1b0	-0.10931718
231	0xbec5078e	-0.38482326
232	0x3c2b2eb8	0.01044815
233	0x3da472c5	0.08029703
234	0xbe48dea0	-0.19616175
235	0xbd2bd900	-0.041954994
236	0xbe916c17	-0.28402779
237	0xbd5fb076	-0.054611646
238	0xbd4eb18e	-0.050462298
239	0xbebe6921	-0.37189582
240	0x3eb0c666	0.34526366
241	0xbdf427d6	-0.119216606
242	0xbdf9bbd0	-0.121940255
243	0x3e3629de	0.17789409
244	0xbe8270ac	-0.25476587
245	0xbda12446	-0.07868247
246	0x3c74beaa	0.014938036
247	0xbdbc09df	-0.0918157
248	0x3e07b5f2	0.13253
249	0xbdc0b3ef	-0.094093196
250	0xbee2b1d9	-0.44276312
251	0x3e64e35d	0.22352357
252	0x3db96b48	0.090536654
253	0x3ecde8c6	0.40216655
254	0x3daf8d1d	0.08571837
255	0xbddf266f	-0.108960025

network_body._body_endoder.seq_layers.0.bias f4 [256]
0	0x00000000	0.0
1	0x00000000	0.0
2	0x00000000	0.0
3	0x00000000	0.0
4	0x00000000	0.0
5	0x00000000	0.0
6	0x00000000	0.0
7	0x00000000	0.0
8	0x00000000	0.0
9	0x00000000	0.0
10	0x00000000	0.0
11	0x00000000	0.0
12	0x00000000	0.0
13	0x00000000	0.0
14	0x00000000	0.0
15	0x00000000	0.0
16	0x00000000	0.0
17	0x00000000	0.0
18	0x00000000	0.0
19	0x00000000	0.0
20	0x00000000	0.0
21	0x00000000	0.0
22	0x00000000	0.0
23	0x00000000	0.0
24	0x00000000	0.0
25	0x00000000	0.0
26	0x00000000	0.0
27	0x00000000	0.0
28	0x00000000	0.0
29	0x00000000	0.0
30	0x00000000	0.0
31	0x00000000	0.0
32	0x00000000	0.0
33	0x00000000	0.0
34	0x00000000	0.0
35	0x00000000	0.0
36	0x00000000	0.0
37	0x00000000	0.0
38	0x00000000	0.0
39	0x00000000	0.0
40	0x00000000	0.0
41	0x00000000	0.0
42	0x00000000	0.0
43	0x00000000	0.0
44	0x00000000	0.0
45	0x00000000	0.0
46	0x00000000	0.0
47	0x00000000	0.0
48	0x00000000	0.0
49	0x00000000	0.0
50	0x00000000	0.0
51	0x00000000	0.0
52	0x00000000	0.0
53	0x00000000	0.0
54	0x00000000	0.0
55	0x00000000	0.0
56	0x00000000	0.0
57	0x00000000	0.0
58	0x00000000	0.0
59	0x00000000	0.0
60	0x00000000	0.0
61	0x00000000	0.0
62	0x00000000	0.0
63	0x00000000	0.0
64	0x00000000	0.0
65	0x00000000	0.0
66	0x00000000	0.0
67	0x00000000	0.0
68	0x00000000	0.0
69	0x00000000	0.0
70	0x00000000	0.0
71	0x00000000	0.0
72	0x00000000	0.0
73	0x00000000	0.0
74	0x00000000	0.0
75	0x00000000	0.0
76	0x00000000	0.0
77	0x00000000	0.0
78	0x00000000	0.0
79	0x00000000	0.0
80	0x00000000	0.0
81	0x00000000	0.0
82	0x00000000	0.0
83	0x00000000	0.0
84	0x00000000	0.0
85	0x00000000	0.0
86	0x00000000	0.0
87	0x00000000	0.0
88	0x00000000	0.0
89	0x00000000	0.0
90	0x00000000	0.0
91	0x00000000	0.0
92	0x00000000	0.0
93	0x00000000	0.0
94	0x00000000	0.0
95	0x00000000	0.0
96	0x00000000	0.0
97	0x00000000	0.0
98	0x00000000	0.0
99	0x00000000	0.0
100	0x00000000	0.0
101	0x00000000	0.0
102	0x00000000	0.0
103	0x00000000	0.0
104	0x00000000	0.0
105	0x00000000	0.0
106	0x00000000	0.0
107	0x00000000	0.0
108	0x00000000	0.0
109	0x00000000	0.0
110	0x00000000	0.0
111	0x00000000	0.0
112	0x00000000	0.0
113	0x00000000	0.0
114	0x00000000	0.0
115	0x00000000	0.0
116	0x00000000	0.0
117	0x00000000	0.0
118	0x00000000	0.0
119	0x00000000	0.0
120	0x00000000	0.0
121	0x00000000	0.0
122	0x00000000	0.0
123	0x00000000	0.0
124	0x00000000	0.0
125	0x00000000	0.0
126	0x00000000	0.0
127	0x00000000	0.0
128	0x00000000	0.0
129	0x00000000	0.0
130	0x00000000	0.0
131	0x00000000	0.0
132	0x00000000	0.0
133	0x00000000	0.0
134	0x00000000	0.0
135	0x00000000	0.0
136	0x00000000	0.0
137	0x00000000	0.0
138	0x00000000	0.0
139	0x00000000	0.0
140	0x00000000	0.0
141	0x00000000	0.0
142	0x00000000	0.0
143	0x00000000	0.0
144	0x00000000	0.0
145	0x00000000	0.0
146	0x00000000	0.0
147	0x00000000	0.0
148	0x00000000	0.0
149	0x00000000	0.0
150	0x00000000	0.0
151	0x00000000	0.0
152	0x00000000	0.0
153	0x00000000	0.0
154	0x00000000	0.0
155	0x00000000	0.0
156	0x00000000	0.0
157	0x00000000	0.0
158	0x00000000	0.0
159	0x00000000	0.0
160	0x00000000	0.0
161	0x00000000	0.0
162	0x00000000	0.0
163	0x00000000	0.0
164	0x00000000	0.0
165	0x00000000	0.0
166	0x00000000	0.0
167	0x00000000	0.0
168	0x00000000	0.0
169	0x00000000	0.0
170	0x00000000	0.0
171	0x00000000	0.0
172	0x00000000	0.0
173	0x00000000	0.0
174	0x00000000	0.0
175	0x00000000	0.0
176	0x00000000	0.0
177	0x00000000	0.0
178	0x00000000	0.0
179	0x00000000	0.0
180	0x00000000	0.0
181	0x00000000	0.0
182	0x00000000	0.0
183	0x00000000	0.0
184	0x00000000	0.0
185	0x00000000	0.0
186	0x00000000	0.0
187	0x00000000	0.0
188	0x00000000	0.0
189	0x00000000	0.0
190	0x00000000	0.0
191	0x00000000	0.0
192	0x00000000	0.0
193	0x00000000	0.0
194	0x00000000	0.0
195	0x00000000	0.0
196	0x00000000	0.0
197	0x00000000	0.0
198	0x00000000	0.0
199	0x00000000	0.0
200	0x00000000	0.0
201	0x00000000	0.0
202	0x00000000	0.0
203	0x00000000	0.0
204	0x00000000	0.0
205	0x00000000	0.0
206	0x00000000	0.0
207	0x00000000	0.0
208	0x00000000	0.0
209	0x00000000	0.0
210	0x00000000	0.0
211	0x00000000	0.0
212	0x00000000	0.0
213	0x00000000	0.0
214	0x00000000	0.0
215	0x00000000	0.0
216	0x00000000	0.0
217	0x00000000	0.0
218	0x00000000	0.0
219	0x00000000	0.0
220	0x00000000	0.0
221	0x00000000	0.0
222	0x00000000	0.0
223	0x00000000	0.0
224	0x00000000	0.0
225	0x00000000	0.0
226	0x00000000	0.0
227	0x00000000	0.0
228	0x00000000	0.0
229	0x00000000	0.0
230	0x00000000	0.0
231	0x00000000	0.0
232	0x00000000	0.0
233	0x00000000	0.0
234	0x00000000	0.0
235	0x00000000	0.0
236	0x00000000	0.0
237	0x00000000	0.0
238	0x00000000	0.0
239	0x00000000	0.0
240	0x00000000	0.0
241	0x00000000	0.0
242	0x00000000	0.0
243	0x00000000	0.0
244	0x00000000	0.0
245	0x00000000	0.0
246	0x00000000	0.0
247	0x00000000	0.0
248	0x00000000	0.0
249	0x00000000	0.0
250	0x00000000	0.0
251	0x00000000	0.0
252	0x00000000	0.0
253	0x00000000	0.0
254	0x00000000	0.0
255	0x00000000	0.0

network_body._body_endoder.seq_layers.2.weight f4 [256, 256]
0	0xbd4b2a34	-0.049600795
1	0xbc153ff3	-0.009109485
2	0x3c72deec	0.0148236565
3	0xbd2a4eb7	-0.041578975
4	0xbc186f3f	-0.009303867
5	0x3d9563f1	0.07294453
6	0x3c52dedc	0.012870517
7	0x3cc5d13e	0.024147626
8	0xbb4888fe	-0.0030599232
9	0x3dd8fe43	0.105953716
10	0x3dde88d5	0.108659424
11	0xbdcb8906	-0.099382445
12	0x3d149b5e	0.036280982
13	0xbd994e18	-0.07485598
14	0xbd032c97	-0.032024946
15	0xba1c66d4	-0.00059662503
16	0xbcc5e391	-0.024156364
17	0x3da1579f	0.078780405
18	0xbc8369e0	-0.016041696
19	0xbbc1a066	-0.0059090136
20	0x3c71076c	0.014711242
21	0xbd4cdca2	-0.0500151
22	0xbdf0b803	-0.117538475
23	0x3d8999c2	0.0671878
24	0x3d49a5b6	0.0492303
25	0xbd83d289	-0.06436641
26	0xbdc46be0	-0.09590888
27	0x3da45b88	0.08025271
28	0x3cadad97	0.021200938
29	0x3da1c320	0.07898545
30	0x3cdc2652	0.026873741
31	0x3b8b75a8	0.004255969
32	0xbcb1c9ef	-0.021702735
33	0x3cdb6b54	0.026784576
34	0x3db18515	0.086679615
35	0x3d4b474b	0.049628537
36	0x3dbfecd6	0.09371345
37	0xbdb5fd6e	-0.088862285
38	0xbc5a20e8	-0.0133135095
39	0xbd90aebd	-0.07064579
40	0x3dac2960	0.08406329
41	0xbda46b04	-0.08028224
42	0x3d182a6e	0.03714984
43	0xbda9b044	-0.08285573
44	0x3d6020fe	0.054718964
45	0x3d8343a1	0.064093836
46	0xbd0b3644	-0.0339873
47	0x3e5becc5	0.21477039
48	0xbc9d1c81	-0.01917863
49	0xbd68b623	-0.056814324
50	0xbd8db448	-0.069191515
51	0x3dbff8a5	0.09373597
52	0x3d1d0975	0.038339097
53	0xbdaef00b	-0.08541878
54	0x3d3ccb10	0.046092093
55	0x3dc6d4cf	0.09708559
56	0xbd6bc3af	-0.057559665
57	0xbe191cf9	-0.14952458
58	0x3dd05bc8	0.10173756
59	0xbc5b63c3	-0.013390484
60	0xbe095137	-0.13409887
61	0xbd92fad6	-0.071767494
62	0xbce26e8d	-0.027640605
63	0x3d8214a9	0.06351597
64	0xbd861e36	-0.06548731
65	0x3a87514f	0.0010323914
66	0xbd0c356e	-0.034230642
67	0xbc9c3ae2	-0.019071046
68	0x3def0c1e	0.11672233
69	0xbd8eea13	-0.0697824
70	0xbdc3b8a9	-0.095567055
71	0xbd2a706e	-0.041611128
72	0x3ce89e8c	0.028395914
73	0xbd593923	-0.053033005
74	0xba793c72	-0.0009507603
75	0x3ccfeb0c	0.025380634
76	0x3c87648d	0.016527439
77	0x3d2683cc	0.040653035
78	0xbd045ea1	-0.032316808
79	0x3befd113	0.0073186248
80	0xbdd0b2cf	-0.10190355
81	0xbd913b71	-0.07091416
82	0x3dd6934f	0.10477316
83	0x3d315538	0.04329416
84	0xbd93fc4f	-0.072258584
85	0x3c2e08da	0.010622228
86	0xbc4698b1	-0.012121365
87	0x3d79e8b5	0.061012942
88	0xbd9deba3	-0.0771096
89	0x3d058984	0.03260185
90	0x3dc92ebd	0.09823368
91	0xbd0f00d0	-0.034912884
92	0x3c65ea66	0.014032936
93	0x3d4b4173	0.049622964
94	0xbe2a044a	-0.16603199
95	0x3d4159e3	0.047204863
96	0xbd5b6b60	-0.053569198
97	0x3b9866fc	0.0046509486
98	0x3cb9db62	0.022687618
99	0xbd6da579	-0.058019135
100	0x3d48fa21	0.049066667
101	0xbd9f710c	-0.07785234
102	0xbdf3c0b3	-0.11901989
103	0xbc9539fd	-0.018216128
104	0xbce75214	-0.02823738
105	0x39b99629	0.00035397828
106	0xbd399003	-0.045303356
107	0x3d0519b3	0.03249521
108	0x3b0f5895	0.0021872867
109	0xbc45147e	-0.0120288115
110	0xbc9dd468	-0.019266322
111	0x3deaf0fa	0.11471744
112	0x3daf393a	0.08555837
113	0x3ca55814	0.0201836
114	0x3d2b5ecc	0.041838452
115	0xbd81de3e	-0.063412175
116	0x3cb87617	0.022517247
117	0xbcc62e07	-0.02419187
118	0xbe0d8546	-0.13820371
119	0xbd412005	-0.047149677
120	0xbc3b13c1	-0.011418284
121	0xbd65ffc4	-0.05615212
122	0x3caf5101	0.02140093
123	0x3cc2790f	0.023739366
124	0xbc756458	-0.014977537
125	0x3dbe2f3a	0.092863515
126	0xbc5c45c4	-0.013444368
127	0x3d4b738b	0.049670737
128	0xbd6c6ce2	-0.057721026
129	0xbd44a77a	-0.04801128
130	0xbdefd7ba	-0.117110685
131	0x3d2ef5da	0.04271493
132	0xbd6bed12	-0.057599135
133	0xbdcd9ac6	-0.10039286
134	0xbde82d02	-0.113367096
135	0xbcbd9090	-0.023140222
136	0x3d7d031e	0.06177055
137	0x3d05cba2	0.032664903
138	0x3d86ec62	0.06588055
139	0xbce0a151	-0.027420672
140	0xbd4d8ff3	-0.05018611
141	0xbc793125	-0.015209471
142	0x3d285900	0.041100502
143	0x3cfc404e	0.030792382
144	0xbca5703d	-0.020195121
145	0xbd25e47e	-0.04050111
146	0xbd1618ee	-0.03664487
147	0x3d20f2d1	0.039294068
148	0x3c540a4f	0.012941911
149	0x3c8aad07	0.016928209
150	0x3d27e3d2	0.04098875
151	0x3d4250aa	0.04744021
152	0xbd65c69b	-0.056097608
153	0xbe12dfaf	-0.14343141
154	0xbd19d6e7	-0.037558462
155	0x3dcb0298	0.09912604
156	0x3d081391	0.033221785
157	0xbd27ecc6	-0.04099729
158	0x3caa11d7	0.02076046
159	0x3c9d6076	0.019211035
160	0x3a09ab1f	0.0005251634
161	0x3d89aa73	0.06721964
162	0x3ca8b7ca	0.02059545
163	0x3e17a15e	0.1480765
164	0xbd9995d3	-0.0749928
165	0xbde114d0	-0.10990298
166	0xbd10e71f	-0.035376664
167	0xbdebaae1	-0.11507202
168	0x3d0c5568	0.034261137
169	0xbd5d6041	-0.054046873
170	0x3c1edcdc	0.009696212
171	0x3d8dc7ae	0.069228515
172	0xbcd3dae1	-0.025861206
173	0x3cfdc446	0.03097738
174	0x3dfca933	0.1233696
175	0x3cd67540	0.026178956
176	0xbd62510e	-0.05525308
177	0x3cf082d5	0.02935926
178	0xbd863450	-0.065529466
179	0xbcb9ac39	-0.02266513
180	0x3d9c85dd	0.0764272
181	0xbe0eaf29	-0.13934006
182	0x3d582a54	0.052774742
183	0xbdb895d6	-0.09012954
184	0x3d088fa7	0.033340123
185	0x3d17ce8a	0.037062205
186	0xbd6e651e	-0.0582019
187	0xbdf8281e	-0.12117027
188	0xbd0a45fa	-0.03375814
189	0x3cbe17b3	0.02320466
190	0xbb3c2f55	-0.0028714736
191	0xbdb56f8c	-0.088591665
192	0x3d1d3c89	0.03838781
193	0x3d65d48b	0.0561109
194	0x3da5de02	0.08098985
195	0x3d536af5	0.051615674
196	0x3d87437a	0.06604667
197	0xbcd7ce43	-0.02634347
198	0xbcf46486	-0.02983309
199	0x3d1ceb8b	0.03831057
200	0xbd33d099	-0.043900106
201	0x3b9a8fe3	0.0047168597
202	0xbdd53a1e	-0.104114756
203	0xbcb82657	-0.02247922
204	0xbdc59307	-0.09647184
205	0xbc909c45	-0.01765264
206	0xbdd8465d	-0.10560296
207	0x3c48f723	0.012265953
208	0xbd2c304d	-0.04203825
209	0x3c06de62	0.008231731
210	0x3c6f8211	0.014618413
211	0x3d6707b2	0.056403823
212	0x3da29af8	0.07939714
213	0xbdf6ca8b	-0.12050351
214	0x3cd2e135	0.025742153
215	0xbd3d3f87	-0.046203163
216	0x3d1f57df	0.03890216
217	0x3cf88845	0.030338416
218	0x3dc9b61d	0.098491885
219	0xbdff2c70	-0.12459648
220	0x3d77f700	0.060538292
221	0x3d5256ef	0.051352438
222	0xbd3f1c3d	-0.04665779
223	0x3e2c4cee	0.16826221
224	0xbd061a65	-0.032740016
225	0x3c43276a	0.0119112525
226	0x3b58c207	0.0033074634
227	0x3de8d50a	0.11368759
228	0x3de27d8a	0.11059101
229	0x3d00b473	0.03142209
230	0x3d6c424c	0.057680413
231	0x3da0dad5	0.07854239
232	0xbc83e984	-0.01610256
233	0xbcec3219	-0.028832482
234	0x3d9d208b	0.07672223
235	0x3e07f698	0.13277662
236	0x3d1741e2	0.036928065
237	0xbc23c9b2	-0.009996818
238	0x3dcad336	0.099035665
239	0x3d1d9f43	0.038481962
240	0x3d472806	0.048622154
241	0xbd366342	-0.044528253
242	0xb9480db1	-0.00019078587
243	0x3e1e35e9	0.15450253
244	0x3dac2c90	0.08406937
245	0xbdc06ba1	-0.093955286
246	0xbd864018	-0.06555194
247	0xbd6b57ba	-0.05745671
248	0xbd856db7	-0.06515067
249	0xbb89ee1d	-0.0042092935
250	0x3d8cf778	0.068831384
251	0xbd6370f3	-0.05552764
252	0x3d484518	0.048894018
253	0xbdda4f13	-0.106596135
254	0x3d74defd	0.05978297
255	0x3e049f07	0.12951289

network_body._body_endoder.seq_layers.4.weight f4 [256, 256]
0	0x3d21ea5d	0.039530147
1	0x3b6c159c	0.0036023622
2	0xbca7b8a8	-0.020473793
3	0x3d91f25d	0.07126305
4	0xbc30d7eb	-0.010793666
5	0x3dd5a93c	0.104326695
6	0x3d9bfd64	0.0761669
7	0xbdd324ff	-0.10309791
8	0xbce2bc33	-0.027677631
9	0x3cdabb2f	0.026700584
10	0x3cd4780a	0.025936145
11	0x3dab966f	0.08378302
12	0x3c9b5924	0.018963404
13	0x3c02b02d	0.007976574
14	0x3b37c3af	0.002804022
15	0x3d8b2c78	0.06795591
16	0x3d18bedc	0.037291393
17	0x3e1cb199	0.15302123
18	0xbe107d32	-0.14110258
19	0xbdca0386	-0.09863953
20	0xbc5a831f	-0.013336926
21	0x3d0b541d	0.034015764
22	0xbbfdffed	-0.007751456
23	0x3be512e5	0.006990778
24	0x3d0441af	0.032289203
25	0x3c50de92	0.012748377
26	0x3d9530a8	0.07284671
27	0x3d28e2aa	0.04123179
28	0x3d05dc9f	0.032681104
29	0x3cd51a6b	0.026013574
30	0xbdd790d7	-0.10525673
31	0x3d77f41e	0.060535543
32	0xbd6619c3	-0.056176912
33	0x3cd41db4	0.02589307
34	0x3c864893	0.016392028
35	0xbd9091af	-0.07059037
36	0xbbd761cc	-0.0065729376
37	0xbcfc3690	-0.030787736
38	0x3d801139	0.06253285
39	0xbcfb6129	-0.030685978
40	0x3b9f96b8	0.004870262
41	0xba3f4f01	-0.0007297844
42	0x3ca855a6	0.020548653
43	0xbdc8dc72	-0.098076716
44	0x3d154f15	0.03645237
45	0x3de7c69d	0.11317179
46	0xbdc52c1d	-0.096275546
47	0x3cf9b9f4	0.030484177
48	0x3d99dc86	0.07512765
49	0x3d467dfd	0.048459996
50	0x3d2f072d	0.042731453
51	0x3c92b52e	0.017908659
52	0xbcc909da	-0.02454083
53	0xbcbe0608	-0.023196235
54	0xbcda2641	-0.026629569
55	0x3d2ce410	0.042209685
56	0x3c91e158	0.017807648
57	0xbd3676a3	-0.044546735
58	0x3d4be867	0.049782183
59	0x3daf69b6	0.08565085
60	0xbcbb9ee8	-0.02290292
61	0xbda45f85	-0.080260314
62	0x3d5585c3	0.05212952
63	0xbd838532	-0.06421889
64	0xbd113086	-0.035446666
65	0xbb845de7	-0.0040395143
66	0x3d8c545f	0.0685203
67	0xbd3d4e94	-0.046217516
68	0x3d157f2d	0.036498237
69	0xbcac505c	-0.021034412
70	0xbb301168	-0.0026865844
71	0xbcce5aac	-0.02518972
72	0x3c91ad3d	0.017782802
73	0xbce95839	-0.02848445
74	0xbc9083e5	-0.017641017
75	0xbcc2fdc7	-0.023802651
76	0xbdc356d1	-0.09538043
77	0x39104fde	0.00013762663
78	0x3d7084cc	0.058720395
79	0xbe0b8c6f	-0.1362779
80	0xbd369dfd	-0.044584263
81	0x3c803076	0.015648108
82	0x3dbae3a3	0.091254495
83	0x3d8b2986	0.06795029
84	0xbe023a2a	-0.127175
85	0x3d6e9eac	0.05825679
86	0xba9a5f56	-0.001177768
87	0xbd0881c1	-0.033326868
88	0xbc8da9a1	-0.0172928
89	0xbc55fce8	-0.013060786
90	0xbc9fbcdd	-0.019499237
91	0x3d016dfa	0.031599022
92	0xbc289e0c	-0.010291588
93	0xbc1d7ef0	-0.009612784
94	0xbaed40cf	-0.001810098
95	0x3dfdb373	0.12387743
96	0x3d0c7394	0.03428991
97	0xb88ce9f5	-6.719298e-05
98	0x3e352771	0.17690827
99	0x3d9b75c1	0.07590819
100	0xbe271999	-0.16318358
101	0x3db9935e	0.09061311
102	0xbd78aa34	-0.060709193
103	0x39ca8752	0.00038629264
104	0xbc6090e8	-0.013706423
105	0x3ca90939	0.02063428
106	0x3c04ea9d	0.008112577
107	0x3b6d7098	0.0036230441
108	0x3c8f7614	0.017512359
109	0x3cc4bdbe	0.024016257
110	0xbd08690d	-0.03330331
111	0xbd5a2f7b	-0.053267937
112	0x3d7c145a	0.061542846
113	0xbd3cfc29	-0.046138916
114	0xbd258481	-0.04040957
115	0xbd400119	-0.046876047
116	0x3d9b4537	0.07581561
117	0xbd602cdb	-0.054730278
118	0xbccb0db0	-0.0247868
119	0xbd86e771	-0.06587113
120	0x3b9ab0ad	0.0047207684
121	0xbce04a96	-0.027379315
122	0x3d55027d	0.052004326
123	0x3ce0be1c	0.027434401
124	0xbda68944	-0.0813165
125	0x3cac4707	0.021029962
126	0xbc08fe53	-0.008361417
127	0x3d56aa65	0.052408595
128	0xbc91d030	-0.017799467
129	0x3aaed6b9	0.0013339139
130	0xbd29b72f	-0.041434463
131	0xbcdd18d9	-0.026989387
132	0xbd217789	-0.03942064
133	0xbc8fd977	-0.01755975
134	0x3bb6e5e7	0.0055816057
135	0x3d77f5ae	0.060537033
136	0xbcecda1b	-0.028912595
137	0xbd8c2e89	-0.068448134
138	0x3e1c9f2f	0.15295099
139	0xbd7d9a09	-0.061914477
140	0x3d795ab6	0.060877524
141	0x3d0b1521	0.033955697
142	0xbcab3922	-0.020901266
143	0xbc55fffc	-0.01306152
144	0xbc89e38a	-0.016832132
145	0xbd7f9a40	-0.062402964
146	0x3d4aa1aa	0.04947058
147	0x3cf44fde	0.02982324
148	0x3d5d228e	0.053988032
149	0xbd2c9e3a	-0.042143084
150	0xbd2ec491	-0.04266793
151	0xbdad55c1	-0.08463622
152	0x3c4c87f0	0.012483582
153	0x3db7534f	0.08951437
154	0xbd58de26	-0.052946232
155	0xbc9f7d61	-0.019468965
156	0xbd9212f4	-0.07132521
157	0x3d8ea8b6	0.06965773
158	0xbd7efdc3	-0.062253725
159	0x3de117d2	0.109908715
160	0x3ca2af19	0.019858884
161	0xbd1d309a	-0.03837643
162	0xbcf8bc69	-0.030363278
163	0xbd834c7e	-0.06411074
164	0x3d40cff0	0.047073305
165	0xbdddcc30	-0.10829961
166	0xb9b3297d	-0.00034172452
167	0x3b087619	0.0020822345
168	0xbd2dabe2	-0.04240025
169	0xbdf1ceb2	-0.11807002
170	0x3d19a8ea	0.037514605
171	0xbdc7598b	-0.09733876
172	0xbe54815b	-0.2075247
173	0x3d1c84e0	0.038212657
174	0x3dae9d1b	0.08526059
175	0x3d0dce1c	0.03462039
176	0x3ca7445d	0.02041834
177	0xbca8bb77	-0.020597203
178	0x3c5de629	0.013543644
179	0xbd3f2c12	-0.046672888
180	0x3d1ca8db	0.03824697
181	0xbc5cb13b	-0.013469989
182	0xbbebbeee	-0.0071943915
183	0x3b198ef7	0.002343116
184	0x3d961d7b	0.07329842
185	0x3b7b29d1	0.0038324485
186	0xbc70b321	-0.014691145
187	0x3da61b12	0.08110632
188	0x3d55f64f	0.05223685
189	0xbddd05b4	-0.107921034
190	0xbd10f34f	-0.035388287
191	0xbcf31e8a	-0.029677648
192	0xbb61e406	-0.0034468188
193	0xbd536ae3	-0.051615607
194	0xbbe0411d	-0.0068436996
195	0xbd66da42	-0.05636049
196	0xbcbeb1f8	-0.023278221
197	0x3dc1fcac	0.094720215
198	0xbe254661	-0.16140129
199	0xbd72ce10	-0.059278548
200	0x3d75fbd3	0.06005461
201	0x3db8eb06	0.09029202
202	0xbc1c0b2c	-0.009524148
203	0x3d9fa639	0.07795376
204	0xbca8b807	-0.020595564
205	0xbd60e6a4	-0.054907456
206	0x3d57e930	0.05271262
207	0x3dea2692	0.11433138
208	0xbd71e495	-0.059055883
209	0x3ca9afea	0.020713765
210	0x3cb8398f	0.022488384
211	0xbdc5289d	-0.09626887
212	0x3dc2edf5	0.09518043
213	0x3dc812b1	0.0976919
214	0x3d94c578	0.07264227
215	0xbd0e3b9f	-0.034724828
216	0xbd202af5	-0.039103467
217	0x3d5d99f3	0.054101896
218	0xbe012061	-0.12610008
219	0x3db6a0e1	0.08917404
220	0x3d897022	0.06710841
221	0xbb3d511b	-0.0028887454
222	0x3d9f517b	0.07779213
223	0xbe0d891b	-0.13821833
224	0x3ccd3f0f	0.025054483
225	0x3bbc2697	0.005741905
226	0xbc5bc492	-0.013413565
227	0xbc9b6333	-0.0189682
228	0x3c5fbbc2	0.013655605
229	0xbd7508a9	-0.059822712
230	0x3bde75bc	0.0067889374
231	0xbc4bc64a	-0.0124374125
232	0x3c919462	0.01777095
233	0x3ba32a67	0.00497942
234	0x3dab1bda	0.08354922
235	0x3e0d1c70	0.1378038
236	0xbc19c12d	-0.009384436
237	0xbd062f90	-0.032760203
238	0xbb7e136f	-0.0038768908
239	0x3d6b1129	0.057389412
240	0xbd0a60b7	-0.03378364
241	0x3d1fd7e0	0.039024234
242	0xbce4f3b3	-0.027948236
243	0xbc1ad484	-0.009450082
244	0x3d452162	0.04812754
245	0xbb841da7	-0.004031855
246	0xbd7a0f68	-0.06104985
247	0x3dc4ddc2	0.096126094
248	0xbd23f3d2	-0.040027447
249	0x3da970df	0.082734816
250	0x3c8e68e2	0.017383996
251	0x3c7d048b	0.015442978
252	0xbcb4e4bc	-0.022081725
253	0x3d4cedfd	0.05003165
254	0xbdc9bf12	-0.09850897
255	0xbd8259fa	-0.06364818

action_model._continuous_distribution.mu.weight f4 [1, 256]
0	0xbbd19180	-0.006395519
1	0xbc912995	-0.017720023
2	0xbc95c6a9	-0.018283205
3	0xbc39491b	-0.011308934
4	0x3ca142a9	0.019685106
5	0x3bd99d9d	0.0066411034
6	0xbcc6b097	-0.024254126
7	0xbbefc7d7	-0.007317524
8	0xbaf658ad	-0.0018794738
9	0xbc8c2e5a	-0.017111946
10	0x3c6aeaab	0.014338176
11	0xbba1aeef	-0.004934184
12	0xbac892e6	-0.0015302568
13	0x3cbe1cb9	0.023207055
14	0xbc040edc	-0.008060183
15	0x3b38b743	0.0028185404
16	0xbc16185b	-0.00916108
17	0xbc7c280d	-0.015390408
18	0x3c7e5f28	0.015525617
19	0xbc43cddc	-0.011950936
20	0x3c8bf701	0.017085554
21	0x3c10c043	0.008834901
22	0xbb83947d	-0.004015504
23	0xbc8a8eec	-0.016913854
24	0x3bde6fda	0.006788236
25	0x3bf4500b	0.007455831
26	0xbc6b2017	-0.0143509125
27	0x3c9a98a8	0.01887162
28	0xbc405e05	-0.011741166
29	0x3c2a4b2c	0.010393899
30	0xbc999929	-0.01874979
31	0x3baa997e	0.005206286
32	0x3c7b6368	0.0153435245
33	0x3b02742f	0.0019905677
34	0xbbeee45f	-0.0072904075
35	0xba0e45b1	-0.0005427255
36	0x3c1864b2	0.009301351
37	0xbc131c79	-0.008978956
38	0x3c3abf76	0.011398187
39	0xbb4fa7eb	-0.003168578
40	0x3bb33f7b	0.005470214
41	0xbb8574f3	-0.0040727793
42	0x3b9c1d17	0.00476421
43	0xbcee9552	-0.029123936
44	0x3a5b19a0	0.00083580054
45	0x3cabe9b3	0.02098546
46	0xba015011	-0.00049328903
47	0xba60acfd	-0.0008570699
48	0x3b42e083	0.002973587
49	0xbb39808d	-0.0028305382
50	0x3bf6b517	0.007528912
51	0xbb913f61	-0.004432604
52	0xbcc773fe	-0.024347302
53	0xbc323d63	-0.010878894
54	0x3cbdc093	0.023163116
55	0xbc0f1342	-0.008732619
56	0xbc8e8a5f	-0.017399965
57	0x3c6108cd	0.013735008
58	0x3c69fe92	0.014281886
59	0xbc84e921	-0.016224446
60	0xbc2064d0	-0.009789661
61	0xbbbfe6cd	-0.005856371
62	0xbc359a89	-0.011084207
63	0xbbeeee33	-0.007291579
64	0xbc71b3f3	-0.014752376
65	0xbcaf9ef3	-0.021438098
66	0x3bab69d3	0.005231121
67	0xbb175ad2	-0.0023094905
68	0x3a179a5a	0.0005783193
69	0xbc5d7c60	-0.013518423
70	0xbc166293	-0.009178775
71	0xbb8b44f6	-0.004250164
72	0xbc46231d	-0.012093333
73	0xbc95f5e7	-0.018305732
74	0x3ab6d8cd	0.001395011
75	0xbc65de08	-0.014029987
76	0x3c8b6576	0.017016154
77	0xbcc2cf97	-0.023780627
78	0xbc6ddad7	-0.0145175075
79	0x3c8aa733	0.01692543
80	0xbc87fa4f	-0.016598849
81	0x3ae6af6f	0.0017599891
82	0x3cfc97d0	0.030834109
83	0xbc80dfef	-0.01573178
84	0x3c4b3d7f	0.0124047985
85	0xbcb84e5f	-0.022498308
86	0x3bccfc65	0.0062556737
87	0xbab7bf8d	-0.0014018879
88	0x3cee7dd7	0.02911274
89	0x3c542f10	0.012950674
90	0xbb7e77f3	-0.003882882
91	0xba248727	-0.0006276243
92	0x3c956763	0.018237775
93	0x3b51524f	0.003193993
94	0xbc13a94a	-0.00901253
95	0xbb9f46b8	-0.0048607253
96	0x3c921495	0.01783208
97	0xbcccf8e5	-0.025021026
98	0xbc2917c5	-0.0103206085
99	0x3b25673e	0.002523854
100	0x3bca31bb	0.006170479
101	0x3cde27ef	0.027118651
102	0xbbaa6903	-0.0052005067
103	0x3a95fa52	0.0011442399
104	0xbb208413	-0.0024492785
105	0x3c29e9db	0.010370697
106	0x3be9c8b0	0.0071345195
107	0x3cbccde3	0.023047393
108	0x3a1e1a83	0.0006031172
109	0xbc371dba	-0.011176521
110	0x3c80dffd	0.015731806
111	0xbc90457e	-0.017611261
112	0xbb564e65	-0.0032700535
113	0xbcae3af6	-0.02126835
114	0x3c7f728f	0.015591278
115	0x3c5e2477	0.013558499
116	0x3cbfddeb	0.023421248
117	0xbc0674c4	-0.00820655
118	0xbc6ef010	-0.014583603
119	0x3c1263c9	0.008934923
120	0xbc8a6e90	-0.016898423
121	0x3c5547e0	0.013017625
122	0xbb85f76e	-0.004088334
123	0xbc9999ff	-0.018750189
124	0x3c3b925a	0.011448467
125	0xbc3644be	-0.011124788
126	0x3c131b77	0.008978716
127	0x3a0be617	0.0005336715
128	0xbb9c8856	-0.0047769947
129	0x3b87e397	0.004147004
130	0xbcb7d85f	-0.022442041
131	0x3b56c278	0.003276972
132	0x3c377043	0.011196199
133	0x3c1d53f7	0.009602538
134	0xbc8939df	-0.016751228
135	0xbbe3dd9d	-0.0069539086
136	0xbc572a5a	-0.013132656
137	0x3b958e22	0.0045640627
138	0xbbcc0802	-0.0062265405
139	0x3c344202	0.011002066
140	0xbcca09fb	-0.024662962
141	0xbc26ff27	-0.010192669
142	0x3ca73027	0.020408703
143	0xbc2454e7	-0.010030008
144	0xbc5033dd	-0.012707678
145	0xbb34c7d4	-0.0027584927
146	0x3a0f0023	0.00054550375
147	0x3b2b1920	0.0026107505
148	0xbc00d6ba	-0.007863695
149	0xbb087c3b	-0.0020826
150	0xbbaeb99b	-0.0053321845
151	0xbba20296	-0.004944156
152	0xbb9611eb	-0.0045797727
153	0x3bc28524	0.0059362818
154	0xbc62534a	-0.013813803
155	0x3c954181	0.018219711
156	0x3bfffd35	0.007812167
157	0x3d06effb	0.032943707
158	0xbaa84265	-0.001283717
159	0x3d0c5f79	0.034270737
160	0x3c94031d	0.01806789
161	0x392b78f3	0.00016352888
162	0xb8eb58b7	-0.00011222198
163	0xbc134494	-0.008988518
164	0xbc60375d	-0.013685075
165	0x3cab017b	0.02087473
166	0xbad093c5	-0.0015913179
167	0xbc8db058	-0.017296001
168	0xbc672723	-0.014108452
169	0xbbdd43f7	-0.006752487
170	0x3c7486e3	0.014924738
171	0xbafb86ca	-0.001918995
172	0xbbf4a6ed	-0.007466188
173	0xbbb0265f	-0.005375668
174	0xbad7a7a5	-0.001645316
175	0xbc84bc98	-0.01620321
176	0x3b27d42b	0.002560864
177	0x3c7d4b8f	0.015459909
178	0xbba13213	-0.0049192994
179	0xbcbe18aa	-0.02320512
180	0x3cb43daa	0.02200206
181	0x3b974dd6	0.004617433
182	0xbcbc0b7c	-0.022954695
183	0xbaa18eee	-0.0012325922
184	0xbc909ed4	-0.01765386
185	0xbb263353	-0.0025360181
186	0x3b6ce605	0.0036147845
187	0x3c46011a	0.012085224
188	0x3bf23f3b	0.0073927916
189	0x3ccdaf87	0.025108112
190	0xbc10521f	-0.008808642
191	0xbc1d7062	-0.009609314
192	0x3cb96796	0.022632401
193	0xbbe406da	-0.0069588246
194	0x3b0c7e36	0.0021437532
195	0xbbc4435f	-0.0059894766
196	0xbcb0129f	-0.021493254
197	0xbbb9d3c5	-0.005670997
198	0xbc571b82	-0.013129117
199	0x3cbd0e34	0.023078062
200	0x3acddbad	0.0015705727
201	0xb94ecacf	-0.00019721243
202	0xbc97991b	-0.018505624
203	0xba5eeada	-0.00085036235
204	0xba1bcf53	-0.00059436745
205	0xbc58142f	-0.013188406
206	0xbb015e16	-0.0019739917
207	0x3b1b5753	0.0023703172
208	0x3c226015	0.009910603
209	0x3b74633b	0.0037290591
210	0xbc9bb21b	-0.019005826
211	0x3cce91fa	0.025216091
212	0xbca53b33	-0.02016983
213	0x3c8b89db	0.017033508
214	0xbb930a0e	-0.0044872826
215	0x3c336106	0.010948425
216	0x3c73b483	0.01487458
217	0xbb8cc0f3	-0.0042954623
218	0xbbd53a22	-0.006507174
219	0xbc05ad61	-0.0081590125
220	0xbc1db79b	-0.0096262945
221	0xbbaaddec	-0.0052144434
222	0x3ba924a0	0.0051618367
223	0xbc36a679	-0.011148089
224	0xbc16b9d7	-0.009199581
225	0xbbcf4f75	-0.0063266107
226	0xbc03ef8d	-0.008052719
227	0x3a4e1490	0.00078613404
228	0xbbd22828	-0.0064134784
229	0xbc32eb07	-0.010920293
230	0xbb5cd00b	-0.003369334
231	0x3bf8a3fd	0.0075879083
232	0x3aba2f2d	0.0014204733
233	0x3b94e001	0.004543305
234	0x3c09d089	0.008411535
235	0xbc855ab6	-0.016278606
236	0x3c21ab07	0.009867436
237	0xbb2b5952	-0.0026145768
238	0xbc50dfff	-0.012748717
239	0x3b60b3ea	0.0034286925
240	0xbbb6bcd2	-0.0055767084
241	0xbc20f920	-0.009825021
242	0x3be83323	0.007086174
243	0x3cd66a8a	0.026173849
244	0xbb95eb8b	-0.004575198
245	0xbb16f84b	-0.0023036178
246	0x3c4eb407	0.012616164
247	0xbae29e92	-0.0017289689
248	0xbc1d8f7a	-0.009616727
249	0xbc550bff	-0.013003348
250	0xbb036106	-0.0020046844
251	0xbc6693cb	-0.0140733225
252	0x3ca909c0	0.020634532
253	0x3cbbe573	0.022936558
254	0x3c05a8f9	0.008157962
255	0x3cb30163	0.021851247

action_model._discrete_distribution.branches.0.weight f4 [1, 256]
0	0x3bb90cba	0.005647269
1	0x3c104a4b	0.008806775
2	0x3b4b6cff	0.0031040309
3	0xbbd8a873	-0.0066118776
4	0x3bb2633f	0.00544396
5	0xbc6c7243	-0.014431539
6	0xbb18f30b	-0.0023338224
7	0xbb92988d	-0.004473752
8	0xbb9fd7d9	-0.004878026
9	0xbc44c042	-0.012008728
10	0x3b7e9f90	0.003885243
11	0xbb9636a3	-0.00458415
12	0xbb7d86b3	-0.0038685023
13	0xbc4ad4d0	-0.01237984
14	0xba9b6fed	-0.0011858918
15	0x3be01f18	0.006839644
16	0x3a953587	0.001138375
17	0xb883f497	-6.292125e-05
18	0x39952d63	0.0002845331
19	0xbbab8ce9	-0.0052353037
20	0xbc00ed8a	-0.007869134
21	0xbb11586a	-0.0022177943
22	0x3b6b2dfb	0.003588556
23	0xbb8df46b	-0.0043321154
24	0xbbec7c1d	-0.007216944
25	0x3c1f9c13	0.009741801
26	0xbb5d4f90	-0.0033769347
27	0x3c140192	0.0090335775
28	0x372edf47	1.0423194e-05
29	0xbaeb93f5	-0.0017973172
30	0xbb84861b	-0.004044307
31	0xbba627ea	-0.005070676
32	0xbab01654	-0.0013434389
33	0xbbde80a8	-0.0067902394
34	0x3c243a84	0.010023717
35	0x3ba04664	0.0048912037
36	0x3c6fd1d5	0.01463743
37	0x3afd6687	0.0019332924
38	0x3c315e2c	0.010825675
39	0xbb62fcdb	-0.0034635577
40	0xbb39bf34	-0.0028342726
41	0xbbb2c28a	-0.00545532
42	0x3b2e01cc	0.0026551364
43	0x3b1bc5db	0.0023769054
44	0x3b241501	0.0025036933
45	0x3b369046	0.002785699
46	0xbbb5897a	-0.00554007
47	0x3a41265f	0.00073680835
48	0xbb6a831b	-0.0035783711
49	0x3b9de558	0.0048185997
50	0xbb9c9b60	-0.0047792643
51	0x3ae7b68f	0.0017678308
52	0x3a66f9b0	0.000881101
53	0x3b2126c7	0.0024589763
54	0x3c22fbd7	0.009947739
55	0x3b20555b	0.0024464938
56	0xbb93ae50	-0.0045068637
57	0xbbfec645	-0.0077751004
58	0xbb9c7485	-0.0047746324
59	0x3b16ffe5	0.0023040709
60	0x3c110521	0.0088513205
61	0xba5767a7	-0.00082170445
62	0xbb7c3ed0	-0.0038489588
63	0x3b50c222	0.0031853993
64	0x3bc3cc0f	0.0059752534
65	0x3bcab953	0.006186643
66	0x3bb41a8f	0.00549633
67	0xbc2848d3	-0.010271269
68	0x3b3a6dfb	0.00284469
69	0xba61b70f	-0.00086103467
70	0xbab74857	-0.0013983351
71	0xbc13735b	-0.008999671
72	0xbab37f7b	-0.0013694608
73	0xbbffa8cf	-0.007802106
74	0x3baade0b	0.005214458
75	0xbb683d77	-0.0035437027
76	0x3a812e3e	0.00098557
77	0xbbe7b40b	-0.0070710233
78	0xbae3073a	-0.0017320879
79	0x3ba2f2ee	0.004972807
80	0x3b22e2ee	0.00248545
81	0xbac4ce74	-0.0015015141
82	0x3afe6ebb	0.0019411662
83	0xbbf8c935	-0.007592345
84	0xbb7f307a	-0.0038938806
85	0xbc1d0413	-0.009583491
86	0xbbb9c2d4	-0.0056689773
87	0xbb692083	-0.0035572357
88	0x3bc7aaca	0.0060933577
89	0xb8f9c823	-0.000119105236
90	0x3c15812d	0.009125036
91	0x3ab685a9	0.0013925332
92	0x3c4af1a6	0.012386715
93	0xb9eba448	-0.00044945092
94	0xbad50aa8	-0.0016253786
95	0xba9ad649	-0.001181313
96	0xbbaf3235	-0.0053465613
97	0xbb362747	-0.0027794407
98	0xbaaa6a77	-0.00130017
99	0xbb73f8d3	-0.0037227168
100	0xbb82ad6a	-0.0039879577
101	0x3c4447b7	0.011979989
102	0xbba95b7f	-0.005168378
103	0xbbe10cdf	-0.0068679894
104	0xbb686b2b	-0.0035464268
105	0xbaa3c9d4	-0.0012496063
106	0xbb73f5b3	-0.0037225306
107	0xba63a3e3	-0.0008683784
108	0x3b8b6568	0.004254032
109	0x3a0fd5eb	0.00054868934
110	0xbc39ae53	-0.011333066
111	0xbaaee4de	-0.0013343354
112	0x3b8ee8ef	0.004361264
113	0xb9b303c3	-0.00034144343
114	0x3ba42e57	0.005010407
115	0x3c052767	0.00812707
116	0xbb07674e	-0.002066094
117	0xbba10c01	-0.004914761
118	0x3b81d737	0.003962423
119	0x39f68d7d	0.00047026193
120	0x3ad66375	0.0016356545
121	0x3bc69fdc	0.006061537
122	0x3bd87173	0.006605321
123	0xbb69feb8	-0.0035704803
124	0x3ae5752a	0.0017506231
125	0x3c032473	0.008004296
126	0x39e63a3a	0.000439124
127	0x3c0ffb93	0.008788007
128	0x3aac1c85	0.0013131058
129	0x3c0ad581	0.008473755
130	0x3ad2e1c2	0.001608901
131	0x3b13d5b2	0.0022557792
132	0xbacafb2f	-0.0015486235
133	0xbb87fbb7	-0.00414988
134	0xba2cc14f	-0.00065900845
135	0xbac4bbf0	-0.0015009623
136	0x3beb1a5b	0.0071747727
137	0xbbacefb8	-0.0052776
138	0xbb25b37e	-0.0025283988
139	0x39218e66	0.00015407204
140	0x3bb8650b	0.0056272796
141	0x3b9429d6	0.004521589
142	0x3b8c4e29	0.0042817784
143	0x3c005820	0.007833511
144	0x3b657342	0.0035011326
145	0x3be56438	0.0070004724
146	0xb9076917	-0.00012913752
147	0xb94d07fd	-0.000195533
148	0xbabb8073	-0.0014305249
149	0x39be8373	0.0003633756
150	0xbc1820df	-0.009285181
151	0x3bbc1b9b	0.0057405955
152	0xbb5f4885	-0.0034070325
153	0x3c2486b3	0.01004188
154	0x3b85aa03	0.004079105
155	0xbbfc850b	-0.0077062896
156	0x3b3734ce	0.0027955058
157	0x3a69b08f	0.0008914554
158	0xbb3a8203	-0.002845884
159	0x3bf07ced	0.007339111
160	0xbae9d967	-0.001784128
161	0xbb50c480	-0.0031855404
162	0xbc3c222f	-0.011482759
163	0x3add452b	0.0016881576
164	0x3ad02b98	0.0015882133
165	0x3be265bb	0.0069091
166	0x3b57a562	0.0032904972
167	0x3baa9781	0.005206049
168	0xbbc72a33	-0.0060780286
169	0x3bf0e0d7	0.0073510217
170	0xbb3328b2	-0.0027337489
171	0x3ae47105	0.0017428702
172	0x3c15e9ee	0.009150011
173	0x3bfac348	0.007652674
174	0x3b85b63a	0.004080561
175	0x3c18fb9c	0.009337332
176	0x3bbdff3b	0.005798248
177	0x3b341f2a	0.0027484396
178	0xbc137d83	-0.009002092
179	0x3c0631ef	0.008190616
180	0x3b68849f	0.003547944
181	0xba9fa3fa	-0.0012179606
182	0xba969cc9	-0.0011490817
183	0x3b1279ed	0.0022350505
184	0x3b7e4b82	0.003880233
185	0xbcafe6e2	-0.021472398
186	0xbbb1aece	-0.0054224497
187	0x3b96ffa5	0.004608112
188	0xbc16adfe	-0.009196756
189	0xb9a24063	-0.0003094702
190	0xbbee9f60	-0.0072821826
191	0xbb632a88	-0.0034662802
192	0x3bc5d69f	0.0060375477
193	0xbc3f2809	-0.01166726
194	0x3a6bc3f3	0.0008993737
195	0x3c315f4d	0.010825944
196	0xbb3777aa	-0.002799491
197	0xbbb37b4f	-0.005477346
198	0xbba5b0b5	-0.0050564655
199	0xbbc1fb97	-0.0059198844
200	0xba62353f	-0.000862915
201	0xbae22c4f	-0.0017255637
202	0xbb63802d	-0.003471385
203	0x39ac5b8a	0.00032874598
204	0xbb7cb2bd	-0.0038558685
205	0x3c0eb410	0.008709922
206	0x3bbeab46	0.005818757
207	0xbbf20c03	-0.007386686
208	0xba9c19f2	-0.0011909588
209	0x3c02c48c	0.007981431
210	0x3c0d17c7	0.008611626
211	0x39f91638	0.00047509535
212	0x3b9ba42f	0.004749797
213	0xbc7aa203	-0.015297416
214	0xbc0c5963	-0.008566233
215	0xbaafc9ab	-0.0013411542
216	0x3b59ca85	0.0033232283
217	0xbb0ca893	-0.0021462783
218	0xbb019beb	-0.0019776772
219	0xbbcbe132	-0.0062219137
220	0xbc27a1de	-0.010231463
221	0x3ba17ea3	0.0049284264
222	0x39005c2f	0.00012241372
223	0xbb80bb2b	-0.003928562
224	0x3c2a3545	0.010388677
225	0x3bc57ce9	0.0060268533
226	0x3c54105f	0.012943356
227	0x3b786717	0.0037903243
228	0x3beceacb	0.007230138
229	0x3c923bc7	0.01785077
230	0x3bfdf807	0.0077505144
231	0x3be42360	0.006962225
232	0x39f5112a	0.0004674283
233	0x3c26e065	0.010185336
234	0x3bc6c6f5	0.006066198
235	0xbba94b07	-0.0051664147
236	0xbb1ed0cb	-0.0024233337
237	0x3b6a7f45	0.0035781425
238	0xbbb51a29	-0.0055268
239	0xbbd2aa7f	-0.006429016
240	0xbb96109f	-0.004579618
241	0xba8a8614	-0.0010568523
242	0x3c296237	0.010338358
243	0xba85e8e3	-0.00102165
244	0xbb95d4bf	-0.0045724805
245	0xb9cc190c	-0.00038928573
246	0xbc155ee1	-0.009116859
247	0x3bbee3cf	0.0058254967
248	0x3c1a84df	0.009431093
249	0xbb9c1d7b	-0.0047642565
250	0x3b4a392b	0.0030856829
251	0x3a897387	0.00104867
252	0x3a9ac74b	0.0011808662
253	0x3b389bab	0.0028168957
254	0xb9934385	-0.0002808833
255	0x3af75a6a	0.001887155

onnx::Div_75 f4 [14]
0	0x3d017651	0.031606976
1	0x3d017651	0.031606976
2	0x3d017651	0.031606976
3	0x3d017651	0.031606976
4	0x3d017651	0.031606976
5	0x3d017651	0.031606976
6	0x3d017651	0.031606976
7	0x3d017651	0.031606976
8	0x3d017651	0.031606976
9	0x3d017651	0.031606976
10	0x3d017651	0.031606976
11	0x3d017651	0.031606976
12	0x3d017651	0.031606976
13	0x3d017651	0.031606976
