results/training1/BoundarySequence/BoundarySequence-0.onnx (onnx, 557074 bytes, 8 tensors)

network_body.observation_encoder.processors.0.normalizer.running_mean f4 [20]
0.0 0.0 0.0 0.0 0.0 0.0 0.0 0.0
0.0 0.0 0.0 0.0 0.0 0.0 0.0 0.0
0.0 0.0 0.0 0.0
00000000: 0000 0000 0000 0000 0000 0000 0000 0000
00000010: 0000 0000 0000 0000 0000 0000 0000 0000
00000020: 0000 0000 0000 0000 0000 0000 0000 0000
00000030: 0000 0000 0000 0000 0000 0000 0000 0000
00000040: 0000 0000 0000 0000 0000 0000 0000 0000

network_body._body_endoder.seq_layers.0.weight f4 [256, 20]
0.24609503 -0.012704195 -0.05265646 0.27022377 0.19660276 -0.052708622 0.18088378 0.18193363
0.13361438 0.13545644 -0.20478934 -0.14973165 -0.22162835 0.25933543 -0.17579593 -0.12163985
0.031075656 0.28844893 -0.16063313 -0.31135124 -0.1611355 -0.10401935 0.115931064 0.19222702
0.049041964 -0.026534146 -0.022588914 0.0044855243 -0.17587973 -0.19944595 -0.059341162 -0.030066546
0.42173502 -0.25854248 0.05956875 -0.05256276 0.17361523 0.13583243 0.04894328 -0.05495588
-0.3709865 -0.33628017 -0.056823663 0.1758875 -0.5052912 -0.091239385 -0.05969587 -0.037823323
0.30750203 0.01414183 0.07082334 0.38182524 0.11866364 0.07575454 -0.041207153 0.24201831
-0.0677508 -0.124422595 -0.14392196 0.07112624 -0.057654403 0.060875524 -0.12251938 -0.25132167
-0.15479822 0.22969249 -0.2502823 0.21769445 -0.34604898 0.24152513 -0.0029720198 0.21919838
0.47420284 0.22184576 0.046582107 -0.2937035 -0.19712992 -0.14748926 0.16642788 -0.28403148
-0.03195678 -0.35001612 0.0672543 0.16799366 0.15050274 -0.082114145 0.056486912 0.34417605
0.241296 0.30624658 0.0068316823 0.3356335 -0.19517083 0.14223202 0.14657739 -0.43890306
0.15182568 -0.20635796 0.11320842 -0.13717385 -0.22788276 0.13332969 -0.09251386 -0.06273242
-0.12893921 -0.037642498 0.6013383 -0.39956665 0.035963934 0.52703077 -0.21410102 -0.43508467
0.14130883 0.4085704 -0.081690185 0.07676102 0.5612971 0.17028128 0.33002648 -0.49553347
-0.3111581 -0.11635539 0.35326618 -0.122932084 0.34139845 -0.100365624 0.03255856 0.026178485
0.16964516 0.013646703 0.06903954 -0.24414067 0.18212764 0.09805996 -0.045368563 -0.17118433
0.25190854 0.014486577 0.24764407 0.03813089 -0.047903966 -0.15580636 0.04709066 0.057154924
-0.08196537 0.16253814 -0.24057654 -0.17743734 -0.46871886 -0.1477162 0.22357543 0.19982597
0.087731265 -0.13264163 -0.26603624 0.051177055 0.03976396 0.28026122 0.23204567 -0.17828995
-0.09448364 -0.0023980774 0.06396642 0.6350696 -0.0656128 -0.100190565 -0.09215536 0.12240889
-0.04088651 0.3271594 -0.2730174 0.12006143 -0.024267085 -0.10729111 0.19589947 0.1024976
-0.096574165 -0.077303566 0.055979006 -0.22987594 -0.09745918 -0.294386 0.19248828 -0.12852503
0.3273528 -0.13791874 -0.100750744 -0.09744202 -0.08523576 0.38068718 0.27952412 0.44186455
-0.21092959 0.018047096 0.5788594 0.05587489 -0.32956278 -0.41881776 -0.20198667 -0.1453192
-0.13645297 -0.045038607 -0.14200273 -0.034098547 0.040808205 -0.0629474 0.005746177 -0.17417704
-0.040544756 0.029537056 0.10412402 0.3277936 -0.161951 0.2819532 -0.14416565 0.09180933
0.19679347 0.27051637 -0.48698616 -0.21067321 -0.4523656 -0.19791833 -0.0131329745 -0.06425371
-0.22146973 -0.099869005 -0.14318472 0.33446035 -0.37852257 0.01588228 0.029350469 0.37639356
-0.017294863 -0.065712444 -0.18568286 -0.11216195 -0.1693288 -0.04421603 -0.14784244 0.18776932
0.07440651 -0.13535619 -0.16320594 -0.15041581 0.052548144 0.24599944 -0.059212435 -0.1929174
-0.1468863 -0.07873306 0.19884631 -0.0865812 0.0036450098 0.23905033 -0.0631199 0.16860339
00000000: 5600 7c3e 4225 50bc 4dae 57bd c55a 8a3e
00000010: 3c52 493e ffe4 57bd 9939 393e cf4c 3a3e
00000020: 35d2 083e 18b5 0a3e 4cb4 51be 4153 19be
00000030: 8bf2 62be 9dc7 843e d903 34be 501e f9bd
00000040: 6092 fe3c 94af 933e 037d 24be 6e69 9fbe
00000050: b400 25be 1908 d5bd 446d ed3d 29d7 443e
00000060: 3ae0 483d 235e d9bc 630c b9bc 4efb 923b
00000070: d119 34be 8f3b 4cbe b80f 73bd 1e4e f6bc
00000080: a7ed d73e ae5f 84be 5dfe 733d 0c4c 57bd
00000090: 31c8 313e a817 0b3e c078 483d 6b19 61bd
000000a0: f1f1 bdbe ea2c acbe eebf 68bd da1b 343e
000000b0: c45a 01bf b7db babd a883 74bd a1ec 1abd
000000c0: e870 9d3e 22b3 673c d40b 913d 997e c33e
000000d0: ec05 f33d 3225 9b3d d5c8 28bd a6d3 773e
000000e0: eec0 8abd 46d1 febd 4760 13be a2aa 913d
000000f0: 0627 6cbd 9d58 793d 71eb fabd 3cad 80be
00000100: 6d83 1ebe 8234 6b3e 0025 80be 4beb 5e3e
00000110: 552d b1be 5d52 773e 38c6 42bb 8a75 603e
00000120: b7ca f23e 892b 633e e1cc 3e3d 4e60 96be
00000130: 6ddc 49be 6d07 17be 126c 2a3e 936c 91be
00000140: 1de5 02bd 5035 b3be 9fbc 893d 8806 2c3e
00000150: 641d 1a3e 762b a8bd d25e 673d d837 b03e
00000160: 4c16 773e 5acc 9c3e 4edc df3b 27d8 ab3e
00000170: ddda 47be 45a5 113e 6218 163e e7b7 e0be
00000180: 3178 1b3e 804f 53be d1d9 e73d 4d77 0cbe
00000190: 195a 69be 9487 083e e877 bdbd db79 80bd
000001a0: a408 04be 052f 1abd 4ff1 193f 0094 ccbe
000001b0: eb4e 133d 7deb 063f 4c3d 5bbe 6bc3 debe
000001c0: 43b3 103e 2430 d13e 2f4d a7bd e234 9d3d
000001d0: 2bb1 0f3f 375e 2e3e 3bf9 a83e 90b6 fdbe
000001e0: 1d50 9fbe bc4b eebd 4edf b43e d1c3 fbbd
000001f0: c7cb ae3e 7e8c cdbd 205c 053d 4374 d63c
00000200: 76b7 2d3e 6c96 5f3c 9a64 8d3d 0300 7abe
00000210: ab7f 3a3e a9d3 c83d 63d4 39bd f24a 2fbe
00000220: 28fa 803e 1c59 6d3c 6896 7d3e 232f 1c3d
00000230: f336 44bd b48b 1fbe 23e2 403d 481b 6a3d
00000240: 76dd a7bd 6670 263e b259 76be 22b2 35be
00000250: ebfb efbe ea42 17be f5f0 643e 2e9f 4c3e
00000260: 73ac b33d 35d3 07be e735 88be 089f 513d
00000270: 89df 223d 667e 8f3e 619d 6d3e a491 36be
00000280: a380 c1bd 1029 1dbb d400 833d ec93 223f
00000290: 0160 86bd b630 cdbd f3bb bcbd 83b1 fa3d
000002a0: 9d78 27bd 7081 a73e f0c8 8bbe c4e2 f53d
000002b0: c4cb c6bc 71bb dbbd df99 483e 43ea d13d
000002c0: adc8 c5bd 5551 9ebd 3e4a 653d 9964 6bbe
000002d0: ae98 c7bd c3b9 96be a61b 453e 119c 03be
000002e0: c99a a73e 923a 0dbe 6856 cebd af8f c7bd
000002f0: 1690 aebd 6ee9 c23e c91d 8f3e 123c e23e
00000300: edfd 57be 81d7 933c 2130 143f 12dd 643d
00000310: 74bc a8be 486f d6be 98d5 4ebe 8ece 14be
00000320: 54ba 0bbe 677a 38bd 2a69 11be ebaa 0bbd
00000330: 8126 273d 91ea 80bd 6d4a bc3b 775b 32be
00000340: 4212 26bd b2f7 f13c f93e d53d 90d4 a73e
00000350: 7cd6 25be 2b5c 903e 29a0 13be 8806 bc3d
00000360: 3a84 493e 1f81 8a3e 4056 f9be b8ba 57be
00000370: 779c e7be 1aab 4abe b02b 57bc 7397 83bd
00000380: f6c8 62be 1f88 ccbd 049f 12be 633e ab3e
00000390: b6cd c1be 8e1b 823c 6570 f03c a8b6 c03e
000003a0: f5ad 8dbc 3f94 86bd a623 3ebe 2ab5 e5bd
000003b0: 8764 2dbe de1b 35bd 0264 17be 9a46 403e
000003c0: 7162 983d d09a 0abe 751f 27be 9a06 1abe
000003d0: b93c 573d 47e7 7b3e bd88 72bd 248c 45be
000003e0: 5d69 16be cc3e a1bd 5e9e 4b3e 7c51 b1bd
000003f0: 1ee1 6e3b 9cc9 743e 0245 81bd 5ea6 2c3e

network_body._body_endoder.seq_layers.0.bias f4 [256]
0.0 0.0 0.0 0.0 0.0 0.0 0.0 0.0
0.0 0.0 0.0 0.0 0.0 0.0 0.0 0.0
0.0 0.0 0.0 0.0 0.0 0.0 0.0 0.0
0.0 0.0 0.0 0.0 0.0 0.0 0.0 0.0
0.0 0.0 0.0 0.0 0.0 0.0 0.0 0.0
0.0 0.0 0.0 0.0 0.0 0.0 0.0 0.0
0.0 0.0 0.0 0.0 0.0 0.0 0.0 0.0
0.0 0.0 0.0 0.0 0.0 0.0 0.0 0.0
0.0 0.0 0.0 0.0 0.0 0.0 0.0 0.0
0.0 0.0 0.0 0.0 0.0 0.0 0.0 0.0
0.0 0.0 0.0 0.0 0.0 0.0 0.0 0.0
0.0 0.0 0.0 0.0 0.0 0.0 0.0 0.0
0.0 0.0 0.0 0.0 0.0 0.0 0.0 0.0
0.0 0.0 0.0 0.0 0.0 0.0 0.0 0.0
0.0 0.0 0.0 0.0 0.0 0.0 0.0 0.0
0.0 0.0 0.0 0.0 0.0 0.0 0.0 0.0
0.0 0.0 0.0 0.0 0.0 0.0 0.0 0.0
0.0 0.0 0.0 0.0 0.0 0.0 0.0 0.0
0.0 0.0 0.0 0.0 0.0 0.0 0.0 0.0
0.0 0.0 0.0 0.0 0.0 0.0 0.0 0.0
0.0 0.0 0.0 0.0 0.0 0.0 0.0 0.0
0.0 0.0 0.0 0.0 0.0 0.0 0.0 0.0
0.0 0.0 0.0 0.0 0.0 0.0 0.0 0.0
0.0 0.0 0.0 0.0 0.0 0.0 0.0 0.0
0.0 0.0 0.0 0.0 0.0 0.0 0.0 0.0
0.0 0.0 0.0 0.0 0.0 0.0 0.0 0.0
0.0 0.0 0.0 0.0 0.0 0.0 0.0 0.0
0.0 0.0 0.0 0.0 0.0 0.0 0.0 0.0
0.0 0.0 0.0 0.0 0.0 0.0 0.0 0.0
0.0 0.0 0.0 0.0 0.0 0.0 0.0 0.0
0.0 0.0 0.0 0.0 0.0 0.0 0.0 0.0
0.0 0.0 0.0 0.0 0.0 0.0 0.0 0.0
00000000: 0000 0000 0000 0000 0000 0000 0000 0000
00000010: 0000 0000 0000 0000 0000 0000 0000 0000
00000020: 0000 0000 0000 0000 0000 0000 0000 0000
00000030: 0000 0000 0000 0000 0000 0000 0000 0000
00000040: 0000 0000 0000 0000 0000 0000 0000 0000
00000050: 0000 0000 0000 0000 0000 0000 0000 0000
00000060: 0000 0000 0000 0000 0000 0000 0000 0000
00000070: 0000 0000 0000 0000 0000 0000 0000 0000
00000080: 0000 0000 0000 0000 0000 0000 0000 0000
00000090: 0000 0000 0000 0000 0000 0000 0000 0000
000000a0: 0000 0000 0000 0000 0000 0000 0000 0000
000000b0: 0000 0000 0000 0000 0000 0000 0000 0000
000000c0: 0000 0000 0000 0000 0000 0000 0000 0000
000000d0: 0000 0000 0000 0000 0000 0000 0000 0000
000000e0: 0000 0000 0000 0000 0000 0000 0000 0000
000000f0: 0000 0000 0000 0000 0000 0000 0000 0000
00000100: 0000 0000 0000 0000 0000 0000 0000 0000
00000110: 0000 0000 0000 0000 0000 0000 0000 0000
00000120: 0000 0000 0000 0000 0000 0000 0000 0000
00000130: 0000 0000 0000 0000 0000 0000 0000 0000
00000140: 0000 0000 0000 0000 0000 0000 0000 0000
00000150: 0000 0000 0000 0000 0000 0000 0000 0000
00000160: 0000 0000 0000 0000 0000 0000 0000 0000
00000170: 0000 0000 0000 0000 0000 0000 0000 0000
00000180: 0000 0000 0000 0000 0000 0000 0000 0000
00000190: 0000 0000 0000 0000 0000 0000 0000 0000
000001a0: 0000 0000 0000 0000 0000 0000 0000 0000
000001b0: 0000 0000 0000 0000 0000 0000 0000 0000
000001c0: 0000 0000 0000 0000 0000 0000 0000 0000
000001d0: 0000 0000 0000 0000 0000 0000 0000 0000
000001e0: 0000 0000 0000 0000 0000 0000 0000 0000
000001f0: 0000 0000 0000 0000 0000 0000 0000 0000
00000200: 0000 0000 0000 0000 0000 0000 0000 0000
00000210: 0000 0000 0000 0000 0000 0000 0000 0000
00000220: 0000 0000 0000 0000 0000 0000 0000 0000
00000230: 0000 0000 0000 0000 0000 0000 0000 0000
00000240: 0000 0000 0000 0000 0000 0000 0000 0000
00000250: 0000 0000 0000 0000 0000 0000 0000 0000
00000260: 0000 0000 0000 0000 0000 0000 0000 0000
00000270: 0000 0000 0000 0000 0000 0000 0000 0000
00000280: 0000 0000 0000 0000 0000 0000 0000 0000
00000290: 0000 0000 0000 0000 0000 0000 0000 0000
000002a0: 0000 0000 0000 0000 0000 0000 0000 0000
000002b0: 0000 0000 0000 0000 0000 0000 0000 0000
000002c0: 0000 0000 0000 0000 0000 0000 0000 0000
000002d0: 0000 0000 0000 0000 0000 0000 0000 0000
000002e0: 0000 0000 0000 0000 0000 0000 0000 0000
000002f0: 0000 0000 0000 0000 0000 0000 0000 0000
00000300: 0000 0000 0000 0000 0000 0000 0000 0000
00000310: 0000 0000 0000 0000 0000 0000 0000 0000
00000320: 0000 0000 0000 0000 0000 0000 0000 0000
00000330: 0000 0000 0000 0000 0000 0000 0000 0000
00000340: 0000 0000 0000 0000 0000 0000 0000 0000
00000350: 0000 0000 0000 0000 0000 0000 0000 0000
00000360: 0000 0000 0000 0000 0000 0000 0000 0000
00000370: 0000 0000 0000 0000 0000 0000 0000 0000
00000380: 0000 0000 0000 0000 0000 0000 0000 0000
00000390: 0000 0000 0000 0000 0000 0000 0000 0000
000003a0: 0000 0000 0000 0000 0000 0000 0000 0000
000003b0: 0000 0000 0000 0000 0000 0000 0000 0000
000003c0: 0000 0000 0000 0000 0000 0000 0000 0000
000003d0: 0000 0000 0000 0000 0000 0000 0000 0000
000003e0: 0000 0000 0000 0000 0000 0000 0000 0000
000003f0: 0000 0000 0000 0000 0000 0000 0000 0000

network_body._body_endoder.seq_layers.2.weight f4 [256, 256]
0.0034661307 -0.04838349 -0.06886728 0.11262724 0.11812024 0.036229316 -0.0142618315 -0.06376214
0.023233846 -0.029212972 -0.00040198644 0.029940544 0.04351227 -0.017254364 0.024145259 0.039548777
0.10060947 -0.09440902 0.08865531 0.062918305 -0.032163978 -0.04762566 0.03603181 -0.04705811
0.038644183 0.08318639 -0.080965444 -0.0045324643 -0.010886963 0.046549242 0.00940861 0.010770291
0.003643493 0.011012591 0.045174174 -0.0011798457 0.013271667 0.13213958 -0.02549992 -0.032651715
-0.02879857 -0.05190868 -0.036019783 -0.007482128 -0.029767005 -0.0006251575 0.06278015 0.0056488807
0.18661466 0.09335322 0.1268088 0.076874994 -0.013911632 0.027500864 -0.05293951 0.12048025
0.04223004 0.0011599053 0.0045820996 0.07507913 -0.029450886 -0.062441047 -0.028806342 0.08890484
-0.0619132 -0.16101609 0.023945734 -0.08343212 0.008265874 -0.10205071 0.03800242 0.01027065
0.11425493 0.052284244 0.0055064275 -0.098359235 0.10177695 0.018020574 0.04240058 0.098915264
0.16497806 0.020829998 0.012463274 0.06908635 0.04270838 -0.0015930206 -0.041106906 -0.07894841
0.0034339745 0.001835785 0.0749828 0.046763387 -0.09140312 -0.040533256 0.039588574 0.1528989
0.02234646 0.037601925 0.050604347 -0.0106213195 0.0577026 0.086399384 -0.097056076 -0.01556496
0.009211038 0.067771606 0.044578254 -0.07284355 0.050894354 0.033447113 -0.0043958332 0.12768765
-0.064798295 0.0326018 -0.057393733 -0.04951024 -0.060736462 -0.041010324 0.013836227 0.023865122
0.036830403 0.025326319 0.175439 0.102651045 -0.018065324 0.060500808 0.054003276 -0.047149576
-0.0339096 0.0063844766 0.012241474 0.0068379915 -0.0043290323 -0.04460597 0.03620942 -0.019163072
-0.1012283 0.0640184 -0.055520788 0.028771866 -0.01536324 0.017670894 -0.039202143 -0.0646421
0.03489153 0.047425773 -0.02548425 -0.04488037 0.16267738 0.11671966 0.024450865 0.08628388
0.026843274 0.050930347 -0.012956135 0.025221262 0.021434156 -0.028230248 -0.07905162 0.09521565
-0.034444813 0.06057648 0.07827826 -0.010746482 -0.014019085 -0.018255034 0.043404665 0.12761305
0.07111933 0.016555302 -0.01442651 -0.020348858 0.0031922508 -0.005216308 0.044603683 -0.018170642
0.0046327645 0.011626485 0.01701097 -0.0146525465 -0.025558768 -0.044985685 -0.05258335 -0.13435896
-0.049281377 -0.083590925 -0.060357414 0.010179776 -0.003205465 0.1375536 0.002109184 -0.09373992
0.01470168 -0.0063294517 0.01548911 -0.029420039 0.028005105 -0.007708126 -0.011931594 0.12328487
0.045361135 0.012392977 -0.012438674 0.09634776 0.069530234 0.029134545 -0.037766542 -0.070386924
-0.013429426 -0.026446037 0.016572347 0.02330669 -0.07085933 -0.018848546 0.018596813 -0.03169969
0.07419831 -0.03075483 0.09201318 -0.043347616 0.11328636 0.025966618 -0.012988557 -0.09905033
0.0019255205 0.02429867 0.067438 -0.051962934 -0.12707503 0.07900859 -0.07278038 0.023790734
-0.1028199 -0.08056841 0.10916137 0.019156702 -0.053550087 -0.060818378 0.008552386 0.1622936
-0.09033252 -0.024050372 -0.0776945 0.015387185 0.022693805 -0.010568734 -0.028933713 -0.05470063
0.09003954 -0.0760931 -0.015122271 -0.12773868 0.08395632 0.030581398 0.103027664 0.020708274
00000000: 0628 633b c42d 46bd 4a0a 8dbd 1ca9 e63d
00000010: 06e9 f13d 3165 143d 75aa 69bc ba95 82bd
00000020: e854 be3c 0b50 efbc b5c1 d2b9 df45 f53c
00000030: ec39 323d 0659 8dbc 47cc c53c e6fd 213d
00000040: 560c ce3d 8459 c1bd ea90 b53d 50db 803d
00000050: 60be 03bd 2013 43bd 1796 133d 01c0 40bd
00000060: 5d49 1e3d a05d aa3d 36d1 a5bd 1185 94bb
00000070: 3c5f 32bc 6baa 3e3d 9226 1a3c e075 303c
00000080: abc7 6e3b 286e 343c 8e08 393d 0da5 9aba
00000090: 6871 593c 994f 073e 35e5 d0bc cebd 05bd
000000a0: fbea ebbc 329e 54bd 7b89 13bd a42c f5bb
000000b0: efd9 f3bc 9ce1 23ba e192 803d 3f1a b93b
000000c0: ea17 3f3e f92f bf3d 2bda 013e a370 9d3d
000000d0: 9ded 63bc 7e49 e13c 1ad7 58bd 59be f63d
000000e0: 68f9 2c3d f707 983a 7025 963b 16c3 993d
000000f0: fc42 f1bc 2fc2 7fbd 47fb ebbc be13 b63d
00000100: b298 7dbd 67e1 24be d829 c43c 76de aabd
00000110: 976d 073c f6ff d0bd 6da8 1b3d 3a46 283c
00000120: 7dfe e93d 0128 563d 436f b43b 9170 c9bd
00000130: 6f70 d03d e29f 933c 3bac 2d3d 1694 ca3d
00000140: 02f0 283e aca3 aa3c c332 4c3c 257d 8d3d
00000150: fbee 2e3d e7cc d0ba b75f 28bd b4af a1bd
00000160: 880c 613b b99e f03a 9590 993d f78a 3f3d
00000170: 8f31 bbbd 3306 26bd a127 223d 8791 1c3e
00000180: ec0f b73c 7a04 1a3d 8146 4f3d 0b05 2ebc
00000190: 9059 6c3d 29f2 b03d 56c5 c6bd 2d04 7fbc
000001a0: e5e9 163c d7cb 8a3d b097 363d 002f 95bd
000001b0: 9976 503d d7ff 083d ec0a 90bb 8dc0 023e
000001c0: f8b4 84bd 7789 053d b115 6bbd 40cb 4abd
000001d0: ccc6 78bd 71fa 27bd 58b1 623c ca80 c33c
000001e0: 7adb 163d 2479 cf3c 48a6 333e b63a d23d
000001f0: bbfd 93bc b2cf 773d 8a32 5d3d ea1f 41bd
00000200: cbe4 0abd df34 d13b 7790 483c 3b11 e03b
00000210: 8eda 8dbb c0b4 36bd 5450 143d e0fb 9cbc
00000220: c850 cfbd 141c 833d c469 63bd fab2 eb3c
00000230: 19b6 7bbc 8dc2 903c 6d92 20bd 1463 84bd
00000240: 6cea 0e3d 8741 423d 59c4 d0bc 7bd4 37bd
00000250: e694 263e b80a ef3d 2e4d c83c 9ab5 b03d
00000260: 6de6 db3c 579c 503d f845 54bc d29c ce3c
00000270: af96 af3c 1f43 e7bc d1e5 a1bd 6c00 c33d
00000280: 0116 0dbd 0b1f 783d 5a50 a03d 0312 30bc
00000290: 4eb0 65bc 958b 95bc 17c9 313d ffac 023e
000002a0: 03a7 913d fc9e 873c 2b5d 6cbc a6b2 a6bc
000002b0: 1535 513b 90ed aabb 5ab2 363d 99da 94bc
000002c0: 72ce 973b 037d 3e3c 975a 8b3c 3c11 70bc
000002d0: 9f60 d1bc e942 38bd a461 57bd 6595 09be
000002e0: 45db 49bd b831 abbd 5639 77bd 13c9 263c
000002f0: c712 52bb dada 0c3e 3c3a 0a3b b7fa bfbd
00000300: 51df 703c 4a67 cfbb 09c6 7d3c 4b02 f1bc
00000310: f66a e53c 7394 fcbb bc7c 43bc c77c fc3d
00000320: 99cc 393d ea0b 4b3c 95cb 4bbc f951 c53d
00000330: de65 8e3d 92ab ee3c 17b1 1abd 0527 90bd
00000340: 1807 5cbc 5ca5 d8bc bbc2 873c aced be3c
00000350: b21e 91bd 4468 9abc 5858 983c 89d7 01bd
00000360: 49f5 973d 8ef1 fbbc 6871 bc3d 458d 31bd
00000370: ae02 e83d f2b7 d43c f5cd 54bc e6da cabd
00000380: bf61 fc3a 010e c73c ef1c 8a3d 16d7 54bd
00000390: f51f 02be 41cf a13d e10d 95bd c9e4 c23c
000003a0: 3d93 d2bd 0d01 a5bd ff8f df3d 84ee 9c3c
000003b0: 5657 5bbd b11c 79bd 4f1f 0c3c 4b30 263e
000003c0: 4200 b9bd 4905 c5bc 4b1e 9fbd 881a 7c3c
000003d0: 5ce8 b93c 7c28 2dbc 6506 edbc c50d 60bd
000003e0: a666 b83d b3d6 9bbd 67c3 77bc eecd 02be
000003f0: 4bf1 ab3d d785 fa3c 2b00 d33d 66a4 a93c

network_body._body_endoder.seq_layers.4.weight f4 [256, 256]
-0.005859099 0.05275962 -0.0038518768 0.0075053545 -0.0037050166 -0.09392911 0.03454861 0.009467596
0.060125668 0.036460157 0.011751215 -0.029556682 -0.050622027 0.02181755 0.020491792 0.010120262
-0.030344926 -0.017578121 0.06920668 -0.07652667 0.13175972 -0.08112269 -0.057806876 0.011698282
0.017793555 0.0012567531 0.06327897 0.024368115 0.08373585 -0.010757801 0.12768707 0.06079307
0.04466223 -0.12342964 0.032109104 -0.1428711 0.033746406 0.041311093 -0.051285576 0.06393168
-0.037469216 0.05851462 -0.06005959 0.1363984 0.033065446 -0.024571218 0.040392112 0.029081356
-0.08408294 -0.017251033 0.06816934 0.00913597 -0.055592604 0.049618542 0.03608991 -0.008300544
0.0628512 -0.06956645 -0.026859233 -0.013368672 0.045707732 0.023258556 -0.006811809 0.06963281
-0.02941616 0.0062190043 0.13604955 -0.04351776 -0.07479025 0.057503756 -0.030891893 0.060293477
0.022355335 0.041524127 -0.07690759 -0.014425933 -0.0520638 -0.037615865 -0.0013334231 0.013489196
-0.05328022 0.031266432 0.06554153 -0.05169793 -0.011803879 0.017028011 0.0044679306 -0.031843007
-0.026032789 0.039590463 -0.08943932 0.004785855 0.05175997 -0.09244139 -0.03578022 0.06779018
0.10355934 -0.016940778 0.026261838 0.023295147 -0.07070392 0.06550302 -0.083099395 -0.038305916
-0.13684723 0.038604114 0.0079967715 -0.07052345 -0.01311384 -0.0055254195 0.05609351 -0.054499302
0.04612101 0.0031444384 -0.021719372 -0.0053036646 0.058098502 0.020563703 0.044302057 -0.036116615
0.02960893 0.068918906 0.005991464 -0.06598652 0.026896419 -0.062356826 0.023981294 0.12310414
0.022725396 -0.056191273 -0.054882802 -0.027935473 0.03371532 0.010377698 0.08029439 0.12352454
0.10328059 -0.0924211 -0.02533801 -0.13904582 0.02850909 -0.13159712 -0.019389177 -0.062735
0.12713787 0.041783236 0.06572264 0.072554685 0.018886752 0.06938686 -0.041721262 0.07193336
0.057685185 -0.056869734 -0.027634822 -0.023118967 0.0013565648 -0.073525384 0.027055472 -0.059888106
-0.035793625 -0.051378965 -0.03041085 -0.08112794 0.0055855736 0.018358652 -0.020741729 0.13958949
-0.002112954 -0.039842356 -0.015252378 0.00402415 -0.09310212 0.06780016 -0.07366882 -0.07781386
0.07902309 0.040806983 0.030088961 0.030595103 -0.09942194 0.07264064 -0.059381302 -0.02592747
-0.0106338365 -0.06452433 0.08878332 0.07042518 -0.08878066 -0.0017504679 -0.01057676 -0.034050237
0.02860848 0.049153246 0.0597658 -0.019938478 0.05449188 0.054520667 -0.017993832 0.002530699
-0.0737657 -0.03487972 0.03014274 -0.063050926 -0.015824476 0.116968825 0.0063851164 -0.043680187
-0.010822253 0.09265338 0.031904176 -0.017000824 -0.017596694 -0.027032841 0.08926074 -0.0931688
0.008650979 0.03866398 0.020187965 0.084386356 0.09951303 -0.06000606 -0.048344485 0.001373043
0.058642466 -0.059396695 -0.05256772 -0.06074286 -0.07847545 0.08007787 -0.0029047283 -0.08535068
-0.045540597 0.17766096 -0.07095848 0.066377595 -0.06934094 0.00936392 0.03292716 -0.11803683
0.027801545 -0.015639178 -0.009999151 -0.0058684144 0.004909066 -0.077820815 0.118001625 -0.016989978
-0.014700953 0.07173955 0.067443594 0.04694813 -0.03926831 0.09332641 0.08527918 0.043088764
00000000: affd bfbb 791a 583d c56f 7cbb 7aef f53b
00000010: ddcf 72bb e85d c0bd d882 0d3d fa1d 1b3c
00000020: 5546 763d 3f57 153d 2b88 403c db20 f2bc
00000030: 0b59 4fbd b8ba b23c 67de a73c 75cf 253c
00000040: ec95 f8bc feff 8fbc 3bbc 8d3d 04ba 9cbd
00000050: 05ec 063e a723 a6bd e7c6 6cbd 27aa 3f3c
00000060: cac3 913c a3b9 a43a 6898 813d a49f c73c
00000070: b47d ab3d 7d41 30bc 66c0 023e 2702 793d
00000080: beef 363d aec8 fcbd d684 033d cd4c 12be
00000090: ac39 0a3d d235 293d d310 52bd 9dee 823d
000000a0: 5279 19bd 07ad 6f3d 0b01 76bd 06ac 0b3e
000000b0: a26f 073d 9449 c9bc 3372 253d 063c ee3c
000000c0: ad33 acbd 0a52 8dbc 5e9c 8b3d 09af 153c
000000d0: 12b5 63bd d03c 4b3d 03d3 133d 01ff 07bc
000000e0: 21b8 803d db78 8ebd e507 dcbc 4608 5bbc
000000f0: 0838 3b3d ba88 be3c 9835 dfbb a69b 8e3d
00000100: 29fa f0bc cac8 cb3b 9350 0b3e ae3f 32bd
00000110: a12b 99bd 0f89 6b3d ff10 fdbc 4bf6 763d
00000120: 8922 b73c 3415 2a3d ba81 9dbd c05a 6cbc
00000130: da40 55bd 1813 1abd 41c6 aeba ca01 5d3c
00000140: 5c3c 5abd 3b11 003d a33a 863d 35c1 53bd
00000150: 0f65 41bc 547e 8b3c b867 923b d06d 02bd
00000160: b742 d5bc 9c29 223d f62b b7bd a9d2 9c3b
00000170: 4302 543d e951 bdbd 488e 12bd 94d5 8a3d
00000180: eb16 d43d 63c7 8abc 1123 d73c 77d5 be3c
00000190: 38cd 90bd 7326 863d 0430 aabd aae6 1cbd
000001a0: ae21 0cbe 591f 1e3d e404 033c 996e 90bd
000001b0: 6edb 56bc 940e b5bb 4fc2 653d a93a 5fbd
000001c0: 62e9 3c3d ec12 4e3b d3ec b1bc 5dca adbb
000001d0: b2f8 6d3d 3675 a83c 1376 353d 04ef 13bd
000001e0: 6d8e f23c 5b25 8d3d 0b54 c43b f123 87bd
000001f0: e155 dc3c df69 7fbd 6b74 c43c 061e fc3d
00000200: 9c2a ba3c d228 66bd cacc 60bd efd8 e4bc
00000210: 1319 0a3d 3807 2a3c 6371 a43d 6ffa fc3d
00000220: c684 d33d 4647 bdbd a991 cfbc 0762 0ebe
00000230: e58b e93c 65c1 06be 0dd6 9ebc 357b 80bd
00000240: 6e30 023e e624 2b3d 9799 863d 8d97 943d
00000250: 64b8 9a3c b31a 8e3d eae3 2abd cc51 933d
00000260: 4d47 6c3d 3df0 68bd 6c62 e2bc fd63 bdbc
00000270: c3ce b13a 7a94 96bd 70a3 dd3c 3b4d 75bd
00000280: 569c 12bd c072 52bd 2d20 f9bc 6826 a6bd
00000290: 3007 b73b e264 963c 8fea a9bc 8cf0 0e3e
000002a0: 7c79 0abb bd31 23bd 1ce5 79bc 04dd 833b
000002b0: 53ac bebd cfda 8a3d aedf 96bd df5c 9fbd
000002c0: dcd6 a13d 3925 273d 207d f63c 95a2 fa3c
000002d0: bb9d cbbd 9ec4 943d cf39 73bd d865 d4bc
000002e0: 8b39 2ebc 5525 84bd 07d4 b53d 143b 903d
000002f0: a2d2 b5bd f56f e5ba 264a 2dbc 4378 0bbd
00000300: 555c ea3c ea54 493d fccc 743d 0556 a3bc
00000310: e132 5f3d 1051 5f3d cd67 93bc 15da 253b
00000320: 7912 97bd 0ade 0ebd e8ed f63c d820 81bd
00000330: 55a2 81bc 5a8d ef3d 3d3a d13b ffe9 32bd
00000340: d24f 31bc 0ec1 bd3d f4ad 023d 5045 8bbc
00000350: f126 90bc fa73 ddbc 56ce b63d 49cf bebd
00000360: d6bc 0d3c 1f5e 1e3d 3b61 a53c c1d2 ac3d
00000370: 7dcd cb3d eac8 75bd de04 46bd aef7 b33a
00000380: 1533 703d f349 73bd 4051 57bd 81cd 78bd
00000390: bdb7 a0bd deff a33d 415d 3ebb 56cc aebd
000003a0: c788 3abd c1ec 353e ae52 91bd faf0 873d
000003b0: 9f02 8ebd 216b 193c a1de 063d 4bbd f1bd
000003c0: 11c0 e33c bc1d 80bc 7bd3 23bc d44b c0bb
000003d0: 3bdc a03b 8560 9fbd d6aa f13d 912e 8bbc
000003e0: 44dc 70bc 2fec 923d de1f 8a3d af4c 403d
000003f0: cfd7 20bd eb21 bf3d daa6 ae3d d87d 303d

action_model._continuous_distribution.mu.weight f4 [1, 256]
0.014028414 0.006846404 0.00579806 0.016516587 0.0027950287 -0.008990973 0.009830944 -0.028462652
0.01096006 -0.00858498 0.016560126 -0.014402415 0.0057208384 0.00917006 -0.0010056191 0.007635712
-0.009346668 -0.0151342545 -0.0042896275 0.013029817 0.008401737 -0.00048801242 0.030502051 -0.0055483975
0.013470235 -0.019784017 0.0048404704 -0.0061225053 0.0024730924 -0.005468699 -0.007200555 -0.016946742
-0.009423677 -0.0103104245 -0.00076942553 -0.0023067663 -0.01931139 -0.011004778 0.001587289 0.007091045
0.0002588146 0.0008985541 0.018640742 -0.00064457156 -0.0029565657 0.014373146 -0.0070086457 -0.008516648
-0.02206197 0.0029481396 -0.0005211953 0.002585699 0.0050013424 0.0044183973 0.0014896069 -0.02356692
0.007950738 0.007567382 0.008937712 0.010448647 0.005466915 0.0028068922 0.008822224 -0.015263873
-0.008776155 0.002164994 0.0005944106 0.009511515 -0.00019752751 -0.0007703094 -0.0062652454 0.0026919702
-0.0061614397 -0.021211525 0.013361103 -0.025806895 0.003009931 -0.007261492 0.012430951 0.007753753
-0.016837299 -0.023284502 -0.015052438 0.010212671 -0.02148601 0.007640195 -0.0059671807 -0.021248987
-0.0038296971 0.010624472 -0.020014402 -0.01036688 0.005144294 0.0059842416 -0.011739075 -0.010118665
0.010500169 -0.0062082703 0.035868827 -0.0027391925 -0.0009644019 -0.022762481 0.014118262 0.0069214776
0.003999501 0.0136872595 -0.0066441693 -0.015573121 -0.0018052526 -0.002191181 0.015870862 0.0031779849
0.0077530034 0.011942939 -0.0039236667 -0.018509623 -0.014040646 -0.016252574 0.003210441 0.00038889784
0.004237667 -0.005865551 -0.0065164044 0.02644203 0.007829747 -0.017023824 -0.028724236 0.0123521015
0.008054811 0.011732611 0.005346358 -0.0106888525 -0.001212523 -0.0020544054 0.008242161 0.0016417664
0.023652239 0.005900832 -0.011018628 0.009788052 -0.006780793 -0.0032795828 -0.0118165305 0.00276715
-0.009058986 0.010733255 -0.0067708404 -0.0106588565 0.008542573 -0.0044560404 0.0037312035 0.012224155
-0.0036728177 0.018466583 -0.019386528 0.0062037674 -0.009597009 -0.00903069 0.0207184 -0.01303568
0.006738595 0.022420844 -0.01188321 -0.0054976973 0.009756178 0.00207606 -0.012685384 -0.027678022
-0.013750794 0.00439682 -0.0060639377 0.039394397 0.018453518 0.031397223 -0.005143159 -0.009019713
0.00748114 -0.013622924 -0.0032355424 0.00089231663 0.0026011493 0.0009885919 -0.015090152 -0.01450962
-0.0005782868 -0.008695525 -0.010221938 0.00021021259 -0.0073355027 0.00081512186 0.0133012 -0.010492086
0.013982879 0.0012359528 0.014978416 -0.00054423587 -0.0017060423 0.033489652 -0.0042977026 0.008161999
0.0051953583 -0.0072024404 -0.0035842918 0.0048055425 0.00014471318 -0.0015410457 -0.03132636 0.022562593
-0.007953648 -0.008195205 -0.0052764458 6.741305e-05 0.015686829 0.0067185434 0.00997125 -0.01316601
-0.015791627 -0.0149157895 0.014286599 -0.00010563132 0.002623806 0.000488891 0.021871265 0.0013118298
0.0042460975 0.018031264 -0.009355657 0.0012711243 -0.00718323 0.0013876767 -0.006053875 0.012801248
-0.020185439 -0.005221311 0.010952751 -0.014426646 -0.0070783906 0.0033901127 -0.008730666 0.011981252
-0.0019372972 -0.0065564006 -0.009159877 -0.0022889636 -0.011123183 0.017256076 -0.019686164 -0.0012224189
0.00087741885 0.010142454 0.0072108107 -0.0065514385 -0.0038876669 -5.255977e-05 0.012599728 0.009824423
00000000: 6fd7 653c cd57 e03b a7fd bd3b cb4d 873c
00000010: cd2c 373b e04e 13bc f811 213c 822a e9bc
00000020: d391 333c 04a8 0cbc 1aa9 873c 1bf8 6bbc
00000030: df75 bb3b 053e 163c face 83ba ff34 fa3b
00000040: c422 19bc aaf5 77bc 0190 8cbb 037b 553c
00000050: 70a7 093c ebdb ffb9 70df f93c 55cf b5bb
00000060: 43b2 5c3c 1712 a2bc cf9c 9e3b 4c9f c8bb
00000070: 9b13 223b c632 b3bb a2f2 ebbb e5d3 8abc
00000080: c465 1abc 0eed 28bc 46b3 49ba 1e2d 17bb
00000090: ec32 9ebc 624d 34bc 950c d03a ff5b e83b
000000a0: 82b1 8739 f28c 6b3a 78b4 983c 77f8 28ba
000000b0: f1c2 41bb 587d 6b3c c8a8 e5bb 6989 0bbc
000000c0: 4ebb b4bc 9335 413b d3a0 08ba d574 293b
000000d0: 4de2 a33b 34c8 903b ea3e c33a 6a0f c1bc
000000e0: d043 023c cdf7 f73b 7b6f 123c cd30 2b3c
000000f0: cf23 b33b d6f3 373b 178b 103c 5315 7abc
00000100: ddc9 0fbc 92e2 0d3b 38d2 1b3a 2fd6 1b3c
00000110: 631f 4fb9 97ee 49ba b04c cdbb c46b 303b
00000120: e7e5 c9bb cbc3 adbc 87e8 5a3c fb68 d3bc
00000130: 4342 453b cff1 edbb 30ab 4b3c 3213 fe3b
00000140: 60ee 89bc 24bf bebc 809e 76bc 0c53 273c
00000150: 6e03 b0bc 9a5a fa3b 5788 c3bb 5b12 aebc
00000160: a8fb 7abb 4412 2e3c 3ef5 a3bc d9d9 29bc
00000170: 7791 a83b 7517 c43b 4055 40bc c2c8 25bc
00000180: e708 2c3c bf6e cbbb 31eb 123d 0684 33bb
00000190: eacf 7cba 6278 babc 4850 673c 90cd e23b
000001a0: 3f0e 833b 8740 603c 55b7 d9bb 6726 7fbc
000001b0: 3a9e ecba eb99 0fbb 9c03 823c bd45 503b
000001c0: e80c fe3b 51ac 433c 1a92 80bb 7ea1 97bc
000001d0: bd0a 66bc 1e24 85bc 4366 523b fce4 cb39
000001e0: 21dc 8a3b cf33 c0bb 9087 d5bb f59c d83c
000001f0: 5748 003c 8c75 8bbc 174f ebbc 7860 4a3c
00000200: 53f8 033c 233a 403c 8030 af3b 4c20 2fbc
00000210: 85ed 9eba 34a3 06bb 210a 073c 8a30 d73a
00000220: 57c2 c13c c45b c13b 7a87 34bc 115e 203c
00000230: 6a31 debb 45ee 56bb 1f9a 41bc 1359 353b
00000240: 246c 14bc 89da 2f3c eddd ddbb 7ca2 2ebc
00000250: 26f6 0b3c fa03 92bb 3587 743b d247 483c
00000260: a8b3 70bb 3b47 973c 7fd0 9ebc f948 cb3b
00000270: c63c 1dbc 76f5 13bc a2b9 a93c 9b93 55bc
00000280: 6fcf dc3b ebab b73c ccb1 42bc 0726 b4bb
00000290: 60d8 1f3c 820e 083b 5bd6 4fbc 05bd e2bc
000002a0: 034b 61bc 3313 903b ffb3 c6bb 055c 213d
000002b0: d52b 973c 609a 003d f287 a8bb 6bc7 13bc
000002c0: 5a24 f53b af32 5fbc 650b 54bb 5bea 693a
000002d0: 0b78 2a3b a493 813a af3c 77bc c2b9 6dbc
000002e0: 2c98 17ba ad77 0ebc ea79 27bc 836c 5c39
000002f0: a85e f0bb e7ad 553a 47ed 593c 00e7 2bbc
00000300: 7218 653c b2ff a13a 0868 753c 0dab 0eba
00000310: 489d dfba 722c 093d bed3 8cbb e8b9 053c
00000320: d33d aa3b 7302 ecbb 70e6 6abb d077 9d3b
00000330: 26be 1739 eafc c9ba 1250 00bd 30d5 b83c
00000340: 0550 02bc 2e45 06bc 09e6 acbb 1b60 8d38
00000350: aa81 803c 3a27 dc3b 745e 233c 40b6 57bc
00000360: 715d 81bc 5b61 74bc 5712 6a3c 6286 ddb8
00000370: 29f4 2b3b eb28 003a 5e2b b33c b4f1 ab3a
00000380: d922 8b3b 4db6 933c 7848 19bc db9b a63a
00000390: 4d61 ebbb b4e2 b53a 965f c6bb 53bc 513c
000003a0: ef5b a5bc 8817 abbb 2b73 333c bd5d 6cbc
000003b0: d8f1 e7bb a72c 5e3b 110b 0fbc 034d 443c
000003c0: e8ec fdba 13d7 d6bb 4f13 16bc 7002 16bb
000003d0: 033e 36bc 9d5c 8d3c e144 a1bc 9239 a0ba
000003e0: 9502 663a 892c 263c aa48 ec3b 73ad d6bb
000003f0: 3ac8 7ebb a073 5cb8 176f 4e3c 9ef6 203c

action_model._discrete_distribution.branches.0.weight f4 [1, 256]
0.021912387 -0.0045233537 -0.0069584846 0.0058877994 -0.006088918 0.004782679 -0.006299466 -0.007867512
0.0035489225 -0.0052579246 0.0041041523 0.005024223 -0.004083748 -0.011470742 -0.0054899068 0.008250464
-0.004487316 -0.0026163307 0.0049941842 0.00665388 0.0033933395 0.004094127 -0.00019222009 0.0019200001
-0.0030230668 0.0029882153 -0.0054144775 0.005004196 0.0029227177 -0.0049987854 -0.00020301361 -0.005892472
-0.010798077 -0.0061580357 -0.008014488 -0.0029511112 0.014843593 -0.0033351195 0.0074994266 0.017849611
-0.0029050696 0.0014326156 0.009000692 -0.003706415 0.008884112 0.00038365822 0.0047839396 0.0057440917
-0.001753684 -0.0003210346 -0.006737936 -0.001376556 0.0038895283 0.0030868202 -0.0027477862 0.010641101
-0.0029328424 -0.0019271875 -0.0025506038 -0.015374186 0.0054171043 -0.0010215103 -0.006372946 -0.0014179661
-0.0045295055 0.0056040613 0.006463817 -0.0009960564 -0.007650482 0.000789995 -0.005167605 -0.0002088659
0.0041094027 -0.0052028117 0.004787964 -0.0016845886 0.014085943 0.0067636105 -0.0020886853 -0.0003362015
0.009510189 -0.00020538949 -0.009439083 -0.0025349348 0.0085271355 -0.013927111 0.0038494866 0.001689817
0.0024357715 -0.0014300914 -0.0015221306 0.004456326 -0.014208235 0.007066775 0.011811412 0.004974383
-0.011248028 -0.005409746 -0.0008960416 -0.015783096 -0.004863973 -0.004871677 -0.0067628473 0.008022829
0.0052133584 -0.003106374 -0.002498884 -0.002665404 0.0055801407 -0.011840843 0.0009800874 -0.0010928275
0.0010376031 -0.0068551744 -0.011881286 -0.00042600828 -0.0042755436 0.004820699 0.00073159294 -0.0055464073
-0.0021735297 0.0016225051 -0.0017453457 -0.011689368 -0.0011541154 -0.0054182704 -0.005904581 -0.0072518587
0.0042638914 0.002420514 0.013910593 -0.0006838668 0.0036716883 -0.007402973 -0.0011177943 -0.0045671808
-0.0009790765 0.007901905 0.0016632611 0.012009165 -0.014340268 -0.0032212902 -0.00853352 -0.0057900357
0.00033090505 0.0029592344 -0.011241416 0.005389651 0.009930725 2.8166762e-06 0.011915012 -0.008880566
-0.007300825 0.0069824196 0.00403044 -0.005184348 0.0009869954 0.0035970935 0.0013042598 -0.017733822
0.00592857 0.0056660282 -0.004452975 -0.0062821372 -0.008673171 -0.012182842 -0.006824179 -0.0044852723
-0.0037303232 -0.003745775 0.005193098 0.0068018804 0.007754788 0.004618184 0.0043671587 0.0023792626
0.010506361 -0.008354762 -0.006116399 -0.006038292 -0.016113281 -0.007917908 -0.004367908 -0.016229142
0.0043613813 -0.0036331841 -0.0027797008 -0.004925677 -0.005973719 0.0033032247 0.005589834 -0.0066206898
-0.01082328 -0.0013138301 -0.001365628 0.0023832784 0.011717945 0.008135524 -0.0044679884 -0.00049742457
0.00079841324 0.0058839517 0.0015915728 -0.00781647 -0.011022902 -0.011532101 0.0023216328 0.0018306073
-0.001000396 -0.0026491205 -0.0023043298 0.0013403631 -0.004145435 0.0073076445 0.0025395292 0.011838077
-0.0018077799 0.00070350163 0.004462265 -0.017501578 0.006550833 -0.00075676217 0.0049322853 0.00033720126
-0.0019769163 0.0026533734 0.0071977265 0.0013048704 -0.0023092073 0.0009002274 -0.00678434 -0.00013486193
-0.004583978 -0.002229062 -0.001962226 -0.011878558 0.0020900546 -0.002015895 -0.008201578 -0.00038688126
-0.0044713155 0.0052307197 0.011716754 0.0031407548 0.0049551125 -0.001565845 0.008825283 -0.0008186297
0.004037339 0.002539423 0.001423207 -0.007452795 -0.0059336736 0.0014260949 -0.0040594875 -0.0024840634
00000000: 9b81 b33c a438 94bb 0004 e4bb 71ee c03b
00000010: 8c85 c7bb 05b8 9c3b c06b cebb bde6 00bc
00000020: 0a95 683b ab4a acbb 207c 863b 3da2 a43b
00000030: f6d0 85bb c7ef 3bbc ade4 b3bb f42c 073c
00000040: 560a 93bb bf76 2bbb 41a6 a33b ca08 da3b
00000050: ca62 5e3b 0728 863b b08e 49b9 83a8 fb3a
00000060: a51e 46bb efd5 433b ee6b b1bb 3dfa a33b
00000070: 118b 3f3b dacc a3bb 0de0 54b9 a315 c1bb
00000080: 6bea 30bc 59c9 c9bb 334f 03bc 6e67 41bb
00000090: 8b32 733c 0592 5abb c0bd f53b 5939 923c
000000a0: fb62 3ebb 9ac6 bb3a a377 133c 53e7 72bb
000000b0: ab8e 113c bc25 c939 98c2 9c3b ef38 bc3b
000000c0: dfdb e5ba 8950 a8b9 e7c9 dcbb 8e6d b4ba
000000d0: 75e7 7e3b 404c 4a3b 3414 34bb 0358 2e3c
000000e0: ee34 40bb af99 fcba 0828 27bb 03e4 7bbc
000000f0: f781 b13b 33e4 85ba 25d4 d0bb 0cdb b9ba
00000100: 3f6c 94bb 46a2 b73b 6dce d33b 1b8e 82ba
00000110: e5b0 fabb ab17 4f3a 0355 a9bb 0303 5bb9
00000120: 2ba8 863b 597c aabb 5ae4 9c3b 6acd dcba
00000130: bac8 663c 47a1 dd3b 53e2 08bb 3444 b0b9
00000140: a0d0 1b3c d25d 57b9 62a6 1abc 2621 26bb
00000150: 66b5 0b3c 8a2e 64bc ab47 7c3b da7c dd3a
00000160: 77a1 1f3b e871 bbba 3a82 c7ba 5f06 923b
00000170: a8c9 68bc 6890 e73b a784 413c 2600 a33b
00000180: a649 38bc 3d44 b1bb 55e4 6aba 8d4b 81bc
00000190: f661 9fbb 97a2 9fbb e09a ddbb 2f72 033c
000001a0: d2d4 aa3b 4f94 4bbb 51c4 23bb 0fae 2ebb
000001b0: 9dd9 b63b 1800 42bc 4776 803a 353d 8fba
000001c0: 2f00 883a 5fa1 e0bb baa9 42bc dd59 dfb9
000001d0: dc19 8cbb f4f6 9d3b 5fc8 3f3a a3be b5bb
000001e0: c771 0ebb 3daa d43a 15c4 e4ba c384 3fbc
000001f0: b045 97ba bf8b b1bb 377b c1bb 00a1 edbb
00000200: 1db8 8b3b 7ca1 1e3b 42e9 633c 8645 33ba
00000210: b5a0 703b a394 f2bb f482 92ba 4aa8 95bb
00000220: 5b54 80ba fe76 013c c801 da3a 17c2 443c
00000230: 72f3 6abc 481c 53bb 2dd0 0bbc 57ba bdbb
00000240: 537d ad39 b7ef 413b eb2d 38bc ab9b b03b
00000250: 7bb4 223c 2106 3d36 2f37 433c cb7f 11bc
00000260: c23b efbb c8cc e43b c811 843b 77e1 a9bb
00000270: 125e 813a 37bd 6b3b b2f3 aa3a 8546 91bc
00000280: 7344 c23b 17aa b93b 43ea 91bb 63da cdbb
00000290: ea19 0ebc 8b9a 47bc 5d9d dfbb 31f9 92bb
000002a0: 7078 74bb ad7b 75bb dd2a aa3b 4fe2 de3b
000002b0: e01b fe3b 2354 973b 621a 8f3b 67ed 1b3b
000002c0: df22 2c3c 69e2 08bc 136c c8bb dddc c5bb
000002d0: 0000 84bc 1dba 01bc ab20 8fbb faf2 84bc
000002e0: ebe9 8e3b b71a 6ebb a42b 36bb 9367 a1bb
000002f0: 30bf c3bb ea7a 583b ed2a b73b 5ff2 d8bb
00000300: 2054 31bc d334 acba dffe b2ba c730 1c3b
00000310: a0fc 3f3c dc4a 053c 3468 92bb 9965 02ba
00000320: 9b4c 513a 2ace c03b 529c d03a a710 00bc
00000330: 6799 34bc 23f1 3cbc 8926 183b fdf0 ef3a
00000340: b81f 83ba de9c 2dbb 3d04 17bb 1faf af3a
00000350: 6ed6 87bb f774 ef3b 3b6e 263b 7ef4 413c
00000360: 07f3 ecba 326b 383a 3138 923b 785f 8fbc
00000370: 5fa8 d63b 7361 46ba 029f a13b 63ca b039
00000380: 278f 01bb 38e4 2d3b e8da eb3b 2f08 ab3a
00000390: 1256 17bb 3dfd 6b3a 2b4f debb b969 0db9
000003a0: 3235 96bb 7415 12bb b098 00bb 499e 42bc
000003b0: 4cf9 083b 1b1d 04bb e95f 06bc 53d6 cab9
000003c0: 1d84 92bb 7566 ab3b a1f7 3f3c 1fd5 4d3b
000003d0: 7f5e a23b 0a3d cdba eb97 103c 4f99 56ba
000003e0: a74b 843b 736c 263b e78a ba3a 9336 f4bb
000003f0: 436f c2bb ceeb ba3a 7305 85bb abcb 22bb

onnx::Div_75 f4 [20]
1.0 1.0 1.0 1.0 1.0 1.0 1.0 1.0
1.0 1.0 1.0 1.0 1.0 1.0 1.0 1.0
1.0 1.0 1.0 1.0
00000000: 0000 803f 0000 803f 0000 803f 0000 803f
00000010: 0000 803f 0000 803f 0000 803f 0000 803f
00000020: 0000 803f 0000 803f 0000 803f 0000 803f
00000030: 0000 803f 0000 803f 0000 803f 0000 803f
00000040: 0000 803f 0000 803f 0000 803f 0000 803f
