results/training1/BoundarySequence/BoundarySequence-109000.onnx (onnx, 558972 bytes, 10 tensors)

network_body.observation_encoder.processors.0.normalizer.running_mean f4 [20]
0.0 0.0 0.0 0.0 0.0 0.0 0.0 0.0
0.0 0.0 0.0 0.0 0.0 0.0 0.0 0.0
0.0 0.0 0.0 0.0
00000000: 0000 0000 0000 0000 0000 0000 0000 0000
00000010: 0000 0000 0000 0000 0000 0000 0000 0000
00000020: 0000 0000 0000 0000 0000 0000 0000 0000
00000030: 0000 0000 0000 0000 0000 0000 0000 0000
00000040: 0000 0000 0000 0000 0000 0000 0000 0000

network_body._body_endoder.seq_layers.0.weight f4 [256, 20]
0.24609503 -0.012704195 -0.05265646 0.27022377 0.19660276 -0.052708622 0.18088378 0.18193363
0.13361438 0.13545644 -0.20478934 -0.14973165 -0.22162835 0.25933543 -0.17579593 -0.12163985
0.031075656 0.28844893 -0.16063313 -0.31135124 -0.1611355 -0.10401935 0.115931064 0.19222702
0.049041964 -0.026534146 -0.022588914 0.0044855243 -0.17587973 -0.19944595 -0.059341162 -0.030066546
0.42173502 -0.25854248 0.05956875 -0.05256276 0.17361523 0.13583243 0.04894328 -0.05495588
-0.3709865 -0.33628017 -0.056823663 0.1758875 -0.5052912 -0.091239385 -0.05969587 -0.037823323
0.30750203 0.01414183 0.07082334 0.38182524 0.11866364 0.07575454 -0.041207153 0.24201831
-0.0677508 -0.124422595 -0.14392196 0.07112624 -0.057654403 0.060875524 -0.12251938 -0.25132167
-0.15479822 0.22969249 -0.2502823 0.21769445 -0.34604898 0.24152513 -0.0029720198 0.21919838
0.47420284 0.22184576 0.046582107 -0.2937035 -0.19712992 -0.14748926 0.16642788 -0.28403148
-0.03195678 -0.35001612 0.0672543 0.16799366 0.15050274 -0.082114145 0.056486912 0.34417605
0.241296 0.30624658 0.0068316823 0.3356335 -0.19517083 0.14223202 0.14657739 -0.43890306
0.15182568 -0.20635796 0.11320842 -0.13717385 -0.22788276 0.13332969 -0.09251386 -0.06273242
-0.12893921 -0.037642498 0.6013383 -0.39956665 0.035963934 0.52703077 -0.21410102 -0.43508467
0.14130883 0.4085704 -0.081690185 0.07676102 0.5612971 0.17028128 0.33002648 -0.49553347
-0.3111581 -0.11635539 0.35326618 -0.122932084 0.34139845 -0.100365624 0.03255856 0.026178485
0.16964516 0.013646703 0.06903954 -0.24414067 0.18212764 0.09805996 -0.045368563 -0.17118433
0.25190854 0.014486577 0.24764407 0.03813089 -0.047903966 -0.15580636 0.04709066 0.057154924
-0.08196537 0.16253814 -0.24057654 -0.17743734 -0.46871886 -0.1477162 0.22357543 0.19982597
0.087731265 -0.13264163 -0.26603624 0.051177055 0.03976396 0.28026122 0.23204567 -0.17828995
-0.09448364 -0.0023980774 0.06396642 0.6350696 -0.0656128 -0.100190565 -0.09215536 0.12240889
-0.04088651 0.3271594 -0.2730174 0.12006143 -0.024267085 -0.10729111 0.19589947 0.1024976
-0.096574165 -0.077303566 0.055979006 -0.22987594 -0.09745918 -0.294386 0.19248828 -0.12852503
0.3273528 -0.13791874 -0.100750744 -0.09744202 -0.08523576 0.38068718 0.27952412 0.44186455
-0.21092959 0.018047096 0.5788594 0.05587489 -0.32956278 -0.41881776 -0.20198667 -0.1453192
-0.13645297 -0.045038607 -0.14200273 -0.034098547 0.040808205 -0.0629474 0.005746177 -0.17417704
-0.040544756 0.029537056 0.10412402 0.3277936 -0.161951 0.2819532 -0.14416565 0.09180933
0.19679347 0.27051637 -0.48698616 -0.21067321 -0.4523656 -0.19791833 -0.0131329745 -0.06425371
-0.22146973 -0.099869005 -0.14318472 0.33446035 -0.37852257 0.01588228 0.029350469 0.37639356
-0.017294863 -0.065712444 -0.18568286 -0.11216195 -0.1693288 -0.04421603 -0.14784244 0.18776932
0.07440651 -0.13535619 -0.16320594 -0.15041581 0.052548144 0.24599944 -0.059212435 -0.1929174
-0.1468863 -0.07873306 0.19884631 -0.0865812 0.0036450098 0.23905033 -0.0631199 0.16860339
00000000: 5600 7c3e 4225 50bc 4dae 57bd c55a 8a3e
00000010: 3c52 493e ffe4 57bd 9939 393e cf4c 3a3e
00000020: 35d2 083e 18b5 0a3e 4cb4 51be 4153 19be
00000030: 8bf2 62be 9dc7 843e d903 34be 501e f9bd
00000040: 6092 fe3c 94af 933e 037d 24be 6e69 9fbe
00000050: b400 25be 1908 d5bd 446d ed3d 29d7 443e
00000060: 3ae0 483d 235e d9bc 630c b9bc 4efb 923b
00000070: d119 34be 8f3b 4cbe b80f 73bd 1e4e f6bc
00000080: a7ed d73e ae5f 84be 5dfe 733d 0c4c 57bd
00000090: 31c8 313e a817 0b3e c078 483d 6b19 61bd
000000a0: f1f1 bdbe ea2c acbe eebf 68bd da1b 343e
000000b0: c45a 01bf b7db babd a883 74bd a1ec 1abd
000000c0: e870 9d3e 22b3 673c d40b 913d 997e c33e
000000d0: ec05 f33d 3225 9b3d d5c8 28bd a6d3 773e
000000e0: eec0 8abd 46d1 febd 4760 13be a2aa 913d
000000f0: 0627 6cbd 9d58 793d 71eb fabd 3cad 80be
00000100: 6d83 1ebe 8234 6b3e 0025 80be 4beb 5e3e
00000110: 552d b1be 5d52 773e 38c6 42bb 8a75 603e
00000120: b7ca f23e 892b 633e e1cc 3e3d 4e60 96be
00000130: 6ddc 49be 6d07 17be 126c 2a3e 936c 91be
00000140: 1de5 02bd 5035 b3be 9fbc 893d 8806 2c3e
00000150: 641d 1a3e 762b a8bd d25e 673d d837 b03e
00000160: 4c16 773e 5acc 9c3e 4edc df3b 27d8 ab3e
00000170: ddda 47be 45a5 113e 6218 163e e7b7 e0be
00000180: 3178 1b3e 804f 53be d1d9 e73d 4d77 0cbe
00000190: 195a 69be 9487 083e e877 bdbd db79 80bd
000001a0: a408 04be 052f 1abd 4ff1 193f 0094 ccbe
000001b0: eb4e 133d 7deb 063f 4c3d 5bbe 6bc3 debe
000001c0: 43b3 103e 2430 d13e 2f4d a7bd e234 9d3d
000001d0: 2bb1 0f3f 375e 2e3e 3bf9 a83e 90b6 fdbe
000001e0: 1d50 9fbe bc4b eebd 4edf b43e d1c3 fbbd
000001f0: c7cb ae3e 7e8c cdbd 205c 053d 4374 d63c
00000200: 76b7 2d3e 6c96 5f3c 9a64 8d3d 0300 7abe
00000210: ab7f 3a3e a9d3 c83d 63d4 39bd f24a 2fbe
00000220: 28fa 803e 1c59 6d3c 6896 7d3e 232f 1c3d
00000230: f336 44bd b48b 1fbe 23e2 403d 481b 6a3d
00000240: 76dd a7bd 6670 263e b259 76be 22b2 35be
00000250: ebfb efbe ea42 17be f5f0 643e 2e9f 4c3e
00000260: 73ac b33d 35d3 07be e735 88be 089f 513d
00000270: 89df 223d 667e 8f3e 619d 6d3e a491 36be
00000280: a380 c1bd 1029 1dbb d400 833d ec93 223f
00000290: 0160 86bd b630 cdbd f3bb bcbd 83b1 fa3d
000002a0: 9d78 27bd 7081 a73e f0c8 8bbe c4e2 f53d
000002b0: c4cb c6bc 71bb dbbd df99 483e 43ea d13d
000002c0: adc8 c5bd 5551 9ebd 3e4a 653d 9964 6bbe
000002d0: ae98 c7bd c3b9 96be a61b 453e 119c 03be
000002e0: c99a a73e 923a 0dbe 6856 cebd af8f c7bd
000002f0: 1690 aebd 6ee9 c23e c91d 8f3e 123c e23e
00000300: edfd 57be 81d7 933c 2130 143f 12dd 643d
00000310: 74bc a8be 486f d6be 98d5 4ebe 8ece 14be
00000320: 54ba 0bbe 677a 38bd 2a69 11be ebaa 0bbd
00000330: 8126 273d 91ea 80bd 6d4a bc3b 775b 32be
00000340: 4212 26bd b2f7 f13c f93e d53d 90d4 a73e
00000350: 7cd6 25be 2b5c 903e 29a0 13be 8806 bc3d
00000360: 3a84 493e 1f81 8a3e 4056 f9be b8ba 57be
00000370: 779c e7be 1aab 4abe b02b 57bc 7397 83bd
00000380: f6c8 62be 1f88 ccbd 049f 12be 633e ab3e
00000390: b6cd c1be 8e1b 823c 6570 f03c a8b6 c03e
000003a0: f5ad 8dbc 3f94 86bd a623 3ebe 2ab5 e5bd
000003b0: 8764 2dbe de1b 35bd 0264 17be 9a46 403e
000003c0: 7162 983d d09a 0abe 751f 27be 9a06 1abe
000003d0: b93c 573d 47e7 7b3e bd88 72bd 248c 45be
000003e0: 5d69 16be cc3e a1bd 5e9e 4b3e 7c51 b1bd
000003f0: 1ee1 6e3b 9cc9 743e 0245 81bd 5ea6 2c3e

network_body._body_endoder.seq_layers.0.bias f4 [256]
-0.0027495893 -0.01017011 0.0028473367 0.011716588 0.0102663385 0.009118587 0.009771088 -0.0105163455
0.010911497 -0.003874746 0.009860789 0.008993228 0.0087163355 0.005028975 0.011229712 0.004004239
0.008968919 -0.010176701 -0.009363144 0.008165415 -0.007898392 -0.009965501 0.0120621035 -0.008283496
-0.0073518255 0.009177106 -0.004658921 -0.011052872 0.0076647312 0.009524174 -0.00710108 -0.0044066147
0.006823309 -0.010152989 0.011396899 0.008665229 -0.008983044 -0.0045364704 -0.0075742286 0.009131994
0.012306568 -0.011174684 -0.008060051 -0.011945475 0.011830288 0.010151229 -0.0052158604 -0.01281886
-0.0099356575 0.010546528 -0.01064015 0.006420548 -0.009000638 -0.010466595 -0.0063174265 0.011255041
0.012048042 0.008515244 -0.0069584264 -0.00608133 -0.009866482 0.009096084 -0.002489483 -0.0060901465
-0.0010043487 0.0035019217 0.008986736 -0.008832056 -0.010139897 -0.013333966 0.010342957 0.011010158
-0.0013076983 0.009938294 0.00981885 0.008566847 0.009420648 -0.009175431 -0.0063086087 -0.010765376
0.009596964 -0.008680003 0.008865657 -0.008630842 0.010618626 -0.009270553 -0.008850389 -0.009634245
0.009407475 -0.013000359 -0.009395456 0.009205927 0.010005748 -0.009792762 -0.004715116 0.0053214007
-0.009768813 -0.008640202 0.007727985 0.00816012 0.0039261077 0.010551201 -0.012425213 -0.0017651896
0.0074864253 -0.013587889 -0.010393662 0.0057277344 -0.009845337 -0.009596468 0.008405133 0.009554983
-0.0046331366 -0.009011006 -0.010225108 0.010501109 -0.0057210033 0.00399609 0.008819239 0.009862761
0.010261354 0.0047414894 0.0074684722 0.00813617 0.008199416 -0.0061713774 -0.011241377 -0.011395023
0.013497277 -0.007997264 -0.0074485065 -0.0069105146 -0.0111559555 -0.003395739 -0.0073964987 0.009591889
0.008563414 -0.0070776185 -0.004274707 0.0033152169 -0.0081088785 0.0070487773 -0.008693536 0.011567296
0.0074960594 -0.010871249 0.016760023 0.008919508 0.009890828 0.009190418 0.009117992 -0.008404225
-0.0059208637 0.009990737 0.008800436 0.008805947 0.0076069785 0.011137898 -0.013112896 0.010689252
0.0064875814 -0.007724655 0.0098131895 -0.0068540336 -0.008266481 -0.001575809 0.007917833 -0.010641943
0.011238044 -0.010781847 -0.0060732164 0.010497369 -0.009526373 -0.009738314 0.0058030714 -0.007851477
0.0101527115 -0.007877539 -0.008206624 -0.006549011 -0.006634013 0.006910519 -0.008626981 0.005318983
-0.0073820883 0.007344084 -0.005875211 0.008344238 0.009846192 -0.008151702 -0.0070187547 -0.011796375
0.01163923 -0.008222341 -0.0047172597 -0.0077919895 0.010361034 -0.008526011 -0.0008233342 0.009215958
0.0036715893 0.008654181 0.010570599 -0.010936769 -0.004399136 0.009134421 0.008750154 0.009360842
0.009689405 -0.01154259 -0.0051599853 0.007251571 0.009801301 -0.007991793 -0.0076284097 0.0086983545
0.011005008 -0.0034336355 0.012351429 0.010042648 -0.008394601 0.008650374 0.015586576 -0.008480644
0.010091914 -0.007578853 0.00983233 -0.00880096 0.009001114 0.009292086 -0.012627502 0.0174464
-0.00641157 0.0059271515 0.010315942 -0.0098505 -0.007271516 0.006791668 0.008206432 -0.004884217
-0.004470067 -0.010441362 -0.0075465115 0.0048571387 -0.008740934 -0.008301729 0.0106504215 -0.01192153
0.009088057 -0.007695029 -0.00035341713 0.0066962107 0.0069012097 -0.000691811 0.012520344 0.008816288
00000000: 7432 34bb 88a0 26bc 629a 3a3b eff6 3f3c
00000010: 2534 283c 2066 153c ea16 203c c04c 2cbc
00000020: 23c6 323c 73ef 7dbb 268f 213c 5558 133c
00000030: f6ce 0e3c 1aca a43b d3fc 373c fe35 833b
00000040: 5ff2 123c 2dbc 26bc df67 19bc 3cc8 053c
00000050: 4268 01bc 5746 23bc 21a0 453c 80b7 07bc
00000060: 95e7 f0bb 935b 163c dda9 98bb 1b17 35bc
00000070: 6d28 fb3b 480b 1c3c 2db0 e8bb 5d65 90bb
00000080: 1196 df3b b958 26bc 0fba 3a3c 9bf8 0d3c
00000090: 9e2d 13bc aca6 94bb 3c31 f8bb 5c9e 153c
000000a0: 7da1 493c 0616 37bc 4e0e 04bc f4b6 43bc
000000b0: d3d3 413c 5751 263c cfe9 aabb 3206 52bc
000000c0: 2bc9 22bc 58cb 2c3c 0654 2ebc 7663 d23b
000000d0: 6977 13bc 157c 2bbc 6a02 cfbb 1067 383c
000000e0: 2765 453c 8683 0b3c 8303 e4bb e545 c7bb
000000f0: 06a7 21bc be07 153c 9826 23bb da8f c7bb
00000100: 5aa4 83ba 7f80 653b 1a3d 133c 54b4 10bc
00000110: cf21 26bc b576 5abc 8275 293c f363 343c
00000120: 1367 abba 3ad4 223c 3edf 203c f65b 0c3c
00000130: 1059 1a3c 8c54 16bc 72b8 cebb 4261 30bc
00000140: 963c 1d3c 9236 0ebc 4341 113c 6068 0dbc
00000150: bff9 2d3c 84e3 17bc 3901 11bc f4d8 1dbc
00000160: cf21 1a3c 75ff 54bc 66ef 19bc 75d4 163c
00000170: 26ef 233c d271 20bc 4381 9abb 255f ae3b
00000180: 5f0d 20bc a28f 0dbc 093b fd3b 06b2 053c
00000190: 94a6 803b f2de 2c3c 1f93 4bbc ef5d e7ba
000001a0: b050 f53b bd9f 5ebc 2e4a 2abc b8af bb3b
000001b0: 564e 21bc 813a 1dbc afb5 093c 818c 1c3c
000001c0: 91d1 97bb e6a2 13bc 3687 27bc d80c 2c3c
000001d0: 4177 bbbb a2f1 823b 927e 103c 6b97 213c
000001e0: 3d1f 283c 7f5e 9b3b 16ba f43b 924d 053c
000001f0: d856 063c 4439 cabb c12d 38bc 31b2 3abc
00000200: af23 5d3c f506 03bc 9a12 f4bb 9971 e2bb
00000210: 78c7 36bc 0c8b 5ebb 545e f2bb 4c27 1d3c
00000220: 904d 0c3c 5eeb e7bb d712 8cbb 1c44 593b
00000230: 1adb 04bc 6ef9 e63b 556f 0ebc c284 3d3c
00000240: 81a1 f53b 531d 32bc 514c 893c 2123 123c
00000250: 240d 223c 6893 163c a163 153c e0b1 09bc
00000260: ce03 c2bb 30b0 233c b42f 103c d246 103c
00000270: f643 f93b bb7b 363c 79d7 56bc f921 2f3c
00000280: c795 d43b 1a1f fdbb 80c7 203c cd97 e0bb
00000290: 2270 07bc 608b ceba ccb9 013c 8b5b 2ebc
000002a0: c61f 383c 58a6 30bc d501 c7bb 28fd 2b3c
000002b0: 8114 1cbc 738d 1fbc b127 be3b 7ba3 00bc
000002c0: 8f57 263c cb10 01bc 1375 06bc 1699 d6bb
000002d0: 2262 d9bb a371 e23b 2e58 0dbc dd4a ae3b
000002e0: 72e5 f1bb a4a6 f03b d884 c0bb 45b6 083c
000002f0: ec51 213c b78e 05bc 95fd e5bb 9545 41bc
00000300: 78b2 3e3c ffb6 06bc 3e93 9abb f253 ffbb
00000310: 54c1 293c afb0 0bbc 06d5 57ba 88fe 163c
00000320: 0c9f 703b 44ca 0d3c 4e30 2d3c 2230 33bc
00000330: a126 90bb 8aa8 153c ce5c 0f3c 385e 193c
00000340: 4fc0 1e3c 221d 3dbc 1815 a9bb 969e ed3b
00000350: a395 203c 02f0 02bc bdf7 f9bb 8b83 0e3c
00000360: 594e 343c d806 61bb a65d 4a3c eb89 243c
00000370: 8289 09bc 4cba 0d3c d75e 7f3c 66f2 0abc
00000380: 8e58 253c 0758 f8bb c817 213c e731 10bc
00000390: 6979 133c d53d 183c 95e3 4ebc c1eb 8e3c
000003a0: 2618 d2bb 8d38 c23b 3204 293c fe63 21bc
000003b0: e645 eebb a48c de3b 4574 063c c80b a0bb
000003c0: a479 92bb 3f12 2bbc ba48 f7bb a228 9f3b
000003d0: 2236 0fbc fa03 08bc 1b7f 2e3c 8552 43bc
000003e0: 13e6 143c 9526 fcbb d84a b9b9 e36b db3b
000003f0: 8b23 e23b a65a 35ba 2122 4d3c 3172 103c

network_body._body_endoder.seq_layers.2.weight f4 [256, 256]
-0.0035700516 -0.058411203 -0.060744233 0.122873686 0.12767878 0.046315312 -0.0042557046 -0.07401182
0.033061884 -0.037775453 0.009275942 0.03974432 0.049745593 -0.00805919 0.032343786 0.045906615
0.11048468 -0.10466777 0.07878435 0.0707802 -0.041429233 -0.056364574 0.046478897 -0.056480512
0.028671985 0.09224824 -0.08933759 -0.014839991 -0.006968977 0.05661877 -0.00025759224 0.0019376943
0.012596635 0.004224057 0.05552327 0.008347354 0.003289593 0.12288007 -0.034364462 -0.023680922
-0.018389344 -0.062054966 -0.045678444 -0.017879836 -0.019465074 0.009446981 0.056264393 -0.0035743117
0.176782 0.10123855 0.116794564 0.08088459 -0.023813866 0.017377108 -0.06191433 0.13082062
0.05112481 0.007862307 -0.0050698384 0.06708461 -0.039549384 -0.053035855 -0.036879048 0.083149716
-0.06966848 -0.15198475 0.033185154 -0.093391314 -0.0019220134 -0.11278596 0.045679986 0.018530091
0.11583372 0.062311042 0.0153384395 -0.08866518 0.11190236 0.007848673 0.03300379 0.08895113
0.17449054 0.010924795 0.019533914 0.059223652 0.052939106 -0.01111215 -0.050879806 -0.08917913
0.009801264 -0.008716641 0.06879506 0.05626636 -0.081450775 -0.050710388 0.030080328 0.15939483
0.012831138 0.027706884 0.060314223 -0.000943094 0.06420846 0.094932966 -0.10607271 -0.022035714
0.01869586 0.05699855 0.034436546 -0.06390134 0.040856846 0.023831641 0.0056766504 0.13777882
-0.07428804 0.022865847 -0.06713289 -0.03911866 -0.070166074 -0.0433283 0.023799252 0.03402558
0.046341516 0.03387432 0.18487671 0.11233076 -0.008144017 0.052042052 0.043652017 -0.05753296
-0.023931194 -0.0031577148 0.0032347587 -0.002490876 -0.014894632 -0.05069071 0.027061043 -0.010603426
-0.09207604 0.05546518 -0.054596208 0.03673635 -0.024745379 0.021499192 -0.048831753 -0.05510997
0.044572152 0.037140828 -0.013623441 -0.038378157 0.17205988 0.1268076 0.034420703 0.07635304
0.017351007 0.06117855 -0.0030845406 0.034653682 0.030655848 -0.017978765 -0.08979158 0.104849435
-0.025321733 0.05116722 0.08812476 -0.0197054 -0.018809456 -0.023006141 0.052881632 0.1194278
0.08142203 0.006234408 -0.0222331 -0.010067649 -0.006863197 -0.015334541 0.05257762 -0.02797506
0.014717714 0.0017630762 0.007528943 -0.02436599 -0.034675665 -0.036849067 -0.062533416 -0.1275578
-0.058441926 -0.07400025 -0.06990512 0.019874256 0.0068390155 0.12767997 -0.0074342787 -0.10407405
0.02465495 -0.015505237 0.012732816 -0.0389584 0.0381023 -0.017498551 -0.017933529 0.13266514
0.05139906 0.020643001 -0.0021956298 0.086801365 0.06404333 0.035428483 -0.027789535 -0.06292162
-0.0034685058 -0.036350157 0.010250795 0.0332013 -0.060809813 -0.027613226 0.009177426 -0.022619154
0.084544756 -0.03857989 0.10222728 -0.033374935 0.10361783 0.035581682 -0.0015768065 -0.10825315
0.011959534 0.014395289 0.07749543 -0.061529312 -0.12049691 0.08861443 -0.083454534 0.035883125
-0.107238084 -0.071225226 0.119240224 0.008975538 -0.058374662 -0.052169513 0.017990595 0.15469031
-0.09336248 -0.033764705 -0.087349616 0.021442357 0.0128916465 -0.020473009 -0.020745369 -0.065279804
0.09974676 -0.08463844 -0.009375631 -0.12199337 0.091319755 0.02238433 0.11361605 0.030643709
00000000: 87f7 69bb 9640 6fbd f2ce 78bd 33a5 fb3d
00000010: 3abe 023e 20b5 3d3d 7073 8bbb 8293 97bd
00000020: e66b 073d 6fba 1abd 1ffa 173c f1ca 223d
00000030: 09c2 4b3d b10a 04bc eb7a 043d 9308 3c3d
00000040: cb45 e23d 0e5c d6bd b059 a13d 36f5 903d
00000050: b3b1 29bd 8ade 66bd a860 3e3d 1c58 67bd
00000060: 83e1 ea3c a5ec bc3d a0f6 b6bd 6f23 73bc
00000070: 045c e4bb 15e9 673d 720d 87b9 3bfa fd3a
00000080: 1e62 4e3c f569 8a3b 5e6c 633d 57c3 083c
00000090: 3696 573b 8ca8 fb3d c0c1 0cbd 7efe c1bc
000000a0: 40a5 96bc 592d 7ebd 5219 3bbd bc78 92bc
000000b0: 3875 9fbc 83c7 1a3c 7e75 663d 003f 6abb
000000c0: 5706 353e 2856 cf3d fd31 ef3d d2a6 a53d
000000d0: 4c15 c3bc 705a 8e3c e199 7dbd d7f5 053e
000000e0: 4068 513d e8d0 003c e320 a6bb a863 893d
000000f0: 89fe 21bd 203c 59bd 7c0e 17bd 664a aa3d
00000100: 59ae 8ebd e4a1 1bbe 28ed 073d f243 bfbd
00000110: 11ec fbba 53fc e6bd f01a 3b3d 6bcc 973c
00000120: 3b3a ed3d dd39 7f3d 144e 7b3c 1796 b5bd
00000130: 112d e53d b897 003c fb2e 073d 032c b63d
00000140: a6ad 323e e9fd 323c 9605 a03c 8094 723d
00000150: add6 583d bc0f 36bc 5867 50bd 8ca3 b6bd
00000160: 7b95 203c 3ed0 0ebc 6de4 8c3d 8e77 663d
00000170: aacf a6bd b2b5 4fbd 056b f63c 6638 233e
00000180: b239 523c 8cf9 e23c 0c0c 773d f839 77ba
00000190: ba7f 833d 376c c23d a63c d9bd 3e84 b4bc
000001a0: 0f28 993c 5077 693d 560d 0d3d b5de 82bd
000001b0: 8259 273d 933a c33c 3203 ba3b e415 0d3e
000001c0: 5424 98bd 2851 bb3c f87c 89bd e33a 20bd
000001d0: 3bb3 8fbd 0479 31bd a6f6 c23c 685e 0b3d
000001e0: 9ad0 3d3d cdbf 0a3d 5250 3d3e ab0d e63d
000001f0: 7c6e 05bc 0c2a 553d 75cc 323d aea7 6bbd
00000200: 5a0b c4bc aaf1 4ebb 3ffe 533b f73d 23bb
00000210: 9d08 74bc 10a1 4fbd 1faf dd3c feb9 2dbc
00000220: 5d92 bcbd 752f 633d 46a0 5fbd db78 163d
00000230: d2b6 cabc 131f b03c ce03 48bd feba 61bd
00000240: 4a91 363d fb20 183d da34 5fbc 6a32 1dbd
00000250: 7730 303e dad9 013e b9fc 0c3d fc5e 9c3d
00000260: b323 8e3c 5c96 7a3d 0126 4abb 05f1 0d3d
00000270: f921 fb3c 3448 93bc a6e4 b7bd 4dbb d63d
00000280: 866f cfbc b894 513d c17a b43d 386d a1bc
00000290: 4a16 9abc 6077 bcbc 699a 583d 9096 f43d
000002a0: 98c0 a63d 014a cc3b 3122 b6bc c8f2 24bc
000002b0: abe4 e0bb ba3d 7bbc a15b 573d f42b e5bc
000002c0: 9122 713c 0517 e73a 5ab5 f63b 2f9b c7bc
000002d0: 1208 0ebd 0cef 16bd 8511 80bd 839e 02be
000002e0: cd60 6fbd 718d 97bd 6a2a 8fbd 56cf a23c
000002f0: d219 e03b 8abe 023e 409b f3bb c724 d5bd
00000300: 2df9 c93c ad09 7ebc 4d9d 503c d892 1fbd
00000310: 2811 1c3d 1f59 8fbc 56e9 92bc 5fd9 073e
00000320: d287 523d 831b a93c 8ee4 0fbb eac4 b13d
00000330: 2629 833d 751d 113d e1a6 e3bc 0ddd 80bd
00000340: df4f 63bb e7e3 14bd f3f2 273c 16fe 073d
00000350: b613 79bd 2235 e2bc ea5c 163c ce4b b9bc
00000360: cd25 ad3d f205 1ebd 895c d13d 28b4 08bd
00000370: 9635 d43d 19be 113d d9ac ceba d4b3 ddbd
00000380: ecf1 433c 38da 6b3c edb5 9e3d 2906 7cbd
00000390: 15c7 f6bd 7b7b b53d 36ea aabd 2ffa 123d
000003a0: a49f dbbd 88de 91bd 3834 f43d 230e 133c
000003b0: 451a 6fbd b3af 55bd 0361 933c 2367 1e3e
000003c0: d434 bfbd dc4c 0abd 5be4 b2bd e2a7 af3c
000003d0: 7c37 533c 03b7 a7bc 31f2 a9bc 6bb1 85bd
000003e0: 0848 cc3d eb56 adbd 3f9c 19bc a9d7 f9bd
000003f0: da05 bb3d 585f b73c 88af e83d 8408 fb3c

network_body._body_endoder.seq_layers.2.bias f4 [256]
0.015401366 -0.0017581728 0.002061855 0.00017172686 0.010662165 -0.009601863 0.0073847948 0.006016347
-0.011098461 0.008919374 0.011577629 -0.009260732 -0.0073647606 -0.00774845 0.00211102 0.009092637
-0.012919172 0.009367635 0.006845789 -0.007897975 0.0065634376 -0.008708186 0.0036105905 0.008861128
-0.009199421 -0.0024248688 -0.0042723576 0.009237707 0.0093156 0.00830067 0.002958182 -0.009803481
0.00846464 -0.008514264 -0.010252693 -0.007411869 0.01086342 0.007819964 -0.010974169 0.008998191
0.009225582 0.0060983296 0.008656944 -0.0072970917 0.008975397 0.007301913 -0.007356603 -0.0032647888
-0.009034942 -0.012037583 -0.0034360695 -0.008619395 -0.0098021 -0.007669465 -0.0103798695 0.010212306
0.009826977 -0.009629438 0.011038639 0.010123941 -0.010021819 0.012205448 -0.009007155 -0.008355006
-0.0069140946 -0.010260788 0.00826781 0.009691416 0.010293766 -0.009095036 -0.010120107 -0.009655694
0.009390763 0.00060368155 0.008869828 0.008529099 -0.011945603 0.003763438 0.009450174 -0.013436974
8.524013e-05 0.010576567 -0.0044902395 0.00965659 -0.0072414204 -0.008965558 0.0054812166 -0.009383427
0.010358113 0.0082115065 0.010211062 -0.0066677146 -0.010218896 0.008386244 -0.008417945 -0.009252658
0.004490302 -0.006952911 -0.009009298 -0.008165453 -0.008580559 0.009896726 0.009283938 -0.009117462
0.009083203 0.010497335 0.009113068 -0.012171485 -0.009737675 0.0052362112 0.0101819765 -0.009335005
-0.0066016987 0.00849662 0.009385173 0.009536838 0.00710417 0.008951324 -0.008480844 0.0065327203
0.00906093 0.010047424 0.014728368 0.009006383 -0.008646587 0.0071832137 0.0014489283 -0.007764021
-0.009770356 -0.016569268 -0.008982391 -0.00931647 0.009517577 -0.0106112575 0.0068016658 -0.005151902
-0.009460192 0.009558441 0.007342419 -0.010732753 0.007632395 -0.009796787 0.00990276 -0.005228048
0.0029926 -0.010290991 0.0068162465 0.010109 0.007861798 0.00903081 0.0092576435 0.0026897842
0.0074477633 0.010198869 -0.0077568158 0.006081745 0.0044017825 -0.008850276 -0.011396997 -0.009381232
0.0067170244 -0.008687089 2.1920598e-05 0.007527596 -0.009882603 -0.00037088036 -0.009620765 0.010995519
-0.009658779 0.008560739 -0.009308804 0.008292053 0.011983144 0.009796838 -0.009226588 -0.010001361
-0.00918781 -0.007680616 0.01001641 0.008310884 -0.009284036 0.008510207 0.008586211 -0.0068763257
-0.002913332 0.006223712 0.012863653 0.009652439 -0.010033136 0.009581787 0.014627975 0.009070055
-0.00757889 0.009731395 -0.00948697 -0.0006688462 0.0105439 -0.008649098 -0.0083712535 -0.0021055809
0.009835193 0.004791712 0.005339486 0.0011190509 -0.013897528 0.0008925733 0.0013555317 -0.013504923
0.009360461 0.010386105 0.0048185936 0.010309817 0.00981772 0.007899444 0.009105319 -0.008843684
-0.0085629495 0.008207999 -0.008407491 0.0076098545 -0.0041308342 -0.006425727 0.0042447047 0.009153685
0.0010069257 0.009405532 -0.009658442 -0.0016013122 0.00970273 -0.009486992 -0.0064245407 -0.008953628
-0.0093828235 -0.0021040728 -0.007395916 -0.003985291 -0.009928965 -0.006481354 -0.008971557 -0.00056321785
0.00950173 -0.009953028 0.016940404 0.009368428 -0.009272495 0.0098726945 0.009553629 -0.009693932
-0.01003905 -0.008765634 -0.012036391 0.008210107 -0.009326577 0.009882138 0.009496305 -0.00038088532
00000000: 0356 7c3c 7d72 e6ba 3020 073b 9411 3439
00000010: 5cb0 2e3c 2251 1dbc 26fc f13b c724 c53b
00000020: 52d6 35bc 9122 123c 18b0 3d3c 53ba 17bc
00000030: 1754 f1bb b6e6 fdbb 0a59 0a3b 49f9 143c
00000040: efaa 53bc b57a 193c a452 e03b 8266 01bc
00000050: 1b12 d73b c8ac 0ebc a89f 6c3b 442e 113c
00000060: 2bb9 16bc 8cea 1ebb 22ff 8bbb c059 173c
00000070: 75a0 183c 89ff 073c 0fde 413b c89e 20bc
00000080: 46af 0a3c 697f 0bbc e9fa 27bc 43df f2bb
00000090: 7cfc 313c 4e1f 003c 00cd 33bc 266d 133c
000000a0: e526 173c 7fd4 c73b dbd5 0d3c 711c efbb
000000b0: 8b0d 133c e344 ef3b a90f f1bb 11f6 55bb
000000c0: 4b07 14bc 4839 45bc ae2f 61bb 5d38 0dbc
000000d0: fd98 20bc 2350 fbbb 5410 2abc 8451 273c
000000e0: 5401 213c cac4 1dbc 68db 343c e3de 253c
000000f0: 8e32 24bc 5cf9 473c bf92 13bc 6fe3 08bc
00000100: a18f e2bb dd1c 28bc b575 073c bfc8 1e3c
00000110: 2fa7 283c 5903 15bc cece 25bc ea32 1ebc
00000120: b7db 193c 6240 1e3a c152 113c a2bd 0b3c
00000130: 7eb7 43bc 03a4 763b e7d4 1a3c c126 5cbc
00000140: f2c2 b238 5649 2d3c dc22 93bb ad36 1e3c
00000150: 7049 edbb 47e4 12bc c79b b33b f2bc 19bc
00000160: 13b5 293c 8e89 063c 4c4c 273c d87c dabb
00000170: 286d 27bc 7566 093c 6ceb 09bc 7698 17bc
00000180: 6223 933b 3fd5 e3bb bc9b 13bc 64c8 05bc
00000190: 7995 0cbc e125 223c a91b 183c 6861 15bc
000001a0: b7d1 143c 04fd 2b3c fa4e 153c e96a 47bc
000001b0: c58a 1fbc 8694 ab3b 4ed2 263c d9f1 18bc
000001c0: 1053 d8bb 6835 0b3c 45c4 193c 6640 1c3c
000001d0: 19ca e83b 93a8 123c 3df3 0abc 6e10 d63b
000001e0: 4c74 143c f39d 243c 414f 713c 828f 133c
000001f0: 6aaa 0dbc 2a61 eb3b f7e9 bd3a 5469 febb
00000200: d813 20bc 46bc 87bc e12a 13bc 1ba4 18bc
00000210: 9cef 1b3c d7da 2dbc 82e0 de3b 49d1 a8bb
00000220: ecfe 1abc 029b 1c3c ad98 f03b 6ed8 2fbc
00000230: 2b19 fa3b b482 20bc 303f 223c 0c50 abbb
00000240: 7f1f 443b 8b9b 28bc d25a df3b 38a0 253c
00000250: c5ce 003c f6f5 133c 5fad 173c 1747 303b
00000260: 5e0c f43b 2819 273c e32c febb 6049 c73b
00000270: d43c 903b bf00 11bc 78ba 3abc bdb3 19bc
00000280: 7c1a dc3b 4b54 0ebc 20e2 b737 0daa f63b
00000290: a4ea 21bc b872 c2b9 6aa0 1dbc 8d26 343c
000002a0: db3f 1ebc 5842 0c3c f483 18bc 64db 073c
000002b0: f354 443c eb82 203c 1d2b 17bc c0dc 23bc
000002c0: 7888 16bc adad fbbb de1b 243c 602a 083c
000002d0: 121c 18bc 656e 0b3c 2ead 0c3c cd52 e1bb
000002e0: 9aed 3ebb 48f0 cb3b 12c2 523c 4325 1e3c
000002f0: 0662 24bc edfc 1c3c 2daa 6f3c 919a 143c
00000300: 5658 f8bb 6e70 1f3c 3c6f 1bbc 8255 2fba
00000310: 52c0 2c3c f2b4 0dbc 9527 09bc c9fd 09bb
00000320: ca23 213c cb03 9d3b dbf6 ae3b 1ead 923a
00000330: 75b2 63bc 95fb 693a 19ac b13a c143 5dbc
00000340: 9e5c 193c 7b2a 2a3c 4be5 9d3b 82ea 283c
00000350: 81da 203c ab6c 013c 7a2e 153c 19e5 10bc
00000360: 9d4b 0cbc d87a 063c 93bf 09bc 165c f93b
00000370: f35b 87bb e88e d2bb 2a17 8b3b 56f9 153c
00000380: d2fa 833a a919 1a3c 713e 1ebc 1fe3 d1ba
00000390: 33f8 1e3c 546f 1bbc f484 d2bb 3db2 12bc
000003a0: 6aba 19bc 7ce4 09bb 7159 f2bb 0b97 82bb
000003b0: 19ad 22bc 8a61 d4bb 70fd 12bc e9a4 13ba
000003c0: 25ad 1b3c 0612 23bc 9ac6 8a3c 097e 193c
000003d0: aaeb 17bc 15c1 213c d386 1c3c 4cd3 1ebc
000003e0: d47a 24bc bc9d 0fbc 4834 45bc af83 063c
000003f0: 80ce 18bc b1e8 213c 6496 1b3c 90b1 c7b9

network_body._body_endoder.seq_layers.4.weight f4 [256, 256]
0.00934114 0.058587134 -0.004192613 0.009690939 0.004423164 -0.100270115 0.038820338 0.019335704
0.052465834 0.042360377 0.01967166 -0.03581314 -0.055362403 0.015174447 0.014284226 0.016241565
-0.043828126 -0.010054542 0.07130624 -0.082867086 0.13646306 -0.086876355 -0.052070674 0.02411458
0.010941807 0.00021733249 0.06727062 0.030478505 0.08969849 -0.0042671445 0.11994096 0.05493471
0.05092556 -0.12892689 0.026072778 -0.14725633 0.040948555 0.045992777 -0.058968276 0.072678596
-0.030979527 0.0707763 -0.05444593 0.1313433 0.039303344 -0.023237737 0.036297902 0.03653566
-0.09040505 -0.028832745 0.06776234 0.0019456238 -0.06309446 0.043267805 0.028799642 -0.0012189111
0.069044106 -0.07698286 -0.018876737 -0.0061111604 0.03887327 0.031526104 -0.013640895 0.06310837
-0.033857256 -0.00065813796 0.14005634 -0.03610908 -0.067258224 0.05050825 -0.042334974 0.054287523
0.029023165 0.036493767 -0.07073151 -0.00890781 -0.06303181 -0.02440992 0.008187492 0.0029655385
-0.051094323 0.039014015 0.06329887 -0.045887418 -0.015504482 0.010792967 0.006519362 -0.039123207
-0.018453531 0.046566956 -0.08202969 -0.0009198937 0.046388593 -0.0858955 -0.041544564 0.06131044
0.10229207 -0.016481532 0.020503232 0.018536549 -0.07686925 0.07217898 -0.07707268 -0.0451301
-0.122660585 0.04604619 0.013873873 -0.08213117 -0.019975625 -0.0056555923 0.06328379 -0.060052242
0.037450206 0.012151838 -0.014815716 0.0010591152 0.061714984 0.026449803 0.039428942 -0.03199678
0.036518823 0.07603748 0.018969806 -0.061066877 0.022186914 -0.057939105 0.023542874 0.115888305
0.016062422 -0.07002482 -0.061202206 -0.035034467 0.040602244 0.0033978664 0.08625172 0.12709638
0.096873865 -0.08538773 -0.021676036 -0.14691146 0.037043337 -0.13923068 -0.013054484 -0.065301225
0.13063726 0.03483392 0.069010414 0.07946643 0.029740188 0.074744634 -0.035174016 0.072846785
0.06274519 -0.04902688 -0.032274958 -0.01461614 0.0038733913 -0.07951313 0.019298188 -0.065942205
-0.03190955 -0.057489052 -0.02319398 -0.07534721 -7.6732686e-05 0.017418467 -0.030159278 0.14678407
-0.00868921 -0.034049306 -0.022063887 0.008569053 -0.082691684 0.075251915 -0.080276504 -0.0851029
0.072240286 0.033028536 0.037636627 0.034698464 -0.10458818 0.07883556 -0.055581167 -0.030892828
-0.009676518 -0.061541088 0.101496406 0.07675366 -0.094767384 0.005125708 0.0023161105 -0.028902764
0.022321032 0.05574726 0.053029757 -0.021840995 0.06440937 0.04830394 -0.02362317 0.0014559927
-0.06629087 -0.0390005 0.035318315 -0.055079106 -0.028693788 0.11986554 0.006870954 -0.057106897
-0.004033302 0.099571295 0.042561732 -0.009672755 -0.010437891 -0.020799128 0.09503286 -0.09917312
0.0025987609 0.044725012 0.014392159 0.08782575 0.08833545 -0.06529541 -0.04638408 0.0077732247
0.066080816 -0.053424943 -0.059424385 -0.06549814 -0.07213286 0.07380608 -0.01740828 -0.09256368
-0.056901366 0.17388864 -0.07353482 0.053942814 -0.07651853 0.007025781 0.026476325 -0.12012166
0.033339858 -0.022171713 0.004421806 0.00032063446 -0.0020648115 -0.07139792 0.12493661 -0.02214465
-0.02187371 0.06529566 0.057815444 0.05167724 -0.04614672 0.09869888 0.09173529 0.04580579
00000000: 950b 193c 10f9 6f3d 3062 89bb bfc6 1e3c
00000010: 30f0 903b 6b5a cdbd 1302 1f3d e965 9e3c
00000020: 6ae6 563d 1382 2d3d 7626 a13c cdb0 12bd
00000030: b0c3 62bd 3e9e 783c 6308 6a3c 080d 853c
00000040: 1f85 33bd cebb 24bc 0209 923d 38b6 a9bd
00000050: f9bc 0b3e 3bec b1bd 0f48 55bd f18b c53c
00000060: 4445 333c bfe3 6339 2ec5 893d 0fae f93c
00000070: d8b3 b73d 67d3 8bbb 9ba3 f53d 3803 613d
00000080: 5297 503d 6905 04be 9496 d53c 5dca 16be
00000090: acb9 273d ec62 3c3d b888 71bd 84d8 943d
000000a0: c7c8 fdbc 2af3 903d b202 5fbd dc7e 063e
000000b0: 8bfc 203d 115d bebc 1cad 143d 6ba6 153d
000000c0: 4826 b9bd a632 ecbc fbc6 8a3d 4d04 ff3a
000000d0: ab37 81bd 9539 313d 3aed eb3c dfc3 9fba
000000e0: ff66 8d3d 31a9 9dbd 63a3 9abc 2140 c8bb
000000f0: 9439 1f3d 8421 013d 0f7e 5fbc f63e 813d
00000100: e8ad 0abd e486 2cba ee6a 0f3e 1de7 13bd
00000110: aebe 89bd bde1 4e3d 7067 2dbd 985c 5e3d
00000120: fdc1 ed3c 7d7a 153d afdb 90bd 10f2 11bc
00000130: d216 81bd 50f7 c7bc d524 063c 7b59 423b
00000140: 4848 51bd 29cd 1f3d d7a2 813d 72f4 3bbd
00000150: 8306 7ebc fcd4 303c 5fa0 d53b a83f 20bd
00000160: dc2b 97bc febc 3e3d 2fff a7bd 0525 71ba
00000170: f701 3e3d fbe9 afbd a22a 2abd a820 7b3d
00000180: 817e d13d 4704 87bc 65f6 a73c f6d9 973c
00000190: a06d 9dbd 93d2 933d 48d8 9dbd 57da 38bd
000001a0: 7935 fbbd ee9a 3c3d 3e4f 633c 6334 a8bd
000001b0: eca3 a3bc 8c52 b9bb ef9a 813d 57f9 75bd
000001c0: 6365 193d 8118 473c 9ebd 72bc 02d2 8a3a
000001d0: dac8 7c3d 42ad d83c 3e80 213d 0e0f 03bd
000001e0: c394 153d 8ab9 9b3d 9166 9b3c 4321 7abd
000001f0: 55c1 b53c 8e51 6dbd fcdc c03c d956 ed3d
00000200: 5795 833c 2c69 8fbd 2aaf 7abd 4d80 0fbd
00000210: 8a4e 263d bdae 5e3b bea4 b03d 8e25 023e
00000220: ce65 c63d c3df aebd f191 b1bc f56f 16be
00000230: c1ba 173d 7d92 0ebe 79e2 55bc a6bc 85bd
00000240: c6c5 053e 03ae 0e3d 5555 8d3d 4cbf a23d
00000250: b2a1 f33c b713 993d a112 10bd b230 953d
00000260: 8d80 803d 69d0 48bd bf32 04bd 8978 6fbc
00000270: b9d8 7d3b c8d7 a2bd 3c17 9e3c b50c 87bd
00000280: 97b3 02bd a479 6bbd 4d01 bebc a34f 9abd
00000290: 8ceb a0b8 2cb1 8e3c 9710 f7bc 904e 163e
000002a0: 305d 0ebc 4977 0bbd 53bf b4bc 3765 0c3c
000002b0: 425a a9bd ad1d 9a3d 0268 a4bd 6e4a aebd
000002c0: b7f2 933d ee48 073d dd28 1a3d fa1f 0e3d
000002d0: 5432 d6bd 8a74 a13d 14a9 63bd f512 fdbc
000002e0: 428a 1ebc 8212 7cbd 59dd cf3d 0631 9d3d
000002f0: 6715 c2bd 8ef5 a73b e3c9 173b 7dc5 ecbc
00000300: 99da b63c 3d57 643d bb35 593d e3eb b2bc
00000310: 0fe9 833d 5ada 453d 6185 c1bc 02d7 be3a
00000320: 82c3 87bd fdbe 1fbd f0a9 103d a19a 61bd
00000330: 3c0f ebbc 107c f53d bd25 e13b ece8 69bd
00000340: ca29 84bb 09ec cb3d 3655 2e3d 7a7a 1ebc
00000350: b003 2bbc ef62 aabc 97a0 c23d 471b cbbd
00000360: f94f 2a3b 9331 373d 17cd 6b3c fddd b33d
00000370: 37e9 b43d 9ab9 85bd 3cfd 3dbd 89b6 fe3b
00000380: 6155 873d 1dd4 5abd fc66 73bd e423 86bd
00000390: 65ba 93bd a427 973d cf9b 8ebc 0792 bdbd
000003a0: 6811 69bd dd0f 323e 6c99 96bd 24f3 5c3d
000003b0: bfb5 9cbd 8638 e63b e1e4 d83c 5802 f6bd
000003c0: 608f 083d 74a1 b5bc cce4 903b d41a a839
000003d0: ca51 07bb 1339 92bd c4de ff3d b268 b5bc
000003e0: 7f30 b3bc bbb9 853d e3cf 6c3d 83ab 533d
000003f0: 5804 3dbd a322 ca3d b6df bb3d da9e 3b3d

network_body._body_endoder.seq_layers.4.bias f4 [256]
0.0097788535 0.010020338 0.009709763 0.0097269835 0.007429678 -0.009804916 0.0095417695 -0.0095897
0.009558709 -0.009826989 0.009637356 -0.009555804 0.009231207 0.0096060475 -0.012197019 0.009655155
-0.009787386 -0.009656528 -0.00916832 0.009621825 0.009521741 -0.016054664 0.009679732 -0.009549826
0.009674061 -0.009458899 0.010309086 -0.009368862 0.009251967 -0.009532994 -0.009643327 -0.009560381
-0.009619538 -0.0097255055 -0.015377202 -0.01032062 -0.009673941 -0.00955765 0.007113836 0.009868949
0.009611299 -0.016456721 0.009671116 0.0042099156 0.00398884 0.009706202 -0.009186173 -0.009739483
-0.009650141 0.009873437 -0.015225004 0.00973385 0.00941282 0.01096871 0.0070084226 -0.009580879
0.009512396 0.0092630945 0.009508855 0.009644882 0.009133203 0.005981274 0.009930767 -0.00965924
-0.009113208 0.008326002 0.002498405 0.009627233 -0.0109273 0.007918101 -0.009724075 0.009096825
-0.009063899 -0.009470958 0.009635604 -0.00957326 0.0094816405 -0.00961416 0.009851162 0.009491665
-0.009472378 -0.009639773 -0.00969303 0.009855609 -0.009667181 0.009772938 -0.011051858 -0.009529013
-0.008338111 0.009689332 -0.009512126 -0.009724744 0.009130537 0.0093869595 -0.009600311 -0.006548647
0.009718777 -0.0094137555 0.009753487 -0.009375146 -0.009689322 -0.009724731 0.00935449 0.009593835
0.007157355 0.009950083 -0.009008304 -0.0096362475 0.014071274 -0.009234352 0.009647204 0.007720373
0.009748562 0.009683613 -0.009805129 -0.009670569 -0.009716243 -0.009621367 0.009301575 -0.0013219411
0.0094488505 -0.010084305 -0.009579594 0.009673012 0.009806224 -0.009619863 -0.009573309 0.009709882
0.009587413 0.009698025 0.0098731555 -0.009369661 0.008051768 -0.0075144335 0.009803086 0.008386746
0.009648955 0.008919437 -0.009596718 0.009709055 -0.009701457 -0.009588651 -0.009541241 0.0052760094
-0.009503677 0.009627915 -0.0019450993 -0.009483641 0.0095941005 -0.009066984 0.008217443 0.009844033
-0.009063015 0.009760035 -0.009520958 0.009717262 -0.009566387 -0.009589289 0.009731579 -0.009572809
0.009934373 0.009693533 -0.00984929 -0.009486256 0.008455872 0.009409751 -0.0096283965 -0.009553944
-0.00961606 0.009494792 -0.009492889 0.009740013 0.009733204 0.009727368 -0.009439405 -0.009576248
0.009212328 -0.009568243 -0.009542461 0.006290377 -0.0060192468 0.0083834035 -0.009517612 -0.008897114
-0.007573918 -0.009900722 -0.009600826 0.01636678 -0.009634171 0.009418299 0.0053856 -0.009570524
0.009738094 0.007790802 0.009691883 -0.015903749 -0.0087056635 0.00969232 -0.009761466 0.006176886
0.009206053 -0.009585537 0.007063927 0.0066594295 0.011524847 0.01085716 -0.009599161 0.009719059
-0.009759481 -0.004658997 -0.009548097 -0.017491976 0.009851235 0.009546446 0.009451161 -0.009284334
-0.0095875645 -0.009566885 0.009692076 -0.0005833679 0.009699695 0.0058120755 0.009670457 -0.00916122
0.009232666 0.009632645 -0.009786785 0.010159524 -0.009682917 0.002512999 -0.009377121 0.009930315
-0.009488472 0.00029191276 0.009851332 -0.00960725 -0.009614358 0.0088402545 -0.009806194 0.009681435
-0.006738785 -0.00953266 -0.009632344 -0.009298673 -0.009472688 0.009703255 -0.009593109 -0.0052255397
-0.017004574 0.009187949 0.0099411085 -0.009786701 -0.00962142 0.010569128 0.009319619 0.009847547
00000000: 7c37 203c 582c 243c b315 1f3c ed5d 1f3c
00000010: a874 f33b cca4 20bc 1555 1c3c 1e1e 1dbc
00000020: 229c 1c3c 6101 21bc 00e6 1d3c f28f 1cbc
00000030: 7d3e 173c af62 1d3c 01d6 47bc a830 1e3c
00000040: 465b 20bc 6a36 1ebc b936 16bc dca4 1d3c
00000050: 1401 1c3c 1285 83bc bd97 1e3c e076 1cbc
00000060: f47f 1e3c 7ff9 1abc 71e7 283c db7f 19bc
00000070: 9095 173c 4630 1cbc 0cff 1dbc 25a3 1cbc
00000080: 449b 1dbc ba57 1fbc a9f0 7bbc d117 29bc
00000090: 737f 1ebc b197 1cbc 2e1b e93b 5fb1 213c
000000a0: b678 1d3c 3fd0 86bc 9a73 1e3c 55f3 893b
000000b0: d1b4 823b c306 1f3c 9a81 16bc 5a92 1fbc
000000c0: a01b 1ebc 32c4 213c 4c72 79bc ba7a 1f3c
000000d0: 3b38 1a3c 1bb6 333c e9a6 e53b 1ef9 1cbc
000000e0: e1d9 1b3c 3cc4 173c 07cb 1b3c 9105 1e3c
000000f0: 6ea3 153c 90fe c33b a8b4 223c ca41 1ebc
00000100: 914f 15bc c969 083c 48bc 233b 8bbb 1d3c
00000110: 6b08 33bc ecba 013c ba51 1fbc d90a 153c
00000120: bf80 14bc 142c 1bbc a7de 1d3c 2ad9 1cbc
00000130: e258 1b3c b684 1dbc c566 213c ee82 1b3c
00000140: 0832 1bbc 23f0 1dbc 84cf 1ebc 6c79 213c
00000150: 1963 1ebc ac1e 203c da12 35bc 941f 1cbc
00000160: 939c 08bc 01c0 1e3c c0d8 1bbc 8854 1fbc
00000170: 3f98 153c c3cb 193c 9f4a 1dbc 0896 d6bb
00000180: 813b 1f3c 273c 1abc 17cd 1f3c 369a 19bc
00000190: f6bf 1ebc 7a54 1fbc 9343 193c 762f 1d3c
000001a0: 3f88 ea3b ac05 233c 9197 13bc 5ae1 1dbc
000001b0: 338b 663c ae4b 17bc 4e0f 1e3c 2ffb fc3b
000001c0: 6fb8 1f3c 04a8 1e3c b1a5 20bc 4e71 1ebc
000001d0: e030 1fbc f0a2 1dbc a265 183c fc44 adba
000001e0: 5acf 1a3c a438 25bc bbf3 1cbc 8e7b 1e3c
000001f0: 49aa 203c a19c 1dbc 5ed9 1cbc 3216 1f3c
00000200: 8614 1d3c 77e4 1e3c 04c3 213c 3583 19bc
00000210: 90eb 033c a33b f6bb 1f9d 203c 9068 093c
00000220: a716 1e3c d522 123c 8d3b 1dbc ba12 1f3c
00000230: dcf2 1ebc b819 1dbc de52 1cbc 60e2 ac3b
00000240: 4fb5 1bbc 67be 1d3c b4f2 feba 4661 1bbc
00000250: 9330 1d3c b08d 14bc 74a2 063c de48 213c
00000260: 0a7d 14bc 8ee8 1f3c cbfd 1bbc 2735 1f3c
00000270: 56bc 1cbc 651c 1dbc 3371 1f3c 45d7 1cbc
00000280: c8c3 223c a0d1 1e3c eb5e 21bc 3e6c 1bbc
00000290: 7f8a 0a3c 5b2b 1a3c 6cc0 1dbc 2588 1cbc
000002a0: ae8c 1dbc 0b90 1b3c 1088 1bbc 9394 1f3c
000002b0: 0478 1f3c 8a5f 1f3c bca7 1abc b2e5 1cbc
000002c0: 4eef 163c 1fc4 1cbc fb57 1cbc 821f ce3b
000002d0: 1a3d c5bb 8b5a 093c c2ef 1bbc 33c5 11bc
000002e0: a12e f8bb a336 22bc c84c 1dbc a013 863c
000002f0: a4d8 1dbc 364f 1a3c b079 b03b b0cd 1cbc
00000300: 878c 1f3c fc49 ff3b b4ca 1e3c 9448 82bc
00000310: 33a2 0ebc 89cc 1e3c 8eee 1fbc 7a67 ca3b
00000320: fcd4 163c a80c 1dbc 8478 e73b 5837 da3b
00000330: b6d2 3c3c 3be2 313c cd45 1dbc b03c 1f3c
00000340: 3be6 1fbc 80aa 98bb 9f6f 1cbc 554b 8fbc
00000350: 1367 213c b268 1c3c 0bd9 1a3c 521d 18bc
00000360: 2915 1dbc 6dbe 1cbc 83cb 1e3c 28ed 18ba
00000370: 78eb 1e3c 3973 be3b d670 1e3c f118 16bc
00000380: 9c44 173c 3ed2 1d3c c058 20bc 2274 263c
00000390: 19a5 1ebc 21b1 243b 7fa2 19bc c3b2 223c
000003a0: 8975 1bbc de0b 9939 7b67 213c ba67 1dbc
000003b0: 8a85 1dbc b7d6 103c 29aa 20bc e29e 1e3c
000003c0: 07d1 dcbb e02e 1cbc fbd0 1dbc 7659 18bc
000003d0: 5533 1bbc 67fa 1e3c 6a2c 1dbc 013b abbb
000003e0: 2d4d 8bbc 0d89 163c 08e0 223c 6658 20bc
000003f0: 29a3 1dbc 232a 2d3c 51b1 183c 9b57 213c

action_model._continuous_distribution.mu.weight f4 [1, 256]
0.02217062 0.015740579 0.013922045 0.024100306 0.0039228615 -0.017878857 0.016610395 -0.036075283
0.018554723 -0.017555192 0.023350138 -0.02153257 0.011562771 0.016460452 -0.008846895 0.015237314
-0.017893849 -0.023259837 -0.011082155 0.02057593 0.015121823 -0.017174179 0.038058117 -0.013864907
0.021020187 -0.025533304 0.014791175 -0.013035314 0.011247444 -0.013300606 -0.0149747245 -0.024213944
-0.017129501 -0.01869227 -0.017137207 -0.012718371 -0.027476614 -0.018525232 0.008003228 0.015145992
0.009385589 -0.018076433 0.026088482 0.006980306 0.011840395 0.022059046 -0.013615525 -0.016610999
-0.030209737 0.011849274 -0.015149244 0.012025306 0.012201369 0.015590746 0.0070315106 -0.030820224
0.015243357 0.0143181635 0.016378775 0.017619008 0.011536293 0.0015216786 0.017674726 -0.023266928
-0.013741346 0.007478635 0.00087639946 0.016768388 -0.009199905 0.010205048 -0.014815615 0.010287162
-0.011410024 -0.027527055 0.020807186 -0.033316553 0.011435488 -0.0151136685 0.021037603 0.014888624
-0.023195887 -0.031421386 -0.02326913 0.018493855 -0.029652994 0.015393955 -0.017289925 -0.027368767
-0.0071882736 0.018295685 -0.026445365 -0.018450517 0.012015723 0.013124934 -0.019061679 0.00065592944
0.018234935 -0.012676959 0.044035472 -0.0105395755 -0.009535319 -0.03144189 0.019793935 0.01481289
0.00681295 0.02267915 -0.011156981 -0.023270896 0.016934432 -0.008594951 0.023189839 0.0066057956
0.015719227 0.019409977 -0.012807439 -0.02656622 -0.022477215 -0.024234053 0.010715767 -0.003567898
0.0114427125 -0.015328221 -0.014201871 0.033671565 0.015829047 -0.024996785 -0.036186256 0.019880276
0.015601138 0.019112188 0.013302628 -0.01652929 0.011750148 -0.0070792413 0.016626878 0.008773994
0.030791221 0.010687662 -0.018962912 0.01781156 -0.015112841 -0.011683513 -0.018589856 0.0010810198
-0.016197445 0.018202215 0.0079374695 -0.017786589 0.015608321 -0.011168691 0.0076049017 0.02076637
-0.010949754 0.026619527 -0.02586264 0.014399351 -0.016943121 -0.016592877 0.028365301 -0.02049975
0.0155534735 0.03008091 -0.020590777 -0.013120804 0.010498763 0.010308221 -0.020287676 -0.034304965
-0.021438796 0.012426611 -0.013426991 0.047041167 0.026352823 0.039249264 -0.013194215 -0.016123245
0.013660303 -0.020981498 -0.011819999 0.0055478853 -0.01330593 0.008896908 -0.021871062 -0.01715425
-0.0070504528 -0.017652005 -0.017871846 0.016243711 -0.015423926 0.009456974 -0.003481017 -0.018515449
0.021754872 0.008259085 0.022378955 -0.016905716 -0.009456493 0.040520024 -0.012695824 -0.0013168028
0.012029233 -0.014992046 0.01343119 0.009562123 0.010599117 0.014714029 -0.039225034 0.030070726
-0.016124148 0.002746664 -0.013217425 -0.017775182 0.024218092 0.013725699 0.01673997 -0.017589165
-0.023335548 -0.022574862 0.021597931 -0.001246011 0.00975771 0.006101798 0.029245816 -0.014535132
0.011574033 0.025111834 -0.01800907 0.011437563 -0.015440044 -0.003275258 -0.012924925 0.021764383
-0.026921652 0.009456787 0.019387675 -0.021851143 -0.015021842 0.008455428 -0.017168926 0.01946428
-0.0048984024 -0.014348335 -0.016798537 -0.010489414 -0.017852904 0.024556687 -0.027083801 -0.0036502872
-0.017134743 0.015482125 0.01583504 -0.014794151 -0.012600466 0.013719127 0.017872784 0.018762233
00000000: 299f b53c 63f2 803c 4a19 643c 016e c53c
00000010: 598b 803b ae76 92bc 8612 883c adc3 13bd
00000020: 1300 983c e8cf 8fbc ca48 bf3c 1265 b0bc
00000030: c771 3d3c 12d8 863c 91f2 10bc eda5 793c
00000040: 1f96 92bc 6a8b bebc ed91 35bc da8e a83c
00000050: 86c1 773c ddb0 8cbc d4e2 1b3d a329 63bc
00000060: 8732 ac3c 382b d1bc af56 723c 1292 55bc
00000070: 3347 383c c9ea 59bc 8c58 75bc 525c c6bc
00000080: 2b53 8cbc 8820 99bc 5463 8cbc b760 50bc
00000090: a316 e1bc 3ac2 97bc f91f 033c e526 783c
000000a0: 03c6 193c 0715 94bc 83b7 d53c 0dbb e43b
000000b0: 37fe 413c 2cb5 b43c a713 5fbc ca13 88bc
000000c0: 697a f7bc 7523 423c 8934 78bc ca05 453c
000000d0: 40e8 473c 5470 7f3c 9668 e63b b27a fcbc
000000e0: 46bf 793c bb96 6a3c c82c 863c bd55 903c
000000f0: b802 3d3c 1073 c73a 96ca 903c 499a bebc
00000100: 6223 61bc 560f f53b 2cbe 653a dc5d 893c
00000110: 33bb 16bc 1333 273c 31bd 72bc 7c8b 283c
00000120: 1cf1 3abc 6b80 e1bc d573 aa3c f076 08bd
00000130: ea5b 3b3c 529f 77bc 0d57 ac3c 6aef 733c
00000140: 4d05 bebc b6b3 00bd e79e bebc 6d80 973c
00000150: d6ea f2bc ed36 7c3c 9aa3 8dbc 7734 e0bc
00000160: 9c8b ebbb d5e0 953c f3a3 d8bc 8a25 97bc
00000170: 98dd 443c f709 573c 3d27 9cbc aef2 2b3a
00000180: 6e61 953c 05b3 4fbc 8a5e 343d 2fae 2cbc
00000190: 073a 1cbc 36c9 00bd e426 a23c c4b1 723c
000001a0: 2b3f df3b a0c9 b93c c5cb 36bc 9ba2 bebc
000001b0: 14ba 8a3c d6d1 0cbc 9ef8 bd3c 6e75 d83b
000001c0: 9cc5 803c ac01 9f3c 4bd6 51bc 67a1 d9bc
000001d0: 2322 b8bc 7e86 c6bc 2f91 2f3c 65d3 69bb
000001e0: 377a 3b3c 3823 7bbc f7ae 68bc 32eb 093d
000001f0: ebab 813c 0fc6 ccbc 0a38 14bd f6db a23c
00000200: ea9b 7f3c 2a91 9c3c 44f3 593c 6f68 87bc
00000210: b183 403c fbf8 e7bb 1735 883c ccc0 0f3c
00000220: df3d fc3c 4e1b 2f3c 1c58 9bbc 8ce9 913c
00000230: d99b 77bc 356c 3fbc c149 98bc 01b1 8d3a
00000240: 81b0 84bc d01c 953c 290c 023c 2eb5 91bc
00000250: 0bba 7f3c e3fc 36bc 8a32 f93b 3c1e aa3c
00000260: 9966 33bc 3211 da3c e3dd d3bc 41eb 6b3c
00000270: 4dcc 8abc c9ed 87bc 595e e83c 17ef a7bc
00000280: ffd3 7e3c 3e6c f63c fdad a8bc a4f8 56bc
00000290: 0103 2c3c d0e3 283c 5732 a6bc 5d83 0cbd
000002a0: 6aa0 afbc fc98 4b3c e2fc 5bbc 3dae 403d
000002b0: e0e1 d73c d6c3 203d 8c2c 58bc e514 84bc
000002c0: 77cf 5f3c 64e1 abbc aba8 41bc 09cb b53b
000002d0: 1e01 5abc 56c4 113c f12a b3bc 1287 8cbc
000002e0: 7c07 e7bb f09a 90bc fa67 92bc 8811 853c
000002f0: a2b4 7cbc 6df1 1a3c c621 64bb b6ad 97bc
00000300: 4637 b23c 1d51 073c 1254 b73c db7d 8abc
00000310: 68ef 1abc 53f8 253d 2502 50bc 9298 acba
00000320: 4316 453c 33a1 75bc 7e0e 5c3c 73aa 1c3c
00000330: eba7 2d3c 1c13 713c 6eaa 20bd e256 f63c
00000340: ca16 84bc 6001 343b e68d 58bc 429d 91bc
00000350: 0565 c63c c1e1 603c 4322 893c 2717 90bc
00000360: 312a bfbc ebee b8bc 25ee b03c 3151 a3ba
00000370: cdde 1f3c 97f1 c73b ec94 ef3c c324 6ebc
00000380: 03a1 3d3c 55b7 cd3c c287 93bc 9e64 3b3c
00000390: 3df8 7cbc b6a5 56bb 11c3 53bc 384b b23c
000003a0: cc8a dcbc a4f0 1a3c e7d2 9e3c 2b01 b3bc
000003b0: 2c1e 76bc a388 0a3c d9a5 8cbc 8e73 9f3c
000003c0: c782 a0bb 4715 6bbc 169d 89bc cbdb 2bbc
000003d0: 4140 92bc 1b2b c93c d9de ddbc a839 6fbb
000003e0: 295e 8cbc bda8 7d3c 7cb8 813c 2b63 72bc
000003f0: 2f72 4ebc 30c6 603c f269 923c 41b3 993c
