results/training1/BoundarySequence/BoundarySequence-658231.onnx (onnx, 552778 bytes, 10 tensors)

network_body.observation_encoder.processors.0.normalizer.running_mean f4 [14]
00000000: 5038 8f42 2e4a 3ec3 38cb 60c2 ddc4 b4bc
00000010: b6a6 1042 c0db 3e3f 9d73 9c45 3b6c 0544
00000020: 2b42 6bbc a5a5 d243 2b42 6b3c 9446 0944
00000030: 9710 c0bb f9f0 ca43
71.609985 -190.28976 -56.198456 -0.022066528 36.162804 0.7455406 5006.4517 533.6911
-0.014359037 421.2941 0.014359037 549.1028 -0.0058613527 405.8826

network_body._body_endoder.seq_layers.0.weight f4 [256, 14]
00000000: 0017 cd3d 3645 873e 2735 56bc 6346 93be
00000010: 82cb a33d 3a6f 18be 46aa 8dbe 01c0 b63d
00000020: da45 d6bd e660 e5be a8b7 cf3d bf1f 9fbd
00000030: 8946 673d d06a 773e a8ff f2b9 85a5 18be
00000040: f985 a6b9 06ca ab3e d6cd 943e d573 55bd
00000050: edf0 af3d 4821 b3bd c088 81be 3c1d fabd
00000060: 9e1f a6be ca49 b3be 3277 2d3d 2df0 3a3d
00000070: b64a 37bb e209 24bd e34e 063f 6946 a2bd
00000080: 91d2 36be bae7 433e ecd5 e0bd e442 c33d
00000090: 300b 043e a0ce 023e 5d08 a2bd 68bd 0dbe
000000a0: 0aa2 a7be 4e6f 5a3a 6ef3 ad3e f444 a63d
000000b0: 2f17 073e 4d87 8d3d 9469 8e3e 4925 513d
000000c0: b81c fcbd 9c78 273e e6c2 8e3d 1909 bd3d
000000d0: 0f3e 72bd a8c8 f8be 7146 683e 2b46 0fbd
000000e0: 4932 d23c 7d6e f5bd 892a 3b3e a8fc 2f3d
000000f0: 754f 06bd 4724 263e a07c a13e 6620 89be
00000100: 1628 533e 72be 5abd f3ae e33e 3ba7 e8bc
00000110: b173 54bd 68ef 8f3e 1daa 30be 35bf 4c3d
00000120: a160 39bd e97d ec3e aaef 223e ffe2 79be
00000130: f15a 073f 3052 2abf b6ae b83e ebc4 333e
00000140: 69fd 7abe d1db e8bc 23df 4bbe bdff 06bf
00000150: 24c8 81bb 4b29 05bd e3e0 f8be f92d f4bd
00000160: e95c c73d 8dca 26bd 616f ea3e d224 c83d
00000170: 7c6c d0bd 1dfc 953e 6f89 273e da29 f03e
00000180: 9bad 093e 7059 97be 5a32 c93e 4f1c b73d
00000190: 3414 f13d 507f ac3e b13e a0bd a324 cebe
000001a0: 622b bc3d 4497 b1be b571 b0be ec13 16be
000001b0: 605c 1fbd e337 94bd 74e1 b9bd 9347 ecbd
000001c0: 7bbc 3fbe 6ddd e2be 1b7e ac3e 37b2 b9be
000001d0: 7311 0fbf 8bc3 5cbd 3662 303e 2400 d03c
000001e0: 0575 bd3d 3ec3 8f3d 68a9 5cbe 1643 b63c
000001f0: b97b 543e d3bc 8fbe dbf3 963e 21aa 1abe
00000200: 4d6c c33e 1f9d 9abe 1a54 25be 8ec1 c23e
00000210: 9343 ccbe 4a57 10bd 47aa 0fbe e750 ddbe
00000220: 58ff debe 8305 3d3e 9cd4 4bbe 6ccf 2abd
00000230: be2e a53e bb16 23be e615 f53d 7dd4 49be
00000240: ea51 e4bd f678 5b3e 1a84 9a3c 3fd1 2ebe
00000250: 681d 1ebd 368e e63e 06bb 74bc 600b f4bd
00000260: c400 53bd 2c53 abbe 4520 0a3f 1764 d53e
00000270: 9b2d babd 32aa 433f 3ef5 d4be 284b 8cbe
00000280: 8b6f b0bd 2c3c 723d 84de c5bd 1f51 c83e
00000290: 266c 6f3d a927 9cbc 1496 a33d f29b 373e
000002a0: 4bd6 a63e 4b06 3e3e dae9 a7be d1ef 61bf
000002b0: d33f 94be 04c6 903e f86d 803e 5784 05be
000002c0: 0393 0cbf cf11 d4be e3e8 5d3e 42fd c8bd
000002d0: 263a b0be a488 833e d669 d7be 7ed3 4abe
000002e0: e32b 80bc 94b3 a5bd 0306 0dbe 1d7f 9abd
000002f0: bad4 a93d 7491 05be d86a dc3d 871a 2abe
00000300: 0224 c0bd ed24 0e3e 3157 40be 1426 54be
00000310: 322f 04bf cc60 e33e 68de 93be 0848 8a3e
00000320: 3b8f 17be 7c6a 973e 5889 c63d fb1d ba3d
00000330: e3fa 5ebe 0101 7e3e 8b58 813e 6e1b b7be
00000340: 007d 973e 5f14 69be 83f5 0abf cbc8 12be
00000350: bf53 6cbd f45e dc3d 09b8 40be 37c4 d43d
00000360: a4d2 2abe 5c20 853e 2dcc b63e 4cb3 283e
00000370: f621 bdbd edeb 84bd b2e5 2cbe e378 84be
00000380: 641b 80be 140f 50be f94a 91bd dc63 06be
00000390: 6d65 213e fc86 813e 2095 5dbe 4c47 5b3d
000003a0: 0a63 0fbd 0af5 d83d a958 02bc 9d7b 6c3e
000003b0: 844c 353d cc89 00bd 658c 7fbe db51 d2bd
000003c0: 87cb 5ebd bcdc 083f fe7f b2be 9442 d93e
000003d0: 852b f93d f331 ab3d a5d5 523c 8452 433e
000003e0: ae33 83be 853e d0bc 88f3 79bd 1999 c03d
000003f0: f56d a03d 8138 c0be 43ef 26be f2df 8bbe
0.100141525 0.2641999 -0.013074196 -0.28764638 0.079978004 -0.1488618 -0.2766897 0.089233406
-0.10462542 -0.4480049 0.101424515 -0.07769727 0.056463752 0.2416184 -0.00046348316 -0.1490689
-0.00031761805 0.3355257 0.2906329 -0.05211242 0.08590875 -0.08746582 -0.25299644 -0.12212607
-0.32445997 -0.35017234 0.04235 0.045639206 -0.0027968115 -0.040048487 0.5246412 -0.07923586
-0.17853762 0.19131365 -0.10978302 0.09534243 0.12894893 0.12774134 -0.079117514 -0.13841784
-0.32740813 0.0008332626 0.33974785 0.081186205 0.13192438 0.06910572 0.27814925 0.05106095
-0.12310165 0.16354603 0.06970768 0.09230251 -0.059141215 -0.4859059 0.22683121 -0.034979027
0.025658743 -0.119839646 0.18277945 0.04296556 -0.03279062 0.16224776 0.31540394 -0.2678253
0.2062076 -0.05340428 0.44469413 -0.028400054 -0.051868144 0.2811234 -0.17252393 0.049987037
-0.045258168 0.46189812 0.15911737 -0.24402998 0.5287314 -0.6653166 0.36070794 0.17555587
-0.24510731 -0.02842513 -0.19909339 -0.52733976 -0.003960626 -0.032510083 -0.48609075 -0.11922831
0.09734518 -0.04072051 0.457881 0.09772648 -0.10176942 0.2929391 0.1636102 0.4690693
0.13445131 -0.29560423 0.39296228 0.08940946 0.117714316 0.33690882 -0.078244574 -0.40262327
0.09187962 -0.3468572 -0.34461752 -0.14656037 -0.038906455 -0.07237222 -0.09076205 -0.11537089
-0.18724243 -0.4430956 0.3368996 -0.3626878 -0.55886 -0.05389742 0.17224964 0.025390692
0.09250835 0.07019661 -0.21548998 0.022248786 0.20750321 -0.2807375 0.29482922 -0.15103962
0.38168564 -0.30198 -0.16145363 0.38038296 -0.39895305 -0.035239495 -0.140298 -0.43225786
-0.43554187 0.18459134 -0.19905323 -0.04170172 0.32262224 -0.1592664 0.119670674 -0.19709964
-0.11148436 0.21432862 0.018861819 -0.17072009 -0.038602263 0.45030373 -0.014937168 -0.11916232
-0.051514402 -0.33461893 0.5395549 0.41677925 -0.0909073 0.7643157 -0.41593355 -0.2740109
-0.08615025 0.059139416 -0.09661582 0.3912439 0.058452748 -0.01906188 0.079876095 0.17930582
0.32585368 0.18557088 -0.32795602 -0.88256556 -0.28954944 0.28276074 0.250839 -0.13038765
-0.5491182 -0.41419837 0.2167087 -0.0981393 -0.34419364 0.25690186 -0.42072934 -0.1980724
-0.015645927 -0.080908924 -0.13771825 -0.07543776 0.082925275 -0.13043767 0.10762566 -0.16611682
-0.09381868 0.13881274 -0.18783261 -0.2071765 -0.51634514 0.44409788 -0.2888062 0.2700808
-0.14800732 0.2957343 0.09694165 0.090877496 -0.21775393 0.2480507 0.25262865 -0.35763115
0.29587555 -0.22761677 -0.5428087 -0.14334409 -0.057697054 0.10760298 -0.18820204 0.103889875
-0.16681916 0.2600125 0.3570265 0.16474646 -0.09234993 -0.06490312 -0.16884497 -0.2587348
-0.25020897 -0.20318252 -0.07094378 -0.13124031 0.15761347 0.25298297 -0.21638918 0.05353479
-0.03500656 0.105936125 -0.007955709 0.2309403 0.044262424 -0.031381413 -0.249559 -0.10269519
-0.054393318 0.53461814 -0.34863275 0.42433608 0.12166504 0.083591364 0.01286832 0.19074446
-0.25625366 -0.025420437 -0.061023265 0.09404201 0.07833473 -0.3754311 -0.16302209 -0.27319294

network_body._body_endoder.seq_layers.0.bias f4 [256]
00000000: bd7c f0bb 4eb2 94bc 433c 233c e0c7 d73b
00000010: 6b8c 543b a8f0 8f3a 3372 a83b a33d 943b
00000020: 45cc 8a3b 7fcc eaba ab5d 1d39 3468 baba
00000030: 462e 793c 6d92 8e3b 086c cb3b a0ff deba
00000040: d866 2bba 7792 273c 4f3f 323a 2600 9d3c
00000050: 681a 9e3b 3c3d 27bb 58dd 1cbc 213b 8d3b
00000060: 101a 523b 0b17 5aba dbeb 01bc 954e 3cba
00000070: 8cfc 45bc 565c 7ebc 8e0f 69bc a792 833b
00000080: a543 0d3c 287f 303b 286b d6bb 7b8f 97ba
00000090: 36b5 6dbc 4f12 32ba 2c3a 6abb 1837 eabb
000000a0: 716e 1fbb 7282 12bc 6f48 a43b 4067 3bbc
000000b0: 0773 2fbb 6aa2 b83b 36f3 c5ba 0d61 c3bb
000000c0: defa 21b9 8f8d a8bb 009b 7ebc 7b8f 693a
000000d0: 31e2 1e3c 131b 7d3b 5797 353a 01d1 1f3b
000000e0: 348b 183c 9688 a93b 3fea 4cbb d08f ae3a
000000f0: 0cc9 10bc ff29 563c 0daa 92bb d0da 39bc
00000100: 806b b2bc 2000 f4bc 7357 da3b 884e 62bb
00000110: 1d32 703a d7c2 543c 7e49 003c d5e7 ed3a
00000120: 0a65 26bc 2ba8 303c a9f3 8b3b 84e5 933b
00000130: a88a 1bbc e067 1c3a 14c8 253c 5d73 60bc
00000140: d94c fd3a a1e5 163b c1c4 103c a5d4 ab3a
00000150: 3a33 aa3a 6882 0b3b b08c 91bb a7b9 86bb
00000160: fe53 8b3b 1d06 4f3c 5efe 9c3b 7e9b 83bb
00000170: 2aa8 0e3c e0d7 2d3b 861d 8b3b 20b6 17b5
00000180: e668 3dba 368a 1bbc 8637 2d3c eb8b b9bc
00000190: e24f 4c3c 73be d13b b756 12bc 760b 46bc
000001a0: 8d52 fb3a 718f 3b3c 5830 c338 82d0 053c
000001b0: a3fa 143c e3a4 71bb 80f3 30bb 0a4e 213c
000001c0: 8f26 b63b eb3f 003b 6227 963a d0b4 09bc
000001d0: 8bc8 3f3c ac7b 053c ad64 813a 5666 4bbc
000001e0: 4a85 0dbc 0a16 d1bc 9176 503b 5df8 91bc
000001f0: 4a23 3e3b cbad fc3b 909a 553c b592 40bc
00000200: 76c8 34bb a825 a23b 549f 9c3a 9a4b 3fbc
00000210: 1ff6 a5bb 2e60 0d3c 386d 093c ef22 533c
00000220: bb5a 1fba d9d7 643b a839 cd39 3438 50bb
00000230: 4896 af39 e4e6 de3b 5c35 85bb b0d5 80bb
00000240: 4db7 ac3b 4310 08bb e208 da3b d2a7 ae3a
00000250: 9a66 04bc dc9f 82ba f8e5 46bc 75e5 cd3b
00000260: 86ff 0e3c 1611 5bba 3166 04bb cfe3 263b
00000270: 4def 1d3b 3802 823c c0ac 02bb 1fe2 8fbb
00000280: ca52 173c c4ed a33c d2b3 313b d608 953b
00000290: ba5d 3c3c b385 8bbb 589d 8b3a 5c17 caba
000002a0: 65a7 15bc 8a06 5fbc 1717 6bbb 3b5e 023c
000002b0: f269 b63b 508f b7bb 23ea 203b 2713 d63b
000002c0: 56da 403c 92fc 723b 6fb3 d73a 3b2f f1b8
000002d0: 4395 64bb 5b2a 18ba 0fc7 523b 32bb ecbb
000002e0: 2c16 503b 3fce 043b 531d 14bc 9ac8 5f3c
000002f0: fc5d 8f3a 677f 9abc 7581 42bc 211b cf3b
00000300: 071b f63b 73c9 ad3b 8db4 be3a 7fca 8b39
00000310: 5393 71bb 49c6 913b 38e0 c63a 395a 01bc
00000320: 26e7 c83b 7766 00bb 85d4 f03b d72d 9abb
00000330: 63ee 163c dd6a f23b 9572 a2bb e8b5 38bc
00000340: 605b efbb 9db1 ddba c252 06bb 5a39 58bc
00000350: 69b6 8f3b 9104 2d3c 45ad 83bb c1cf ceba
00000360: da5b 953b 4c69 d9bc 5f00 0abc 0ce2 71bb
00000370: 7fd3 96bb 8097 833c f33e 9a3b ac2f 9dbb
00000380: 3f5c ddbb 9696 523b a1d3 7dbb 87c0 013c
00000390: 7960 12bc bbe2 bc3b eeb1 8cba e81a 2b3c
000003a0: 3ea1 a53b 2c9f 96bb 0874 2b3c 284c 74bc
000003b0: 8e5f 4dbb 4551 4dbb 52d6 eeba 532c a93b
000003c0: c421 32bc 68ba 063b 39a3 4cba e3e5 023c
000003d0: e9f7 9fbc c98b 8e3b 4a04 e639 6598 923b
000003e0: 4d05 7a3c 4a89 ac3b db48 073a adee 8bbc
000003f0: d072 e5ba df24 47bb d684 da3a c84b 8abb
-0.0073390887 -0.018151429 0.009963098 0.0065851063 0.0032432328 0.0010981755 0.0051405667 0.004523949
0.0042357766 -0.0017913728 0.00015007581 -0.0014221729 0.015208786 0.0043509514 0.0062079467 -0.0017013438
-0.0006538457 0.010227791 0.0006799595 0.01916511 0.004824925 -0.0025518676 -0.009574257 0.004310027
0.0032058991 -0.0008319474 -0.0079297675 -0.00071833405 -0.012084138 -0.015524944 -0.0142249 0.004015285
0.008622085 0.002693126 -0.0065435357 -0.0011563146 -0.014508536 -0.00067928893 -0.003574024 -0.007147681
-0.0024327303 -0.008942233 0.0050135176 -0.011438191 -0.0026771442 0.0056345956 -0.001510239 -0.005962497
-0.00015447612 -0.005143828 -0.015539885 0.0008909625 0.009697483 0.0038620874 0.00069271534 0.002438605
0.009310532 0.005173753 -0.0031267551 0.0013318006 -0.008836996 0.013071536 -0.004475838 -0.011343673
-0.021779776 -0.029785216 0.006663257 -0.0034531672 0.0009162741 0.012985907 0.007830022 0.0018150756
-0.0101559255 0.010782282 0.00427099 0.0045134444 -0.009493507 0.00059664063 0.010118503 -0.01369938
0.001932527 0.0023025053 0.008835972 0.0013109638 0.0012985237 0.0021287445 -0.00444182 -0.004111487
0.004251956 0.012635735 0.004791065 -0.004016339 0.008707086 0.0026526377 0.004245463 -5.651691e-07
-0.0007225409 -0.009493401 0.01057232 -0.022649726 0.012470217 0.006400877 -0.008931807 -0.012087693
0.0019174382 0.011447773 9.307329e-05 0.008167388 0.00909296 -0.0036871962 -0.0027000606 0.009845266
0.0055587958 0.0019569348 0.0011455829 -0.008404925 0.011705528 0.008147161 0.0009871923 -0.0124145355
-0.008637736 -0.025523204 0.0031808952 -0.017818624 0.0029012733 0.0077111474 0.013037339 -0.011753728
-0.0027585304 0.0049483366 0.0011949339 -0.01167574 -0.0050647403 0.008628888 0.008387856 0.012886747
-0.00060788885 0.0034918694 0.00039143604 -0.003177178 0.0003349057 0.0068024267 -0.004065199 -0.0039317235
0.0052708746 -0.0020761646 0.006653891 0.0013325161 -0.008081103 -0.0009965855 -0.01213979 0.006283457
0.008727914 -0.0008356733 -0.0020202512 0.0025465374 0.0024098933 0.015870199 -0.0019939393 -0.0043909694
0.009236047 0.020010836 0.0027115238 0.0045481725 0.0114969555 -0.0042578815 0.001065175 -0.0015418339
-0.009134148 -0.013612399 -0.0035871917 0.007957037 0.005566829 -0.005601801 0.002455362 0.006533045
0.011770805 0.0037076813 0.0016456674 -0.00011500573 -0.0034879006 -0.00058046513 0.0032162105 -0.007224464
0.0031751497 0.0020264534 -0.009040195 0.013658667 0.0010938044 -0.018859578 -0.011871685 0.0063203727
0.007510546 0.0053035556 0.0014549658 0.00026663017 -0.0036861494 0.0044486863 0.0015173024 -0.007895046
0.0061310707 -0.0019592324 0.007349553 -0.0047051716 0.009212109 0.007397993 -0.004957507 -0.011273839
-0.007304594 -0.0016913895 -0.0020496105 -0.013197267 0.0043857587 0.010560171 -0.004018458 -0.0015778468
0.0045580687 -0.026539467 -0.00842294 -0.0036908416 -0.004602849 0.016063452 0.004707211 -0.0047969427
-0.0067553814 0.0032133213 -0.0038730877 0.007919437 -0.008934134 0.005764333 -0.001073418 0.010443427
0.005054622 -0.0045966115 0.010464676 -0.014910735 -0.0031337473 -0.0031328958 -0.0018221831 0.0051627546
-0.010872308 0.0020557884 -0.00078063045 0.00798938 -0.019527392 0.00435016 0.00043872214 0.0044737333
0.015260053 0.0052653896 0.00051606976 -0.017081583 -0.001750553 -0.0030386967 0.0016671668 -0.0042204596

network_body._body_endoder.seq_layers.2.weight f4 [256, 256]
00000000: 3524 193c f50d a23d e639 773d 9726 b0bd
00000010: 00b2 3b3a cfc1 233b d437 693c e822 65bd
00000020: d33d 003e 580a f83c df89 db3a 4898 e03d
00000030: e00d 76bd 22c1 893c 5cd4 cabd 9df6 0fbc
00000040: 717d 8ebd 717b 193d 2012 dbbc 4167 8d3c
00000050: f493 8e3c b71b e03a edef e13d 816e 40bd
00000060: 21f8 b2bd 98f4 143d a595 b8bd d8bc 80bd
00000070: 3486 aebd c2b2 f4bb 8010 a8bd e689 fdbc
00000080: ea10 cbbb 0d6a f03c 99b7 78bd d9ab 0ebd
00000090: c45c e6bd fcce 0f3b ecbf 353d 1e00 283d
000000a0: 719d 86bc 60ce 933c c4db f6bd 8259 87bb
000000b0: db70 7b3d e437 41bd 771c ed3d 8027 21bd
000000c0: c10e 823d 1fd3 3e3c e1f6 f4bd e8bb 9abd
000000d0: 1c0b 0b3e b1b7 583d c1fe 5bbc 50d5 a5bd
000000e0: 3834 a33c 403c 143d 50f8 8fbc 5e7e e33d
000000f0: dc20 d13d a028 6c3c 159e 01bd a417 9c3d
00000100: db84 a9bd d0bc 783d 5bbe 71bd ef4f 5d3d
00000110: 1c47 3ebd 364d 42bd f6c6 a6bd 0f92 773d
00000120: ae8e 633d 4799 7fbd 074f cebb 347f 0c3d
00000130: 26ae 25bc 3fbd 143e bd01 b73d 8274 9e3d
00000140: b990 79bd 42bc 813d 20c7 a2bc 3cf6 113d
00000150: 98a9 4fbb c2c3 2fbd a6cb 353c 2ba9 c1bd
00000160: 5036 f9ba 15b3 cf3d f231 7bbd 8cca 893c
00000170: eb3c a0bd 622d 023d d6fb 15bd c21e 7a3d
00000180: 3d79 263e 0c9e f23c d6bb ab3d d06f d3bb
00000190: 8497 fb3c 7d4d cbbd 93e8 69bd d257 c6bd
000001a0: 4ea9 9dbb f2ac 3abd 9d4a b83c 6cf2 563d
000001b0: 1f01 9dbc e28b 37bd a4de 763d b60d d33b
000001c0: bcf3 3d3d 7fdd d93d ec45 ee3d eb9f 0c3e
000001d0: 6eca c33c ec38 503d 77bb 663d ca72 e9bd
000001e0: 41c7 a2bb 25d5 09bd a550 f0bd 5014 15bd
000001f0: 6008 9d3b f9b0 92bd 04f5 2cbb 413d 883c
00000200: 6a92 9e3c 45d1 bfbd e8f7 fd3d 43ac 873a
00000210: 60f5 443d 6293 bcbd c5ec 953c d590 69bd
00000220: f54b b63d 17c0 41bd 3cbd b93d 7170 553d
00000230: 576a 1f3d 2642 c6bd df53 8ebd 7cd0 b93b
00000240: 09af 20bb 6d27 6b3c 79a0 a3bd 0986 5e3c
00000250: dc18 6c3d 943b 4e3b ffd8 703d 44ff 3b3d
00000260: bf69 21bd 1f40 7b3c 9c53 8a3d 36f7 323d
00000270: f7c7 3a3d a65f b63d 7201 c53d e4bd 45bd
00000280: 8b89 103d 9d2f fdbc e4a4 7a3d 708d 643d
00000290: d108 51bd f8a6 023c 673d 773d 71f2 bcba
000002a0: ce20 61bd a0eb 803c cdff b7bd 177f 733b
000002b0: 5ad2 b7bb d602 14bc 0ddb 11be 50db b8bc
000002c0: 45ca 66bd ca63 5d3b 853a a53d 3d35 463d
000002d0: f9ff 933d 4f91 1f3c 4160 393c f674 863c
000002e0: 6a24 5ebd eb75 d73a 66a9 fabc ce86 a7bd
000002f0: d8aa a0bd 32ec bcbc e993 013d 34f1 e5bc
00000300: ec07 9dbd 1ccf 193e d3dc 94bd 6cb5 4cbd
00000310: 5663 043d 8fb1 9e3b 46c9 9b3c a502 5c3c
00000320: 9405 ecbc b565 89bd 1ec3 8cbd 8ff7 88bc
00000330: 22f7 0e3d 4503 e13d 0439 dbbd 4851 e6bd
00000340: ec29 923d 90ec cbbc 136a 9e3b b396 56bd
00000350: 9a76 9c3d e6ea 2f3d ea8b afbc 1a0e d43d
00000360: 223e f13d 0211 c3bc 971d a73c 4ab8 b63d
00000370: d379 b73d fc20 40bd 193a f5bd 849d 39bd
00000380: a3b3 a13d 4ef7 9bbd 706c 553d c969 4a3c
00000390: 463f cc3b 8b00 37bd daa0 f83b c875 fabc
000003a0: 6e52 74bc 597e 503d cad0 00be 5aaa a8bd
000003b0: 827c b0bc 2b35 cb3c e387 7a3d 5d62 a9bc
000003c0: 6151 20be 63d8 973d d937 723d 35ac 393d
000003d0: 3a47 a13c e31e e43d afd4 b43d 2815 293c
000003e0: 3467 bc3d 6006 5bbd 7e61 083d 049f 593d
000003f0: 780b f0bd 2474 54bc 3273 193d dfe6 cb3d
0.009347011 0.07912818 0.06035795 -0.086011104 0.0007160008 0.0024987345 0.014234502 -0.055941492
0.12523584 0.03027837 0.0016749463 0.10966545 -0.060071826 0.016815726 -0.099037856 -0.0087868245
-0.0695752 0.03747124 -0.026742041 0.01726115 0.017404534 0.0017098103 0.1103209 -0.046980385
-0.08738733 0.036366075 -0.090129174 -0.06286019 -0.08521691 -0.0074675987 -0.08206272 -0.030949544
-0.0061970847 0.029347444 -0.060721967 -0.034831855 -0.112481624 0.002194344 0.044372484 0.041015737
-0.016432496 0.018042743 -0.12053636 -0.004130543 0.061386924 -0.047172442 0.11577695 -0.03934431
0.0635047 0.011647015 -0.11961151 -0.075553715 0.13578457 0.052909557 -0.013427437 -0.08097327
0.01992236 0.03619027 -0.01757446 0.11108087 0.102113456 0.014413983 -0.0316449 0.076216966
-0.08277293 0.06072694 -0.059019428 0.05403131 -0.046454534 -0.047436915 -0.081434175 0.060442027
0.05555599 -0.062402036 -0.006296042 0.034300998 -0.010112321 0.14525317 0.089358784 0.07737066
-0.060929034 0.063347355 -0.01987034 0.035635218 -0.003168678 -0.0429113 0.011095917 -0.09456094
-0.0019013379 0.10141579 -0.06132693 0.016820215 -0.07824119 0.03178156 -0.036617123 0.06106449
0.16257186 0.029616378 0.08385436 -0.006452538 0.030711897 -0.09926889 -0.057106566 -0.09684719
-0.0048114425 -0.04557509 0.022496516 0.052477285 -0.019165574 -0.044811137 0.06027092 0.0064408435
0.04637502 0.1063795 0.1163443 0.13732879 0.023900237 0.050835535 0.056331124 -0.113988474
-0.0049676006 -0.033650536 -0.11734132 -0.036396325 0.004792258 -0.07162661 -0.0026391158 0.01663077
0.019356925 -0.09366087 0.124008 0.0010351021 0.04808557 -0.092077985 0.018301377 -0.05702289
0.089012064 -0.04730233 0.09069297 0.052109186 0.038919773 -0.096805856 -0.06949591 0.005670605
-0.0024518392 0.014352662 -0.07989592 0.013581761 0.057640895 0.0031468617 0.058800694 0.045897737
-0.039407488 0.015335112 0.067542285 0.04369279 0.045600858 0.08904962 0.09619416 -0.048276797
0.03528742 -0.030906493 0.06119241 0.055798948 -0.0510338 0.007974379 0.060361292 -0.0014415515
-0.054962926 0.015737355 -0.08984337 0.003715461 -0.0056097927 -0.009033879 -0.14243717 -0.022565514
-0.056345243 0.0033781403 0.08067802 0.048390616 0.07226557 0.009739234 0.011314453 0.016413193
-0.054233946 0.001643834 -0.030598354 -0.08180009 -0.07845086 -0.023061845 0.0316352 -0.028069116
-0.076675266 0.15020412 -0.072686814 -0.049977705 0.032321297 0.004842944 0.019016873 0.013428365
-0.028811254 -0.06708852 -0.06873153 -0.016719608 0.034903653 0.10986952 -0.10704234 -0.11245972
0.07136902 -0.024893075 0.0048344224 -0.05238981 0.07639809 0.042948626 -0.02142902 0.10354252
0.11779429 -0.02381182 0.020399852 0.08921869 0.08958783 -0.046906456 -0.11973972 -0.045316234
0.07895591 -0.07615529 0.052105367 0.012354323 0.0062331287 -0.044678252 0.0075875344 -0.03057374
-0.014912231 0.050901745 -0.12579647 -0.08235617 -0.021543745 0.024805626 0.061164748 -0.020676786
-0.15656044 0.07414319 0.05913529 0.045330245 0.019687284 0.11138704 0.08829629 0.010319985
0.09199372 -0.053472877 0.0332961 0.053130165 -0.117209375 -0.012967143 0.037463374 0.099561445

network_body._body_endoder.seq_layers.2.bias f4 [256]
00000000: 454a 4c3b 88b1 183c 6112 03bc ba31 d1bb
00000010: 817d 94bb 47a9 803a 0d89 01bb 425b 96ba
00000020: 9efa afba 7604 01bc d007 44bc 82f8 f63b
00000030: f94c 9039 5023 18bb bb91 243c 4867 423b
00000040: cba3 c5ba 3b96 5d3c 0d11 1bbb a674 b9bb
00000050: 07d7 14bb d173 66bb 31e0 cfb8 60f1 b23a
00000060: 9c92 603b cb8c 86bb 2bef 0f3b f32e 083a
00000070: 19aa 893b 9eaf 97b9 a36b 93ba 5b46 8f3b
00000080: 4428 623b 05d0 83ba be28 1bbc 0163 f93a
00000090: 25fc 6c3b 7241 263b 0ae9 073b b313 1f3a
000000a0: c670 453c 2a2d f93b 5438 a23a 6a24 583a
000000b0: 2c83 483b d05c 97bb ccaf 0fbc ad3f 0d3b
000000c0: 4249 bbb9 11bc e4bb 92ec e63b 59d2 5d3b
000000d0: b299 633b 0f19 eb3a 748e 243c d207 97bb
000000e0: 0a84 96bb 662c 82bb 0f81 813c 58e6 333a
000000f0: a23c c83a 3ee9 943b 107c 82ba fc11 983a
00000100: 905d adb8 1192 0d3c a106 133b c65f 36bb
00000110: 56fb 9eba 6707 ecbb dff4 61ba 98d0 bc3b
00000120: 1a46 653c 83d4 263c 2aad adbb 977c 89bb
00000130: ab9d f93a 9faa dbba 3998 323b 97a4 4dba
00000140: 5b2b 0f3c df1c da39 7857 e63b 6166 2a3a
00000150: 5183 413b 2f11 d93a ee1b a13b 356a a139
00000160: 3909 29bc 1761 e93a e863 67bb 2c86 5e3b
00000170: a3c8 df3b 1f96 b3bc 44e1 823c 6c2d 983b
00000180: 3443 cabb d3d5 e53b e021 d7bb f0d4 fe3b
00000190: dbb8 2dbc d570 9cb9 34cd a039 5f60 923b
000001a0: 1469 ffbb f691 7e3b 1baf 74bb 4238 8139
000001b0: e83a 3139 69d8 b83c 3f2f cbbb d943 7d3a
000001c0: f238 573b 2c6e 493a 418a 7b3b c175 86bb
000001d0: 5906 993b 9b7f 003c 396e 403c cc52 3aba
000001e0: e1f9 25bc 3b21 3cbc ec1a 503b 5136 843b
000001f0: a95c 1d3b ae9f 5dbb ebd1 a4ba ee23 8e3b
00000200: 90e9 aa3b 570b d83b 8619 133b e91f 42bc
00000210: 4094 a6bb bfc9 12bc 966d fc3b 76f0 ab3c
00000220: ff74 a0bb 5fa8 e4bb f046 baba 5c34 c93a
00000230: e27d 163b 2fd5 4bbb f4ff 8bbb 9382 8dbb
00000240: fc8f 943a 0e8d f139 b2ac 0c3c ea56 18bc
00000250: 5cff 323b 628b 05ba 3b32 8abb 90f5 543b
00000260: 0266 d03b 48e0 b23b afe2 25bc bbe6 a03a
00000270: 48e3 1cbb b741 f839 771d c7bb 80a2 c5bb
00000280: 25b3 423b c665 7fbb 0075 b3b8 ac10 aabb
00000290: cb6f 143a ad0b d53a 6997 493b 2410 e53b
000002a0: f342 a23b 60d1 a83a c0ce 2cbb e04b 2c3b
000002b0: bd69 f3bb 9ed4 663a 521f 183a df45 0f3c
000002c0: 1090 6139 6b6d 55bb 2ea2 1bbc c667 713b
000002d0: cdb3 94bb c1e2 b939 93b7 e8ba 6a8a 10bc
000002e0: 5454 15bb 898e 453b c1a1 cfba 0843 8f3b
000002f0: 75d8 b6bb f295 333c e715 703b d074 a53b
00000300: d151 b13b b4d5 863a 0cc6 103a 1a2b 423a
00000310: 315f 2fba dc7f fcbb 89f9 bb3b 223d 8bbb
00000320: 448a b8bb e056 c735 abe1 003c fb36 e9bb
00000330: 885b 463a ac90 23bb 6b9c b33a c84e d838
00000340: 51db 9ebb 69c4 873c 5fe3 233b 0a26 f7bb
00000350: 2392 6b3b d3fa cf3a bf3e 613b cd8e 7fbc
00000360: 068c f7bb 31c6 c03a 02d1 a23b c449 4fba
00000370: a419 213b 5d10 263b 2cb2 dd3b e126 6f3b
00000380: 4aef 2f3b 0f91 e5bb f99f 13bc 9185 37bb
00000390: 276b eb3a 3f34 2f3b bb7b 7fbc 8271 e0bb
000003a0: 75a4 43ba 37c0 4fba 77a2 593c 7777 f93a
000003b0: 4254 9cbb 8dee 9c3b fff0 c33b cf30 48bc
000003c0: c940 56bb f389 783b 2f51 bebb a755 c3ba
000003d0: e06b 09bc c707 303b 8f11 72bb 0fb1 223b
000003e0: 9576 c73b ab4e 153c 1462 c4b9 b6c1 213b
000003f0: d102 f23a 6f9f b6bb 1821 3fb9 dd6d e0bb
0.0031172198 0.0093196705 -0.007999987 -0.0063841017 -0.004531563 0.0009816074 -0.0019765527 -0.0011471289
-0.001342613 -0.007874599 -0.011964753 0.0075369487 0.0002752317 -0.0023214407 0.0100445105 0.0029663611
-0.0015078721 0.013524587 -0.0023661286 -0.0056596575 -0.0022711174 -0.0035164247 -9.912288e-05 0.0013652258
0.0034267073 -0.0041061393 0.0021962624 0.0005194984 0.0042011854 -0.0002893181 -0.0011247288 0.0043724007
0.0034508863 -0.0010056501 -0.009470163 0.0019026698 0.0036161032 0.0025368598 0.0020738267 0.0006068304
0.012050813 0.007604261 0.0012376406 0.0008245172 0.0030595763 -0.0046192184 -0.008769941 0.0021552846
-0.00035722 -0.006980427 0.0070472443 0.00338473 0.003472906 0.0017936545 0.010043729 -0.0046090866
-0.004593377 -0.003972578 0.01580861 0.0006862632 0.0015276859 0.004544406 -0.0009955186 0.001160204
-8.26671e-05 0.008640782 0.002243437 -0.0027828082 -0.0012129347 -0.007203031 -0.00086195575 0.005762171
0.013993764 0.010182503 -0.005300184 -0.0041957605 0.0019044181 -0.0016759223 0.0027251376 -0.0007844655
0.008738364 0.0004160171 0.00702947 0.0006500241 0.0029527734 0.0016560907 0.0049166596 0.00030787443
-0.01031714 0.0017805424 -0.0035307351 0.0033954484 0.0068293377 -0.02192217 0.015976556 0.0046440866
-0.006172562 0.007014015 -0.0065653175 0.007776849 -0.010603155 -0.00029838705 0.00030670466 0.0044670547
-0.0077945087 0.0038844324 -0.0037335816 0.00024646713 0.0001690198 0.02256413 -0.0062007005 0.0009661294
0.0032840339 0.00076839584 0.0038381966 -0.004103393 0.004669946 0.0078429235 0.011745029 -0.00071076746
-0.010130377 -0.011482532 0.0031754328 0.0040347953 0.0024011529 -0.00338171 -0.0012574767 0.0043377792
0.005215831 0.0065931487 0.0022445633 -0.011848428 -0.0050835907 -0.008959233 0.0077034933 0.020988684
-0.0048967595 -0.006978079 -0.0014211815 0.0015350687 0.0022963216 -0.003110241 -0.0042724553 -0.004318544
0.0011334415 0.00046072196 0.008586096 -0.009298066 0.002731285 -0.0005094317 -0.0042174137 0.0032495
0.0063598165 0.0054588653 -0.010124846 0.0012275794 -0.002393918 0.00047351207 -0.0060765105 -0.0060313344
0.002970883 -0.0038970574 -8.557178e-05 -0.0051899757 0.00056624104 0.001625409 0.0030760414 0.0069904495
0.0049518286 0.0012879781 -0.002636835 0.0026290342 -0.0074283765 0.0008805486 0.0005803007 0.008744686
0.0002151134 -0.003256644 -0.009499116 0.0036835535 -0.0045380355 0.00035454895 -0.0017754905 -0.008822063
-0.002278586 0.0030144772 -0.0015841053 0.0043720044 -0.005580003 0.010961043 0.0036634149 0.0050493255
0.0054113646 0.0010287077 0.00055226753 0.00074069353 -0.0006689905 -0.0077056717 0.005736534 -0.004249231
-0.005631717 1.4851939e-06 0.007866303 -0.00711715 0.000756674 -0.0024958057 0.0013703232 0.00010314357
-0.004847922 0.016573148 0.002500735 -0.0075423764 0.0035945259 0.0015867598 0.0034369675 -0.015598011
-0.007554534 0.0014707503 0.0049687633 -0.0007907415 0.0024581933 0.0025339343 0.0067656245 0.003649168
0.0026845508 -0.0070058177 -0.009010308 -0.0028003196 0.0017961011 0.0026734022 -0.0155934645 -0.0068494687
-0.00074631657 -0.00079250656 0.013283364 0.0019032796 -0.0047707865 0.0047891797 0.0059796567 -0.012218668
-0.0032692424 0.003792402 -0.0058080177 -0.0014902846 -0.008387536 0.0026860104 -0.0036936735 0.0024824773
0.006087134 0.009112994 -0.00037457107 0.002468211 0.0018463974 -0.005573205 -0.00018227508 -0.006849034

network_body._body_endoder.seq_layers.4.weight f4 [256, 256]
00000000: b0d1 593d 6a69 4cbc 5865 d3bb f8b2 aa3c
00000010: f4e6 383d 6808 4c3e f11c a63d 57f2 183d
00000020: f764 b73c 83d5 5539 11ca 56bd 6939 76bc
00000030: 61b1 42bc bcc3 8ebd e26c 9a3c 049a e03c
00000040: 4f3d 08bc 5d38 05bd e1bf f4bd 6171 1abd
00000050: 8d08 0abe 2b16 20bd 92e2 f0bc 37a0 473d
00000060: 57c0 c6bd 8daf 2dbd 053f b83d cb0e f3bc
00000070: 4e7a c53d 412b 33bd 3b86 6b3d 7f32 483d
00000080: fad9 3e3d ed32 9e3d 6d80 703c c72b 063c
00000090: 77e7 2fbd aaaf 033d 2c36 693d 1e01 973d
000000a0: 8fcb be3d c6ff f43c 5815 003d d80c 0b3d
000000b0: 1dd3 183d 6ffe 90bd dcdf 14bc 1784 233d
000000c0: 1caf e2bc f085 143e 3dec 02be 4e2f 803d
000000d0: 6c63 b83c 9516 32bc 746a a23d fb6f efbb
000000e0: 3a12 293c 9213 1f3d 7cd0 fb3d 26a8 00bd
000000f0: cba8 673d ee9f 14bd 3c30 d0bc 7fed 8b3d
00000100: 6c08 5dbd a395 333e a3c0 58bc aec4 d73b
00000110: 4f09 103c 7e2c 2cbd 17a1 9d3b a593 333d
00000120: d277 9cbd bdb4 35bd fc29 01be c5e9 3dbd
00000130: 85a4 e9bc 893f 6ebd 1dce be3d ca09 a93d
00000140: 016b f0bd af13 8dbd c0aa 0bbc 0de9 cc3d
00000150: ad28 b6bd 9b0e 99bd 1f6d 393d 29d7 88bd
00000160: d2aa 7d3d c2aa e13d fec6 14bd 6858 5cbc
00000170: 9633 333c b087 51bd 7c85 f8bb 091e 033e
00000180: 0011 c93c 1fd0 443b 6623 2abc ed8a ba3c
00000190: 564b c13b 9708 e6bc fe2b 3e3c 8323 293d
000001a0: addc 1f3d 3dc0 68bc 494a 953d 2da2 303d
000001b0: 8383 d13c ff91 c13d c5c8 d43c fb07 a63d
000001c0: 5363 9d3c d8b4 4f3d 5c2a e63c f8f8 87bd
000001d0: 2031 193d 4467 bbbc da90 25bd 8b04 4bbd
000001e0: d924 efbb 927c 6cbd caa0 37be 230e 96bd
000001f0: 662f 80bb 12cd 003c f3bd 7dbd d2ef ad3c
00000200: e05e f8bc ef21 2abc 0b84 b23d 6125 513c
00000210: fa50 313c b4eb 5fbb 380f 4ebd 392b 713d
00000220: 4af8 d53c 78bd 14be d126 f9bc b267 e6bc
00000230: 80c0 0c3d eaa0 48bb ce4e 903c 279a cebb
00000240: 64cf cfbd 082b 193d cd40 cf3d 2ee4 693d
00000250: 104a 733d b6fb 613d e39b 89bd d735 3cbd
00000260: 5eff dabd 1a2d cbba 8262 6dbd d257 363c
00000270: dbc5 94bc 4b39 90bd 0cdd 043d f16b 0c3e
00000280: 1e1e cdbd 8880 4e3d 2931 e13b 7087 67bd
00000290: e91d e1bd 070a 393d fbd5 f1bd 0852 82bb
000002a0: 99d5 e03c 6679 95bd 205f afbd b45f 453d
000002b0: 545b 99bd 3fa7 b3bc 2216 103d 8af7 c83d
000002c0: 8cc4 a43d 49ef 24bd a4df 90bc 5170 023d
000002d0: 27d0 e13c 6662 41bd 694e a8bc 07c9 ce3c
000002e0: b0a7 573d b20e 993d d34f 843c 553d 9dbc
000002f0: 976a 8f3d 332a 4bbd 4118 703c 3cec a13a
00000300: f8a3 be3d 1337 95bc d651 243e e9d5 a33d
00000310: 206b a3bd 6e9e 42bd 4bbc b33c b069 f23d
00000320: b82a 9dbd fd8f d3bc 7e95 cb3c 91c7 90bd
00000330: a63e efbc db5c cdbd 3222 013d ad78 6bbd
00000340: cb1e a0bc d521 823d 847c 1fbc f8f7 b9bd
00000350: 761b 5e3d 6ba7 403a be03 0d3d 1e87 193d
00000360: b04c 98bd 7391 81bd 7e97 ff3d 8c03 0c3c
00000370: 3490 8c3d 0157 b4bd 2bf1 09bd fe78 b7bc
00000380: c895 10bb 6be3 513c b1b3 b53c 26b2 963b
00000390: ab78 5fbd b66c 533c 624a 3ebd 78e8 26bd
000003a0: 8a07 d3bd 660f 0fbe bc18 023d c117 3e3d
000003b0: d674 723c 7bf6 d03d 83f3 963d 917b a4bd
000003c0: ccb0 65bd 6e73 9f3c 85df 443c 40c6 d5bd
000003d0: 1017 dbbc 123d 413d 9d68 18bc ad4a 9d3d
000003e0: a66a abbd 438d ec3d 062a 11bd f6b0 103e
000003f0: 4f3f 1c3d dde9 70bb 1b2c 713d 6fa8 323d
0.05317849 -0.012476305 -0.00645129 0.020837292 0.04514213 0.19925082 0.08110989 0.03734049
0.022387011 0.00020392802 -0.0524388 -0.015028336 -0.011883111 -0.06970927 0.018850747 0.02741719
-0.008315398 -0.032524455 -0.119506605 -0.037705783 -0.13479824 -0.03908364 -0.029404912 0.048736777
-0.09704655 -0.042403746 0.08996395 -0.02967014 0.096424684 -0.043742422 0.05750106 0.04887628
0.046594597 0.07724557 0.014679057 0.008189148 -0.04294535 0.03214995 0.056936428 0.0737326
0.093161695 0.029907119 0.031270355 0.033947796 0.03731071 -0.07079779 -0.009086575 0.039920893
-0.02767139 0.14504218 -0.1278543 0.06259023 0.022508346 -0.010869642 0.079304606 -0.0073070503
0.010319287 0.038837023 0.122956246 -0.03141036 0.056557458 -0.036285333 -0.025413625 0.06832408
-0.05396311 0.1753755 -0.013229522 0.0065847253 0.008791282 -0.04203462 0.004810463 0.043841977
-0.076400414 -0.04436182 -0.12613672 -0.046365518 -0.028520832 -0.05816606 0.09316657 0.0825382
-0.117391594 -0.0688852 -0.008524597 0.100053884 -0.08894477 -0.07473489 0.04527008 -0.066816635
0.061930485 0.110188976 -0.036322586 -0.013448812 0.010937592 -0.051154792 -0.007584272 0.12804426
0.024544239 0.0030031276 -0.010384416 0.022771323 0.0058988733 -0.028080268 0.011607168 0.041293632
0.039028812 -0.014205989 0.072895594 0.043123413 0.025575405 0.09451675 0.02597464 0.08106991
0.0192124 0.050709575 0.02809637 -0.06639284 0.037400365 -0.02287639 -0.040421344 -0.04956488
-0.0072980938 -0.057735987 -0.1793243 -0.07326915 -0.0039119003 0.007861393 -0.061948728 0.02123252
-0.030318677 -0.010384067 0.087165914 0.0127652595 0.010822529 -0.003416759 -0.050307482 0.05887911
0.02611937 -0.14525402 -0.030414017 -0.028125618 0.03436327 -0.003061349 0.017615702 -0.0063049975
-0.101469785 0.037394553 0.10119782 0.057102375 0.059396803 0.05517169 -0.06719186 -0.045949783
-0.10693239 -0.0015501112 -0.057955272 0.011129336 -0.018160751 -0.07042178 0.03243737 0.13713051
-0.1001551 0.050415546 0.0068723154 -0.056525648 -0.10992033 0.04517558 -0.11808392 -0.003977064
0.027445601 -0.072985455 -0.085630655 0.048186973 -0.074881226 -0.021930335 0.035177357 0.09812839
0.08045301 -0.040267263 -0.017684765 0.031845395 0.027565075 -0.04721298 -0.020545201 0.025242342
0.052650154 0.07473506 0.016151344 -0.019194284 0.07002752 -0.04960079 0.01465422 0.0012353729
0.09308618 -0.018214738 0.16046843 0.079997845 -0.07979417 -0.04751437 0.021940371 0.118365645
-0.076741636 -0.025825495 0.024851557 -0.07069314 -0.029204678 -0.100274764 0.03152675 -0.057488132
-0.019545933 0.06354109 -0.009734277 -0.090804994 0.054225408 0.0007349166 0.034427397 0.037482373
-0.07436502 -0.0632657 0.12480067 0.0085457675 0.06863442 -0.08805657 -0.03367726 -0.02239656
-0.0022061933 0.012810568 0.02218041 0.0045988737 -0.054558437 0.012904337 -0.046457656 -0.040749043
-0.10304172 -0.13970718 0.03176187 0.046409372 0.014798364 0.102032624 0.07370665 -0.08031381
-0.05607681 0.01946422 0.012016182 -0.10438204 -0.026744395 0.04717738 -0.0093022855 0.07680259
-0.08369951 0.11550381 -0.035440467 0.14130005 0.038146313 -0.0036760487 0.058879953 0.043617662

network_body._body_endoder.seq_layers.4.bias f4 [256]
00000000: 9f9f 633b 2abf 58bb 2fb1 b2bb 13da 9a3a
00000010: 7e7f 593b 9285 533b 6985 e0bb b6a2 a5ba
00000020: fb63 a03b 4ebc 97bb faf0 043b 348f 763b
00000030: a907 c4b9 f52a 6cbb b6e4 9cbb ac37 90bb
00000040: c793 6eba 817a f7bb 6637 4dbb 5434 1fbb
00000050: 20ff bf3b 0b67 7d3a 8215 2cbb 80a9 f2b8
00000060: 9375 b13b c4c5 873b 833d b439 2d30 a6bb
00000070: ef2d 303b 65ed 513b cd8f 393a a869 01bb
00000080: 4a87 1a3b 73c9 33ba 06e5 8c3b fd33 18bb
00000090: 2a18 b63a b790 a2ba 8347 bcbb 02f8 6a39
000000a0: 4b6e 183a 8dfc 45bb 9c81 0cbb 4392 d8bb
000000b0: 7dd7 13bb 5516 7b3c 2a4c b339 d6f3 1ebb
000000c0: 72de b33b 9ad5 853a ed0d 683b bf57 95bb
000000d0: 0c2e 0fbb a815 d53a 5597 d83b 2600 0f3b
000000e0: 03a3 dfba 21e3 b43a 9407 bb3b 6c75 fb3b
000000f0: b953 c43b a0f6 c63b 5b05 eb3b 66ac d33a
00000100: cc44 fdbb dc90 f439 3727 bb39 f1b2 153b
00000110: 7a27 993b 52ed 7d3a bd13 09bb 3d63 843b
00000120: 400f 85ba 2597 22bb 76e4 853b 0491 5ebb
00000130: 52a9 c93a bfff dd3a 0dc0 7c3b 5bdc 923b
00000140: 9102 0c3b b85d 0d3b f665 683b e24a 80bb
00000150: 1efe f639 2f30 e3ba 1967 b23a 3bf0 983b
00000160: edb2 9fba f7b9 6639 6483 a53a 7ce6 793b
00000170: 451a 86b9 85f7 083b 928e 893b 778b 133c
00000180: 6a9a 95bb 0766 74b9 7e36 1939 89b6 0e3b
00000190: 9220 b4ba 5d67 bebb fa11 9b3a c65d 593c
000001a0: 0991 853b c00c 6d3a 21a4 143b 1240 3b3b
000001b0: 88c2 50bb 0f25 753a 8e75 2ebb 8070 8a3b
000001c0: cd12 d63b e9ca a73b f89a c13b d1f7 123b
000001d0: a416 b537 f04b 203a 0115 8a3b 4333 76bb
000001e0: a664 7d3b 3832 e4bb 4d89 053b 8876 843b
000001f0: fd05 853b d5d1 763a 129f a13a 1ac2 b4bb
00000200: 845a feba aec9 0ebb 0227 f2bb bb94 d73b
00000210: 8c7c 34bb 6f89 ab3b 1926 923b 14de a13b
00000220: be76 163a bd6a 91ba 0810 5cbb e279 233b
00000230: 68db 3e3b 955a 283b 9e17 a03b b35e 1b3b
00000240: b45e bebb 4081 83bb 9c34 4c3b 787e fdba
00000250: 9879 a53b f0a7 5e3b 0498 18bc 7d30 0ebc
00000260: d6e6 ac39 d76f 483b 643d 31bb 0c4f b73b
00000270: fc69 583c a89c 0038 6817 b4ba 3155 0c3b
00000280: 69cd d4b9 4c21 773b 5079 beba 3c4c 7e3b
00000290: 1baa cbbb 17f3 b6ba a97a b1bb 3094 5fbb
000002a0: 3d92 febb b16a 293b 7c04 503b b454 32bc
000002b0: 160e 293b 2735 5fbb fb2d 623b 60ad f0b9
000002c0: 0583 deba a425 37ba a7af a7ba b49f 993b
000002d0: 49f3 0d3b 5825 f638 af66 0fbb d114 8abb
000002e0: 53c8 1a3b 119f 283a e4f7 54bb ea7b 2d3c
000002f0: 00e3 bd3b 198c ec39 867f bd3a 8fc7 d1bb
00000300: d11b 093a 9d50 8b3a e1ef a6bb c2be 5bbb
00000310: aa57 28bc df7b 2fbc 0790 f63a a751 ae3a
00000320: 46d1 36bb dca5 c7b9 2c1a 2f39 b8f8 773b
00000330: b690 193b c253 efb9 cfdd f6ba 4f1a 373b
00000340: 840a 633b ab28 07bb 553d d8bb ca3d 37bb
00000350: 36b5 a9bb dd7d a9ba 090b 28bb 9c9a e8ba
00000360: 3f06 7cbb ff03 893b 727f 15bc 350e 333b
00000370: a5d6 843b 2a38 71ba f458 9dbb 9132 9ebb
00000380: 4451 38ba c83f dbb7 60d5 52bb 5e84 60bb
00000390: 03b2 cabb 9973 283c 8fb1 1bbb eac5 723b
000003a0: 4537 cd3b 1786 88ba 20b6 b7ba d5ee 46bb
000003b0: 8c29 5dbc e670 9e3b 8195 a4ba 47a2 1fbb
000003c0: 4402 213b 19f8 25bb 2330 36ba 7032 b33b
000003d0: 74ed ed3a fa6f ce3b 316a 4d3b 55b3 873b
000003e0: 2d9f 623c 5b94 22bb 9573 36ba 290c dd3b
000003f0: f5b2 c5bb ca69 77bb a5cf 3c3b f595 8c3a
0.0034732593 -0.0033072927 -0.005453251 0.0011814259 0.0033187564 0.003227566 -0.006851841 -0.0012636993
0.004894731 -0.004630602 0.0020285235 0.0037621977 -0.0003738974 -0.0036036347 -0.0047880067 -0.004401168
-0.0009101 -0.0075524454 -0.0031313538 -0.0024292665 0.0058592707 0.00096665387 -0.0026257937 -0.00011571031
0.0054156273 0.0041434485 0.00034378105 -0.005071661 0.0026882847 0.0032032367 0.0007078618 -0.0019746814
0.0023579174 -0.00068583264 0.0042997627 -0.0023224347 0.00138927 -0.0012402748 -0.0057458295 0.00022408369
0.0005814775 -0.0030210346 -0.0021439558 -0.0066092326 -0.002255886 0.015325149 0.00034198287 -0.0024254224
0.005489164 0.0010210753 0.003540869 -0.0045575793 -0.0021847514 0.0016257064 0.006609837 0.0021820157
-0.0017062131 0.00138006 0.0057076905 0.00767391 0.005991426 0.0060718805 0.0071722693 0.0016149401
-0.0077291485 0.00046647235 0.00035696637 0.0022842253 0.0046738954 0.00096865476 -0.0020916306 0.0040401504
-0.001015164 -0.0024809327 0.0040860726 -0.0033960948 0.0015385544 0.001693718 0.003856662 0.004481835
0.0021363834 0.0021570753 0.0035461164 -0.0039151767 0.00047110108 -0.0017333085 0.0013611048 0.0046673096
-0.0012184061 0.00022003787 0.0012627658 0.0038131764 -0.00025578044 0.0020899486 0.004197904 0.009005419
-0.0045655267 -0.00023307661 0.00014611517 0.002177628 -0.0013742617 -0.0058106617 0.0011830919 0.013266986
0.0040761274 0.00090427324 0.0022680836 0.0028572124 -0.003185423 0.00093515305 -0.002662036 0.004224837
0.006533003 0.0051206243 0.0059083663 0.0022425542 2.1587424e-05 0.0006114831 0.0042139296 -0.0037567175
0.0038664727 -0.0069639944 0.0020376027 0.0040424503 0.0040595517 0.00094154227 0.0012330732 -0.005516303
-0.0019405638 -0.002178769 -0.007389904 0.0065790094 -0.0027540056 0.005234889 0.004460108 0.004939804
0.000573974 -0.0011094433 -0.0033578891 0.0024944474 0.0029122476 0.0025688757 0.004885628 0.0023707568
-0.0058096293 -0.0040132105 0.0031159287 -0.0019340059 0.0050498955 0.003397461 -0.009313587 -0.008678553
0.00032978383 0.003058424 -0.0027044648 0.00559414 0.013208862 3.0663476e-05 -0.0013739886 0.0021413083
-0.00040588834 0.0037709055 -0.0014532004 0.0038802763 -0.0062153465 -0.0013957944 -0.0054162336 -0.0034115426
-0.007768898 0.0025850947 0.0031740954 -0.010884453 0.002579575 -0.003405878 0.003451227 -0.00045905542
-0.0016976303 -0.0006986505 -0.0012793437 0.0046882275 0.0021659902 0.0001173715 -0.0021881273 -0.0042139073
0.0023617938 0.0006432394 -0.0032496387 0.010588625 0.005794883 0.0004511781 0.0014457561 -0.006401963
0.000523028 0.0010628883 -0.0050945138 -0.0033530449 -0.010274807 -0.0107106855 0.0018811234 0.0013299481
-0.0027895733 -0.00038079813 0.0001669905 0.0037837457 0.0023432202 -0.00045648037 -0.0018834415 0.0027939265
0.003464372 -0.0020623605 -0.006599108 -0.0027960413 -0.0051790727 -0.0012931187 -0.0025641343 -0.0017746272
-0.0038455871 0.0041813846 -0.009124624 0.00273217 0.004053908 -0.00092017895 -0.004801864 -0.0048278053
-0.00070311525 -2.6136535e-05 -0.0032170638 -0.0034258584 -0.0061857714 0.010281467 -0.0023756956 0.0037044236
0.006262692 -0.0010415938 -0.001401607 -0.0030354757 -0.013498675 0.004835236 -0.0012556763 -0.00243582
0.0024568 -0.002532488 -0.0006949922 0.005468659 0.0018152432 0.0062999697 0.0031343813 0.004141251
0.013831896 -0.0024807665 -0.0006959972 0.0067458344 -0.006033296 -0.0037752264 0.002881029 0.0010725843

action_model._continuous_distribution.mu.weight f4 [1, 256]
00000000: 7d89 1bbd 408f 7cbc 9def 23bc 4c94 9d3b
00000010: 50d4 aeb9 8686 1a3c 44e8 a6bb d57d 4cbc
00000020: 6e90 b73c 55a8 f6bb 6f73 4a3c af39 a93c
00000030: f238 44bc 74cd 67bc 2732 ec39 fe5a f5bb
00000040: 09ba 45bc b821 423c 2f8d 85bc 329b 74bc
00000050: 7c9a 6d3c 433d 4c3c 3bd0 0d3c 6972 1dbd
00000060: 4f66 cd3c 7dec 4a3c ba78 bb3b 27b8 81bb
00000070: db82 05bd b6bc c03b c8fa b9bc 36ee 98bc
00000080: 183d f23b da79 0d3c 6313 b53c a10d 49bc
00000090: 4dd5 163b a38d 2e3c 80af 4e3a 312b 5dbc
000000a0: e486 42bc f2eb a0bc a416 8abc a0e7 3ab8
000000b0: 7020 c0bc 556a 83bc 6aa8 6a3c 63cd 8ebc
000000c0: 1b20 ea3c 9578 663c a99f 8e3c b215 023c
000000d0: 42b9 a7bc 2705 e9bc 09c6 133d ebd1 8d3c
000000e0: d804 e5bb e1af 6abc e98a 84bc 6c60 ffba
000000f0: 0770 dfbb 7977 be3c d7a5 173d a2a5 f43b
00000100: 7c22 b73a f564 cabc d41d 843c 3c2c a33b
00000110: 36ef 023c 1db3 48bc a15a ccbc 1eac 2abb
00000120: e06d 12bc 32c9 4abb 3d6e 983c 5935 94bc
00000130: 1ff1 1bbc b83e 13bd 7ee9 523c f5aa b53c
00000140: 7d98 4c3c 88ce 513c c493 a43c f38a a6bc
00000150: 89ab c8bb a433 51bc 3aa4 ebbc 698c 9e3c
00000160: 20e7 8abc 208a 15bd a163 9ebc f00d a13c
00000170: 01b4 b9bc 58dc 0e3c 885a e73c 0277 f33c
00000180: f980 e63b 93c8 34bc c00f 1b3c 59aa 8a3c
00000190: 56ba 85bc eeab a5bb 321f 3ebc be3d 2fbc
000001a0: 8afe 153c 6275 3f3c 5d4f 483c cfa8 cc3c
000001b0: 8e67 94bc 0672 8bbc 0f5d 27bc 2cb3 19bb
000001c0: 091b 0a3d 6e8a d83c 448c 4e3d 65b8 1d3c
000001d0: 7e10 0a3c 0b69 1abd ec81 913c 359a 1cbc
000001e0: c342 a23c ffd5 abbb 37e3 743c d2f3 683c
000001f0: 29b3 333c cf75 5a3b a17d 95bc 095c 9dbb
00000200: 0611 70bb 6c93 07bd b361 dd3b d149 a13c
00000210: def0 bcbc 60ef de3c c2b0 8c3c 313f 0a3d
00000220: 15ce 02bd 3e2c 69bc bc9b a7ba f77d ee3a
00000230: e3a9 9a3c 5d36 f43b 6381 b23c 190d 0bbb
00000240: b3b2 f63a f11e 86bc 38a8 b03c 0350 a7bc
00000250: b3c6 843c 7811 823c b063 853b f198 a23b
00000260: 9f46 12bd 8321 a2ba 5446 68bc 9a48 243d
00000270: 1eb6 d8bb acf9 98bb 9f77 86bc e308 143c
00000280: 011e 95bc e876 fe3b f628 37b7 7889 d73c
00000290: dd64 98bb 9af6 c0bc d4bb e5bb 90a4 51bc
000002a0: 758e 693c 44ed d43b d4d9 583c 7d58 023c
000002b0: ab9d 9e3c 2955 9f3c 4d93 1a3c d244 12bd
000002c0: 42e2 12bc 02bc 543c 5616 15bc a57e 093c
000002d0: 95f1 42bc 0379 893b 6945 933b 76b0 33bc
000002e0: 00c5 4e3c 3803 dbbb 8aae 59bc 5b65 b93c
000002f0: 61d7 d63c c761 943c d511 1e3c 6de3 d239
00000300: 4917 24bc 4e9c f43b 6d94 ec3b 22e1 5a3a
00000310: a2a9 23bb fb4a 263c 9811 06bd 6e95 a9bc
00000320: 689b 18bc d4c3 093c 0932 cfbc 2a7a 9e3c
00000330: a068 803c f1da 61bc 19f6 ddbc 1727 38bc
00000340: ca33 aa3c 63b8 04bc 2427 c63a c103 7dbc
00000350: c0e2 9ebb 424e a0b9 5eb3 aabc ecfa 18bc
00000360: 72c5 8abb 6516 f33c 4767 18bb 37d9 693c
00000370: a720 a33c de68 bfbc 8a3f 36bb 79c3 023c
00000380: 38a2 a8bc 2036 b3bc f5d4 99bc 832e 84bc
00000390: 9057 5ebb 646d 89bb 8093 81bc 0b8b 033c
000003a0: 2784 c03c 1fc4 e7bb 0ed4 4cbc 4998 6fbc
000003b0: 4e8a 863b c839 c73c 9b9c edbc f1e1 36bc
000003c0: 6d06 6c3c 81e3 adba f423 b3bc 67f6 373d
000003d0: 2ff9 243a f7d2 9b3c 9048 b63b 9d34 7bbb
000003e0: 44d6 f6bb 9e30 edbb 43af 66bc 6f37 69bb
000003f0: f3de b7b9 bdef e53b f882 113c 2303 b83c
-0.037972916 -0.015415013 -0.010005859 0.004808938 -0.0003334605 0.009431487 -0.005093606 -0.012481173
0.022407737 -0.007527391 0.012356623 0.020657388 -0.011976467 -0.014148105 0.00045050794 -0.0074876538
-0.01206828 0.0118488595 -0.016302673 -0.01492958 0.014502164 0.012465778 0.008655603 -0.03843919
0.025073199 0.012385485 0.005721179 -0.0039587202 -0.032595497 0.005881871 -0.02270259 -0.018668275
0.007392537 0.008635009 0.02210397 -0.012271316 0.002301532 0.010653886 0.0007884428 -0.013499067
-0.011872981 -0.019643757 -0.016856499 -4.4561573e-05 -0.023452967 -0.016041914 0.01432238 -0.01743192
0.028579762 0.014066835 0.017410116 0.007939743 -0.02047408 -0.02844484 0.036077533 0.01731201
-0.006989103 -0.014324159 -0.016179519 -0.0019483692 -0.0068187746 0.023250328 0.03702339 0.007466034
0.0013972069 -0.024706343 0.016127504 0.0049796384 0.007991603 -0.012249735 -0.024945559 -0.0026042531
-0.008937329 -0.0030942676 0.018607253 -0.018091844 -0.009517937 -0.035948485 0.012873052 0.022176245
0.012487528 0.012805589 0.020089991 -0.020329928 -0.006123964 -0.01276866 -0.028764833 0.019354062
-0.016955912 -0.03650868 -0.019334616 0.019659966 -0.02266884 0.008719526 0.02824141 0.029719833
0.0070344177 -0.011034149 0.009464204 0.016926931 -0.016324203 -0.005055896 -0.011604117 -0.010695873
0.009154925 0.011685701 0.012225953 0.024982838 -0.018115785 -0.017022144 -0.010215058 -0.0023452742
0.03371719 0.026433196 0.050426736 0.009626483 0.008426784 -0.037697833 0.017762147 -0.00955825
0.019807225 -0.005244016 0.01494675 0.014218288 0.010968008 0.003333438 -0.018248381 -0.004802231
-0.003663124 -0.033099577 0.0067560314 0.019688519 -0.023064073 0.027213752 0.017174128 0.03375167
-0.031934816 -0.01423174 -0.0012787501 0.00181955 0.018879836 0.0074527697 0.021790212 -0.0021217524
0.0018821567 -0.016372176 0.021564588 -0.020423895 0.016208028 0.01587747 0.0040707216 0.0049620797
-0.03571188 -0.0012369606 -0.014176924 0.0401083 -0.006613507 -0.004668435 -0.016414462 0.009035322
-0.018202784 0.0077656396 -1.0917187e-05 0.026310667 -0.0046506957 -0.023555089 -0.0070109162 -0.012795582
0.014255156 0.006498011 0.013235528 0.007955668 0.019362291 0.019449787 0.009434533 -0.035710163
-0.008965077 0.012984278 -0.009099564 0.008392011 -0.011898418 0.004195334 0.0044943583 -0.010967365
0.012620211 -0.0066837333 -0.013286242 0.022631338 0.026225748 0.01811303 0.009647806 0.00040223767
-0.010015317 0.007464922 0.007219842 0.00083495874 -0.0024972935 0.010149713 -0.032731622 -0.020701136
-0.0093143955 0.0084085055 -0.025292413 0.019345362 0.01567489 -0.01378511 -0.027094888 -0.0112397885
0.020776648 -0.008100602 0.0015117866 -0.0154427895 -0.004848808 -0.00030575885 -0.020837482 -0.009337168
-0.004234963 0.029673764 -0.0023254917 0.014272979 0.01991303 -0.023365434 -0.0027808868 0.007981175
-0.020585164 -0.021876395 -0.018778304 -0.01613546 -0.0033926703 -0.0041939486 -0.015817404 0.008028756
0.023500515 -0.00707294 -0.01250173 -0.01462371 0.0041058427 0.024319544 -0.02900534 -0.011162267
0.014405829 -0.0013266654 -0.02186773 0.044912722 0.0006293235 0.019021494 0.0055628493 -0.003833092
-0.0075328667 -0.0072384616 -0.014079872 -0.003558602 -0.0003507059 0.0070171044 0.008881323 0.022462433
