results/training1/BoundarySequence/BoundarySequence-130000.onnx (onnx, 558972 bytes, 10 tensors)

network_body.observation_encoder.processors.0.normalizer.running_mean f4 [20]
00000000: 0000 0000 0000 0000 0000 0000 0000 0000
00000010: 0000 0000 0000 0000 0000 0000 0000 0000
00000020: 0000 0000 0000 0000 0000 0000 0000 0000
00000030: 0000 0000 0000 0000 0000 0000 0000 0000
00000040: 0000 0000 0000 0000 0000 0000 0000 0000
0.0 0.0 0.0 0.0 0.0 0.0 0.0 0.0
0.0 0.0 0.0 0.0 0.0 0.0 0.0 0.0
0.0 0.0 0.0 0.0

network_body._body_endoder.seq_layers.0.weight f4 [256, 20]
00000000: 5600 7c3e 4225 50bc 4dae 57bd c55a 8a3e
00000010: 3c52 493e ffe4 57bd 9939 393e cf4c 3a3e
00000020: 35d2 083e 18b5 0a3e 4cb4 51be 4153 19be
00000030: 8bf2 62be 9dc7 843e d903 34be 501e f9bd
00000040: 6092 fe3c 94af 933e 037d 24be 6e69 9fbe
00000050: b400 25be 1908 d5bd 446d ed3d 29d7 443e
00000060: 3ae0 483d 235e d9bc 630c b9bc 4efb 923b
00000070: d119 34be 8f3b 4cbe b80f 73bd 1e4e f6bc
00000080: a7ed d73e ae5f 84be 5dfe 733d 0c4c 57bd
00000090: 31c8 313e a817 0b3e c078 483d 6b19 61bd
000000a0: f1f1 bdbe ea2c acbe eebf 68bd da1b 343e
000000b0: c45a 01bf b7db babd a883 74bd a1ec 1abd
000000c0: e870 9d3e 22b3 673c d40b 913d 997e c33e
000000d0: ec05 f33d 3225 9b3d d5c8 28bd a6d3 773e
000000e0: eec0 8abd 46d1 febd 4760 13be a2aa 913d
000000f0: 0627 6cbd 9d58 793d 71eb fabd 3cad 80be
00000100: 6d83 1ebe 8234 6b3e 0025 80be 4beb 5e3e
00000110: 552d b1be 5d52 773e 38c6 42bb 8a75 603e
00000120: b7ca f23e 892b 633e e1cc 3e3d 4e60 96be
00000130: 6ddc 49be 6d07 17be 126c 2a3e 936c 91be
00000140: 1de5 02bd 5035 b3be 9fbc 893d 8806 2c3e
00000150: 641d 1a3e 762b a8bd d25e 673d d837 b03e
00000160: 4c16 773e 5acc 9c3e 4edc df3b 27d8 ab3e
00000170: ddda 47be 45a5 113e 6218 163e e7b7 e0be
00000180: 3178 1b3e 804f 53be d1d9 e73d 4d77 0cbe
00000190: 195a 69be 9487 083e e877 bdbd db79 80bd
000001a0: a408 04be 052f 1abd 4ff1 193f 0094 ccbe
000001b0: eb4e 133d 7deb 063f 4c3d 5bbe 6bc3 debe
000001c0: 43b3 103e 2430 d13e 2f4d a7bd e234 9d3d
000001d0: 2bb1 0f3f 375e 2e3e 3bf9 a83e 90b6 fdbe
000001e0: 1d50 9fbe bc4b eebd 4edf b43e d1c3 fbbd
000001f0: c7cb ae3e 7e8c cdbd 205c 053d 4374 d63c
00000200: 76b7 2d3e 6c96 5f3c 9a64 8d3d 0300 7abe
00000210: ab7f 3a3e a9d3 c83d 63d4 39bd f24a 2fbe
00000220: 28fa 803e 1c59 6d3c 6896 7d3e 232f 1c3d
00000230: f336 44bd b48b 1fbe 23e2 403d 481b 6a3d
00000240: 76dd a7bd 6670 263e b259 76be 22b2 35be
00000250: ebfb efbe ea42 17be f5f0 643e 2e9f 4c3e
00000260: 73ac b33d 35d3 07be e735 88be 089f 513d
00000270: 89df 223d 667e 8f3e 619d 6d3e a491 36be
00000280: a380 c1bd 1029 1dbb d400 833d ec93 223f
00000290: 0160 86bd b630 cdbd f3bb bcbd 83b1 fa3d
000002a0: 9d78 27bd 7081 a73e f0c8 8bbe c4e2 f53d
000002b0: c4cb c6bc 71bb dbbd df99 483e 43ea d13d
000002c0: adc8 c5bd 5551 9ebd 3e4a 653d 9964 6bbe
000002d0: ae98 c7bd c3b9 96be a61b 453e 119c 03be
000002e0: c99a a73e 923a 0dbe 6856 cebd af8f c7bd
000002f0: 1690 aebd 6ee9 c23e c91d 8f3e 123c e23e
00000300: edfd 57be 81d7 933c 2130 143f 12dd 643d
00000310: 74bc a8be 486f d6be 98d5 4ebe 8ece 14be
00000320: 54ba 0bbe 677a 38bd 2a69 11be ebaa 0bbd
00000330: 8126 273d 91ea 80bd 6d4a bc3b 775b 32be
00000340: 4212 26bd b2f7 f13c f93e d53d 90d4 a73e
00000350: 7cd6 25be 2b5c 903e 29a0 13be 8806 bc3d
00000360: 3a84 493e 1f81 8a3e 4056 f9be b8ba 57be
00000370: 779c e7be 1aab 4abe b02b 57bc 7397 83bd
00000380: f6c8 62be 1f88 ccbd 049f 12be 633e ab3e
00000390: b6cd c1be 8e1b 823c 6570 f03c a8b6 c03e
000003a0: f5ad 8dbc 3f94 86bd a623 3ebe 2ab5 e5bd
000003b0: 8764 2dbe de1b 35bd 0264 17be 9a46 403e
000003c0: 7162 983d d09a 0abe 751f 27be 9a06 1abe
000003d0: b93c 573d 47e7 7b3e bd88 72bd 248c 45be
000003e0: 5d69 16be cc3e a1bd 5e9e 4b3e 7c51 b1bd
000003f0: 1ee1 6e3b 9cc9 743e 0245 81bd 5ea6 2c3e
0.24609503 -0.012704195 -0.05265646 0.27022377 0.19660276 -0.052708622 0.18088378 0.18193363
0.13361438 0.13545644 -0.20478934 -0.14973165 -0.22162835 0.25933543 -0.17579593 -0.12163985
0.031075656 0.28844893 -0.16063313 -0.31135124 -0.1611355 -0.10401935 0.115931064 0.19222702
0.049041964 -0.026534146 -0.022588914 0.0044855243 -0.17587973 -0.19944595 -0.059341162 -0.030066546
0.42173502 -0.25854248 0.05956875 -0.05256276 0.17361523 0.13583243 0.04894328 -0.05495588
-0.3709865 -0.33628017 -0.056823663 0.1758875 -0.5052912 -0.091239385 -0.05969587 -0.037823323
0.30750203 0.01414183 0.07082334 0.38182524 0.11866364 0.07575454 -0.041207153 0.24201831
-0.0677508 -0.124422595 -0.14392196 0.07112624 -0.057654403 0.060875524 -0.12251938 -0.25132167
-0.15479822 0.22969249 -0.2502823 0.21769445 -0.34604898 0.24152513 -0.0029720198 0.21919838
0.47420284 0.22184576 0.046582107 -0.2937035 -0.19712992 -0.14748926 0.16642788 -0.28403148
-0.03195678 -0.35001612 0.0672543 0.16799366 0.15050274 -0.082114145 0.056486912 0.34417605
0.241296 0.30624658 0.0068316823 0.3356335 -0.19517083 0.14223202 0.14657739 -0.43890306
0.15182568 -0.20635796 0.11320842 -0.13717385 -0.22788276 0.13332969 -0.09251386 -0.06273242
-0.12893921 -0.037642498 0.6013383 -0.39956665 0.035963934 0.52703077 -0.21410102 -0.43508467
0.14130883 0.4085704 -0.081690185 0.07676102 0.5612971 0.17028128 0.33002648 -0.49553347
-0.3111581 -0.11635539 0.35326618 -0.122932084 0.34139845 -0.100365624 0.03255856 0.026178485
0.16964516 0.013646703 0.06903954 -0.24414067 0.18212764 0.09805996 -0.045368563 -0.17118433
0.25190854 0.014486577 0.24764407 0.03813089 -0.047903966 -0.15580636 0.04709066 0.057154924
-0.08196537 0.16253814 -0.24057654 -0.17743734 -0.46871886 -0.1477162 0.22357543 0.19982597
0.087731265 -0.13264163 -0.26603624 0.051177055 0.03976396 0.28026122 0.23204567 -0.17828995
-0.09448364 -0.0023980774 0.06396642 0.6350696 -0.0656128 -0.100190565 -0.09215536 0.12240889
-0.04088651 0.3271594 -0.2730174 0.12006143 -0.024267085 -0.10729111 0.19589947 0.1024976
-0.096574165 -0.077303566 0.055979006 -0.22987594 -0.09745918 -0.294386 0.19248828 -0.12852503
0.3273528 -0.13791874 -0.100750744 -0.09744202 -0.08523576 0.38068718 0.27952412 0.44186455
-0.21092959 0.018047096 0.5788594 0.05587489 -0.32956278 -0.41881776 -0.20198667 -0.1453192
-0.13645297 -0.045038607 -0.14200273 -0.034098547 0.040808205 -0.0629474 0.005746177 -0.17417704
-0.040544756 0.029537056 0.10412402 0.3277936 -0.161951 0.2819532 -0.14416565 0.09180933
0.19679347 0.27051637 -0.48698616 -0.21067321 -0.4523656 -0.19791833 -0.0131329745 -0.06425371
-0.22146973 -0.099869005 -0.14318472 0.33446035 -0.37852257 0.01588228 0.029350469 0.37639356
-0.017294863 -0.065712444 -0.18568286 -0.11216195 -0.1693288 -0.04421603 -0.14784244 0.18776932
0.07440651 -0.13535619 -0.16320594 -0.15041581 0.052548144 0.24599944 -0.059212435 -0.1929174
-0.1468863 -0.07873306 0.19884631 -0.0865812 0.0036450098 0.23905033 -0.0631199 0.16860339

network_body._body_endoder.seq_layers.0.bias f4 [256]
00000000: 5018 87bb a60a 43bc c116 8a3b 44fa 5c3c
00000010: 265d 453c 4a2f 303c 8a5b 3c3c b7b0 48bc
00000020: a253 4f3c 2991 b0bb 2d0f 3e3c c199 2f3c
00000030: 5062 2b3c 8376 d83b 11b4 543c adbc b33b
00000040: a2c0 2e3c 2a6d 42bc fa80 35bc 303e 223c
00000050: 879b 1dbc dd2b 40bc a88d 623c f8f9 23bc
00000060: 55a6 12bc 192e 333c 6c77 cdbb 5500 52bc
00000070: 40b3 193c 06c9 373c 830c 0fbc 72c1 c3bb
00000080: c78a 0b3c 202e 43bc f847 573c aaa9 2a3c
00000090: a601 2fbc 17af c1bb 9bee 17bc a3d4 313c
000000a0: 2251 663c c961 54bc 8656 1fbc 0891 60bc
000000b0: 2c9b 5e3c 826e 423c 987e debb faeb 6ebc
000000c0: 8e6c 3fbc 8ead 493c d91d 4bbc 25e7 043c
000000d0: 4311 2fbc a02f 48bc 44b0 02bc 56ee 543c
000000e0: d192 623c d607 283c ff96 0dbc b029 febb
000000f0: 8c8a 3ebc 47a7 313c e4e5 75bb 584f febb
00000100: b538 e1ba b83a a23b 1851 303c 652e 2cbc
00000110: c639 42bc 32d8 77bc 4328 463c 853f 513c
00000120: 0310 cbba 37e3 3e3c 0121 3d3c 38c7 283c
00000130: 8022 363c 3a6e 31bc b225 03bc 56d7 4cbc
00000140: 2df4 393c 3246 2abc e334 2e3c 3240 29bc
00000150: 4862 4a3c 3260 34bc b721 2dbc 2115 39bc
00000160: 2696 363c 10e2 71bc b7ea 36bc 7bf5 323c
00000170: a673 403c 6500 3cbc 340e c7bb 888b e53b
00000180: 65d3 3cbc 37e5 28bc bf49 193c 64a7 213c
00000190: aaf5 af3b 360b 4a3c 9382 68bc ddc8 3fbb
000001a0: a9f3 153c 099b 7bbc eae6 46bc d4e5 f03b
000001b0: df58 3dbc 4119 3abc bae5 233c d048 383c
000001c0: 95bb c5bb d316 30bc 5283 44bc 8091 473c
000001d0: 76d2 f1bb 736d b43b 75d2 2b3c 2854 3d3c
000001e0: 531c 453c 0498 cf3b a07e 163c 89b9 203c
000001f0: 4cd6 203c 0ead 00bc f5e1 54bc dc37 57bc
00000200: 5f2d 7a3c ca90 1ebc d22d 16bc e22f 0dbc
00000210: e4ff 52bc f444 9ebb 5a27 15bc 10ca 393c
00000220: cd59 283c fe1b 10bc 7193 bbbb a153 9c3b
00000230: 5511 21bc 5382 0f3c 9fd9 2abc 2eb9 5a3c
00000240: 5c39 153c 9864 4ebc c2d2 973c df7c 2e3c
00000250: 20c6 3e3c bd66 323c 5433 323c 22af 24bc
00000260: b52f f7bb cb58 3f3c c7c9 2b3c 04fc 2c3c
00000270: 8bca 183c 96ee 523c fff9 73bc 9efe 4b3c
00000280: c846 053c b6e2 1abc cce6 3c3c b747 0cbc
00000290: 31c4 23bc 6a11 18bb ed3d 1d3c f923 4bbc
000002a0: 0ac3 543c 5906 4dbc 9cf7 febb a703 483c
000002b0: 9f87 38bc c809 3bbc 42ab f43b 1ebf 1bbc
000002c0: 28c2 423c 9cba 1bbc a7a4 22bc d9a2 04bc
000002d0: 9818 08bc 28bc 0d3c b715 29bc 7e55 e43b
000002e0: 0f15 15bc b4a5 123c c106 f4bb 3934 243c
000002f0: 5b59 3d3c 46c6 20bc e4fd 0dbc 885d 5ebc
00000300: 3ff9 5b3c 4619 23bc a533 d1bb fda9 1bbc
00000310: 5b67 463c 4473 27bc 35c2 9aba 94cb 333c
00000320: 03f7 aa3b fd3c 2a3c 0b28 493c be4e 50bc
00000330: d681 c2bb 5d19 323c f8d1 2a3c 7cf3 353c
00000340: 86d7 3a3c b7fc 59bc 0191 debb c32f 113c
00000350: cb9c 3d3c 6050 20bc 3077 19bc cb48 2b3c
00000360: a5af 503c 657a a1bb ba5e 673c 6705 413c
00000370: da30 25bc eaed 293c 4c3e 8e3c 6055 27bc
00000380: 437f 413c e18a 16bc db60 3d3c 7cc9 2cbc
00000390: bc02 303c 5983 343c b433 6cbc fb5f 9d3c
000003a0: 7b42 04bc eb35 f63b 3f6c 453c 528b 3dbc
000003b0: 6259 12bc 082e 0b3c 2b46 223c b70c d7bb
000003c0: 708f c4bb 8622 48bc a7f1 16bc c1d2 d13b
000003d0: 043e 2bbc b205 23bc 5caa 4b3c 1c7d 5fbc
000003e0: 581a 313c 6a35 1abc 1027 d7b8 4721 093c
000003f0: 612f 0d3c 1360 83ba 1bfc 693c b1e7 2c3c
-0.0041227713 -0.011904394 0.0042141383 0.013487402 0.012046134 0.010753462 0.011496434 -0.012249163
0.012654217 -0.005388398 0.011600298 0.01071781 0.010460451 0.0066059246 0.012982384 0.0054851384
0.010666044 -0.011866847 -0.011078114 0.009902522 -0.0096196 -0.011729208 0.013827719 -0.010008328
-0.008950789 0.0109362835 -0.0062703397 -0.012817462 0.009381115 0.011217361 -0.00873101 -0.005973988
0.008516974 -0.0119128525 0.013139717 0.010416428 -0.010681545 -0.005910765 -0.009273197 0.010853919
0.0140574295 -0.012962767 -0.009725219 -0.013706453 0.013586801 0.011867167 -0.0067899935 -0.014582628
-0.011683596 0.012309445 -0.012397253 0.00811175 -0.010685268 -0.012218386 -0.007976595 0.012996277
0.013828949 0.0102557745 -0.008641957 -0.0077564344 -0.011629712 0.010843105 -0.0037521059 -0.0077609234
-0.0017183038 0.0049508475 0.010761522 -0.010509108 -0.011854595 -0.015127229 0.01209456 0.012771492
-0.0015492443 0.011650852 0.011543513 0.010301404 0.011116624 -0.010829503 -0.008004593 -0.012502512
0.01134972 -0.010392712 0.010632726 -0.010330247 0.012352534 -0.011009263 -0.01056712 -0.011296541
0.011144197 -0.01476337 -0.011164359 0.010922785 0.011746323 -0.011474703 -0.006074691 0.007005159
-0.01152501 -0.010308555 0.009355961 0.009866569 0.0053698616 0.012331774 -0.014191288 -0.002926401
0.009152331 -0.0153567875 -0.012140015 0.0073516164 -0.011556833 -0.01135856 0.010003502 0.011247829
-0.0060343244 -0.010747629 -0.0119942 0.012180686 -0.007379825 0.0055062114 0.010487189 0.011555709
0.012030679 0.0063352603 0.009185463 0.00980986 0.009816717 -0.007853759 -0.0129933255 -0.0131358765
0.015269606 -0.009678075 -0.009166198 -0.008617373 -0.012878392 -0.004829997 -0.00910362 0.011339679
0.010275316 -0.008795736 -0.0057243635 0.0047707115 -0.009830792 0.008759099 -0.0104278615 0.013349814
0.009107914 -0.012597226 0.018533114 0.010649889 0.011643916 0.0108887525 0.010876495 -0.010051521
-0.007543529 0.011678885 0.010485119 0.010558132 0.009325634 0.012874266 -0.014891147 0.012450842
0.008134551 -0.009453466 0.011529636 -0.00856202 -0.009995506 -0.002320374 0.009597284 -0.012398713
0.012985954 -0.01251372 -0.007780982 0.012207902 -0.011262803 -0.011415906 0.0074667046 -0.009506015
0.011887111 -0.00950494 -0.0099269515 -0.0080954665 -0.008306645 0.008650817 -0.010320119 0.0069681993
-0.009099259 0.0089506395 -0.007447094 0.0100222165 0.011556949 -0.009812897 -0.008666489 -0.013572104
0.013426124 -0.009954756 -0.0063843303 -0.009500978 0.012109603 -0.010220353 -0.0011807146 0.01097383
0.0052174344 0.010390517 0.012277613 -0.012714086 -0.005935888 0.010870305 0.010426037 0.0111054145
0.011403924 -0.013304881 -0.006792188 0.008861485 0.011573027 -0.009784788 -0.009366795 0.010454367
0.012737189 -0.0049279206 0.014121706 0.011781073 -0.010082448 0.010371665 0.01736369 -0.010213226
0.011810127 -0.009188385 0.011558737 -0.0105460845 0.010742839 0.011017644 -0.014416624 0.019210806
-0.008072491 0.0075137517 0.012049734 -0.011568861 -0.008932443 0.008494861 0.009904425 -0.006562795
-0.0059985444 -0.012215262 -0.009212888 0.0064032977 -0.010451797 -0.009950088 0.012430754 -0.013640668
0.0108095035 -0.009412149 -0.00010259275 0.00836975 0.008617253 -0.0010023139 0.014281298 0.010553286

network_body._body_endoder.seq_layers.2.weight f4 [256, 256]
00000000: 5912 a2bb 6c8a 76bd 2a1d 73bd ba49 ff3d
00000010: ef92 043e a908 453d 064b 22bb 3e39 9bbd
00000020: 57b9 0e3d 05fc 20bd 2726 353c 3402 2a3d
00000030: effb 523d 3f3e d1bb c2c2 0b3d 119e 423d
00000040: 53eb e53d eb05 dabd 4ab6 9d3d 9a91 943d
00000050: 4ed0 30bd 5e17 6ebd 45a3 453d b089 6ebd
00000060: 47ae dc3c 9a88 c03d 354e babd 1a26 88bc
00000070: ae32 abbb a344 6f3d 97fe 02bb 0a77 ac39
00000080: 9a04 6a3c 6189 203b 7bc4 6a3d dccd 253c
00000090: ba69 c53a 3653 f83d 59e3 13bd eec4 b3bc
000000a0: 1003 88bc 65b9 82bd 1c59 42bd c11b a1bc
000000b0: 48de 90bc b5cb 373c f1cb 5f3d 5e52 afbb
000000c0: cb35 333e 4af7 d23d 008a eb3d f420 a93d
000000d0: eab7 d1bc 7c8c 7f3c 5e4f 82bd 05c6 073e
000000e0: eab1 583d 689b 1d3c e11c debb a5e6 853d
000000f0: 082c 29bd 6af8 51bd d28d 1cbd 0ac3 a63d
00000100: ea04 90bd 5525 1abe 9828 0f3d 01ee c2bd
00000110: 3d5c 73bb a7a1 eabd fc59 423d a23f a63c
00000120: c004 eb3d ab49 833d 621e 8c3c 2f0d b2bd
00000130: 2cd8 e83d b2c0 c63b 3f48 003d 318a b23d
00000140: ba7c 343e 0f2d 163c 317a ae3c d055 6b3d
00000150: b124 603d 5a1f 53bc fc96 57bd a847 babd
00000160: 5249 3d3c fafe 2bbc e342 893d b8cc 6d3d
00000170: f02c a3bd b212 57bd 9a3f e93c aaeb 243e
00000180: 4256 353c 885d d43c 3150 7e3d 64c3 563a
00000190: 04ae 863d 5909 c63d 42e6 dcbd aed0 bdbc
000001a0: 01b7 a73c 5724 623d d2be 053d eec7 7ebd
000001b0: 0105 203d ccae b43c 3a60 f43b 46ea 0e3e
000001c0: 1e7b 9bbd 9ec4 ac3c bd11 8dbd 61e8 18bd
000001d0: ab0e 93bd b94f 2bbd 8f95 d13c 84ae 123d
000001e0: 8902 453d 5e4b 113d 2219 3f3e 5db3 e93d
000001f0: 5890 d0bb 291e 4e3d 3d8f 2b3d d2f2 72bd
00000200: be80 b5bc dba0 a1bb 3393 c33a 6b8a 88bb
00000210: 1192 88bc b80e 56bd da85 cf3c f142 11bc
00000220: d508 b9bd 4600 5c3d f956 66bd baa1 1c3d
00000230: a5ae d8bc 7e7a be3c 6b37 4fbd de73 5abd
00000240: cacd 3d3d 43be 103d d404 42bc 12e0 15bd
00000250: 10f4 313e 44ab 033e 6e19 143d 33bd 983d
00000260: 8f65 803c bcf5 803d 5a1c aaba ed28 153d
00000270: a0b8 043d e9a5 84bc 0386 bbbd 5160 da3d
00000280: 5863 c1bc f371 4a3d d624 b83d 5a7c afbc
00000290: 355f a8bc 16de c4bc acc9 5f3d 08f7 f03d
000002a0: 3c6d aa3d f0dc 913b 8e53 c4bc 2d75 07bc
000002b0: 0930 0dbc da53 8cbc 0239 5e3d 7f7f f3bc
000002c0: 1e1f 873c b0a8 fdb6 34ea bc3b eacf d5bc
000002d0: a816 15bd 8503 10bd 3dac 83bd 62eb 00be
000002e0: da77 76bd 66f8 93bd 9898 92bd ab5f b13c
000002f0: 505a 0d3c 0ff0 003e 053d 16bc e6c7 d8bd
00000300: e170 d83c 6b77 8dbc dd10 363c 6bc1 26bd
00000310: 334f 233d 45de 9dbc 4a30 96bc 4ca5 093e
00000320: 7cc6 583d 6252 b73c 38b9 d4b9 e521 ae3d
00000330: d015 803d db5d 183d 5930 d5bc 3c83 7abd
00000340: 215e dcba 851f 1cbd 2e1d 0d3c ea1c 0f3d
00000350: 0ae0 71bd bc81 f0bc 15af f33b c6e4 aabc
00000360: cbcf b03d 525d 24bd 21ff d43d b064 01bd
00000370: 0894 d03d 63f9 183d 137b 4939 0734 e1bd
00000380: db1c 613c f625 4f3c 7c5a a23d bda4 81bd
00000390: ed2a f3bd 6121 b93d 3a82 aebd f745 1a3d
000003a0: bd35 dfbd 0268 8ebd 54df f73d bdb4 eb3b
000003b0: ce4f 76bd 5794 4ebd f1ea a13c b2b1 1c3e
000003c0: 8998 c2bd 1f92 11bd d67b b6bd 67dc bc3c
000003d0: 22fa 353c 8552 b6bc de6b 9bbc 3858 89bd
000003e0: 8de2 cf3d 9fed b0bd dbc6 25bc 3159 f6bd
000003f0: fa96 be3d a8d5 b43c fb4d ec3d 719f 043d
-0.004946035 -0.060190603 -0.059353985 0.12465234 0.12946676 0.048103962 -0.0024763956 -0.075792775
0.034844723 -0.039302845 0.0110564595 0.041506007 0.051509794 -0.006385594 0.034121282 0.047514025
0.11226525 -0.1064566 0.077007845 0.07254334 -0.043167405 -0.058127753 0.04825141 -0.058236778
0.02693857 0.09401055 -0.09096948 -0.01661973 -0.0052245473 0.058415066 -0.0019988173 0.00032895087
0.014283324 0.0024495947 0.057316285 0.0101198815 0.0015061416 0.12125246 -0.036105487 -0.02194449
-0.016603023 -0.063830175 -0.047448263 -0.019666554 -0.017684117 0.011218001 0.054637853 -0.005350395
0.17500989 0.10301073 0.11500931 0.082582384 -0.025600392 0.015597459 -0.06362794 0.13259132
0.052904047 0.009619571 -0.006778345 0.065381326 -0.041301757 -0.051262297 -0.038221188 0.081426695
-0.07032187 -0.15053304 0.034950823 -0.09518052 -0.0037133836 -0.11456614 0.047449097 0.020294014
0.11475515 0.064105354 0.017104331 -0.08693921 0.113693565 0.0060654515 0.0313189 0.08717764
0.17625704 0.009166016 0.0212985 0.057454884 0.05472249 -0.012885893 -0.052634224 -0.090956986
0.011553125 -0.010497803 0.06702211 0.058056563 -0.079675555 -0.052508064 0.02847271 0.16105524
0.011067929 0.025923505 0.062088195 0.00081925676 0.065761596 0.09669752 -0.10786106 -0.023170795
0.020473005 0.055210438 0.032652684 -0.062202387 0.039067272 0.022056006 0.00745776 0.13956556
-0.07591842 0.021089848 -0.06888149 -0.03733099 -0.07180532 -0.041824076 0.02558401 0.035810962
0.04809812 0.035472266 0.18661931 0.11411164 -0.0063648634 0.05032173 0.04188465 -0.059313603
-0.022156116 -0.0049325055 0.0014921188 -0.0041668913 -0.016671212 -0.05226013 0.02533238 -0.008866058
-0.09034888 0.0537112 -0.056235287 0.038240172 -0.026450465 0.023251768 -0.05058996 -0.053333156
0.046338834 0.035337698 -0.011841971 -0.036590643 0.17378259 0.12858301 0.036157064 0.07457962
0.015673427 0.0629687 -0.001297842 0.036415983 0.032402635 -0.016192393 -0.0915642 0.10662902
-0.023606941 0.049425077 0.08991401 -0.0214216 -0.02055321 -0.02403168 0.05463569 0.117658675
0.08321616 0.0044513866 -0.023965623 -0.008267683 -0.0086174095 -0.017129827 0.054253586 -0.02972388
0.01649433 -7.5596254e-06 0.005765224 -0.026100118 -0.03639856 -0.035159606 -0.06429336 -0.12589791
-0.060172893 -0.072251126 -0.07158011 0.021652063 0.008627489 0.12591575 -0.009169822 -0.105850026
0.026421012 -0.017268857 0.011112419 -0.0407118 0.039870452 -0.019271025 -0.018333573 0.13441962
0.052923664 0.02237815 -0.0004057379 0.085025586 0.062541604 0.037198883 -0.02602403 -0.06116031
-0.001681272 -0.038115997 0.008612914 0.034939684 -0.05905155 -0.029358737 0.007436643 -0.02086104
0.08633383 -0.04012806 0.104002245 -0.031590164 0.10184485 0.03734721 0.00019214702 -0.109962516
0.01373979 0.012643328 0.07927415 -0.063302495 -0.11873422 0.0903957 -0.085209325 0.03766438
-0.10898922 -0.06953432 0.12103143 0.0071931765 -0.0601347 -0.050434437 0.01976535 0.1530216
-0.0950175 -0.035539743 -0.089103386 0.023054315 0.011107 -0.022256145 -0.018972334 -0.067062795
0.10150633 -0.086390726 -0.010118212 -0.12028731 0.0930614 0.022074535 0.11538311 0.032378618

network_body._body_endoder.seq_layers.2.bias f4 [256]
00000000: 445e 8c3c 0014 2dba be1e 003b 0a90 3e3a
00000010: 5045 4b3c 425d 36bc 95d7 113c 81fa fe3b
00000020: bf5b 50bc 4ba6 2a3c 8a00 5a3c 471b 2ebc
00000030: d7ff 12bc 4614 19bc 9d0f 8f3a dc30 2e3c
00000040: 4814 70bc 3aec 353c da03 0b3c 8988 1dbc
00000050: 1af3 043c a7f6 26bc 77e3 ac3b de5b 2d3c
00000060: a89c 2fbc bfd8 25bb 7bfb 89bb f0a2 313c
00000070: 4fc7 303c dbce 243c c192 f53a f0f1 3bbc
00000080: 2ee4 263c 9cd5 24bc 514b 44bc 29a9 12bc
00000090: 89b3 4c3c 7dd8 1c3c ee14 50bc 7138 303c
000000a0: 8407 313c 5306 003c b5e2 293c 5fb3 10bc
000000b0: 86a0 2b3c 6759 103c c19e 12bc 5272 11bb
000000c0: 229c 2cbc e811 62bc 7479 92bb 89b2 27bc
000000d0: cb25 39bc 5b4b 1abc b14d 43bc 603b 443c
000000e0: cbda 3b3c 9067 36bc 7a12 513c 99ad 403c
000000f0: 4bac 3dbc 2bc7 643c 6681 2abc 1c8f 22bc
00000100: 86bf 09bc c3ca 41bc 7d82 213c 0bb4 353c
00000110: afaf 423c 2be3 2bbc 9ba9 42bc 4023 39bc
00000120: c2b7 2f3c 03c7 30ba cb1f 2b3c a3a6 223c
00000130: 0a8a 60bc d9a5 b23b df96 373c 2fdd 78bc
00000140: 1cf3 343a d412 483c efbe b5bb 3e1f 363c
00000150: 4857 0fbc 9ee1 29bc cc18 e13b 8c72 32bc
00000160: 6674 423c bb7b 233c a557 423c 2e22 0abc
00000170: 26c5 42bc e50d 263c 4adc 22bc 6ec3 32bc
00000180: 4f66 9c3b 15b6 05bc e1c8 2dbc 5507 22bc
00000190: 5c48 26bc ce6f 3a3c c025 303c de7d 2fbc
000001a0: 9042 313c e2a7 463c ca77 2e3c 3713 64bc
000001b0: 6094 37bc 152f bf3b fe65 413c 15e1 33bc
000001c0: b932 09bc 4856 273c 866d 313c aacf 383c
000001d0: 13cf 0a3c 0c05 2c3c 4e49 23bc 5a35 073c
000001e0: 84fd 2d3c fb49 3e3c e9f6 863c da43 2c3c
000001f0: 627b 27bc 42b0 0f3c c36b be3a 56d3 1bbc
00000200: de95 39bc 00bf 95bc 188c 2dbc 2494 34bc
00000210: 9d2d 353c ccf9 4abc 9557 0c3c 5c19 a8bb
00000220: 67a6 31bc 938d 393c aca8 0e3c 4cfb 4cbc
00000230: be43 1a3c c3ac 37bc 0ee5 3d3c 366e ddbb
00000240: 765f 8c3b 76eb 41bc a99e 093c c69f 413c
00000250: 2466 1d3c 6d76 2a3c 6745 313c 04c1 853b
00000260: 296e 0f3c ba90 413c d37d 1bbc 831d 003c
00000270: 92a7 bb3b 491e 2bbc fde0 56bc 4890 31bc
00000280: 4072 003c 87bd 27bc 0cf7 ac3a 0b24 183c
00000290: e4d7 3bbc 82be faba 6e9c 3abc d085 503c
000002a0: 70bc 38bc f2b6 273c 66ee 33bc 4701 223c
000002b0: fb2c 613c 99d2 393c 5691 2ebc 923e 40bc
000002c0: 559a 31bc 45b5 1abc e97e 3f3c 35b8 213c
000002d0: 40a7 30bc 927f 263c e82e 253c 209f 0abc
000002e0: 52cd 48bb ef85 fe3b 6a4f 6f3c 0c6b 373c
000002f0: 29bc 40bc 4e48 393c cc14 863c a556 2d3c
00000300: 8a3f 15bc dd84 393c 8661 37bc 69f5 e6ba
00000310: 0bb5 493c f271 27bc 0de1 23bc f4cc 57bb
00000320: 42cc 393c bad3 a03b f724 e63b 46e9 353b
00000330: 3a2d 80bc 2cc6 023b 5d75 cf3a 5ffc 79bc
00000340: 8fba 323c 03b3 443c 56e7 d53b 63bd 413c
00000350: 0efc 3a3c f495 1b3c da9e 2f3c 1769 29bc
00000360: b62b 27bc 2a11 213c 10ec 25bc 660b 143c
00000370: 2787 bfbb a977 06bc b19f a83b a52b 323c
00000380: 7c1d 2c3b 6a00 343c 6618 37bc ef7a 47bb
00000390: 953d 3b3c 10d4 36bc df50 05bc 7dfa 2abc
000003a0: 4327 36bc d56d 63bb 1fac 0ebc 5088 babb
000003b0: dcc6 3ebc ba8a 00bc 711a 2dbc 86a0 59ba
000003c0: e80d 383c 55c6 3dbc 69f4 983c 5528 353c
000003d0: f098 31bc 68f3 3b3c e4ab 343c 9f6e 3abc
000003e0: f4c2 3fbc c76b 2bbc 1f16 62bc 15ca 213c
000003f0: 3a59 33bc 5324 3b3c e860 343c f196 9b39
0.017134793 -0.00066024065 0.0019549574 0.00072693883 0.012406662 -0.011130633 0.008901496 0.0077813272
-0.0127171865 0.010415624 0.013305793 -0.010626621 -0.00897213 -0.0093432125 0.0010914687 0.010631766
-0.014653273 0.011103684 0.008484805 -0.009615072 0.008114601 -0.010190642 0.0052761394 0.010580985
-0.010718502 -0.0025306193 -0.004210887 0.01084207 0.010789706 0.010059084 0.0018735753 -0.011471257
0.010186238 -0.010060694 -0.011980847 -0.008951464 0.012493976 0.009573099 -0.0127003025 0.010755644
0.0108050145 0.007814008 0.010368993 -0.008831828 0.0104752835 0.008810378 -0.008948983 -0.0022193384
-0.010535272 -0.0137982145 -0.0044700447 -0.010235437 -0.011300514 -0.00941738 -0.011920379 0.011977047
0.0114657385 -0.01113309 0.012760753 0.011760139 -0.011576722 0.013963501 -0.010406828 -0.009921815
-0.008407479 -0.011828127 0.009857771 0.011090289 0.011882707 -0.010491173 -0.011881257 -0.011299908
0.010724964 -0.0006743522 0.010444592 0.009927425 -0.013704786 0.0054518995 0.011205404 -0.015189453
0.0006902681 0.01221152 -0.0055464427 0.011115847 -0.008748837 -0.010368733 0.006869411 -0.010891568
0.011868572 0.00997823 0.011861716 -0.008431001 -0.011887824 0.010135149 -0.009940216 -0.010910852
0.0047729383 -0.0081610875 -0.010606975 -0.009889443 -0.010149088 0.011379195 0.010751188 -0.010711161
0.010819092 0.012124987 0.010648677 -0.013920597 -0.011204809 0.00583447 0.011804102 -0.010978957
-0.00837391 0.010213442 0.010829335 0.01127998 0.008472222 0.01049925 -0.009966208 0.008252466
0.010619525 0.011614318 0.016475158 0.010514224 -0.010222288 0.0087700505 0.0014527965 -0.009510836
-0.011327235 -0.018279552 -0.010592483 -0.011021648 0.011058238 -0.012388658 0.008565803 -0.005129976
-0.010842896 0.011325258 0.008707207 -0.012511086 0.009415565 -0.011210623 0.011590255 -0.006757523
0.004283841 -0.011835923 0.008399644 0.011817878 0.009606872 0.0104042115 0.010819769 0.004081847
0.008754292 0.011814291 -0.009490448 0.007819536 0.005726763 -0.010444232 -0.013115165 -0.010837622
0.007839739 -0.010238058 0.0013196184 0.009285937 -0.011465047 -0.0019130262 -0.011389835 0.012727216
-0.011275396 0.010236489 -0.010982132 0.009888 0.013743634 0.011341714 -0.010654768 -0.011733668
-0.010840018 -0.009442632 0.011687973 0.009870579 -0.010782063 0.010162251 0.010081984 -0.00846079
-0.0030639959 0.007767431 0.014606336 0.011194956 -0.011763611 0.011308743 0.016367339 0.01057974
-0.009109387 0.011323181 -0.011192685 -0.0017620745 0.01231123 -0.010220038 -0.010002387 -0.0032928558
0.011340203 0.0049080523 0.0070234495 0.002775745 -0.015646566 0.0019954545 0.0015827824 -0.015257924
0.010908737 0.01200557 0.0065278215 0.0118249385 0.011412634 0.009496201 0.0107190255 -0.010339997
-0.010203293 0.009830752 -0.0101270825 0.009035921 -0.005844969 -0.00820724 0.00514599 0.0108746635
0.0026262691 0.010986427 -0.011175251 -0.0030438264 0.0114282565 -0.011158958 -0.008136957 -0.010435698
-0.011117759 -0.0034702916 -0.008708029 -0.0056925192 -0.011644091 -0.007845575 -0.010565386 -0.0008301813
0.011233784 -0.011582931 0.018671231 0.011056979 -0.010839686 0.011471607 0.01102731 -0.011378913
-0.011704195 -0.010462708 -0.013799219 0.00987484 -0.010946566 0.011422235 0.011009432 0.00029676364

network_body._body_endoder.seq_layers.4.weight f4 [256, 256]
00000000: 7778 353c 0cb4 753d 6afd 9bbb 05f5 2b3c
00000010: 60ce c93b dedf d0bd fdc3 253d e0b7 ac3c
00000020: 0ecd 4f3d 7070 343d b05b af3c 99c2 19bd
00000030: 1e9b 69bd 52fc 5c3c 73b1 513c 1433 933c
00000040: 35ab 3abd 433b 08bc e71d 953d 1e43 adbd
00000050: 0c63 0d3e da72 b5bd 1eb3 4ebd 19f4 d33c
00000060: 89e0 163c 02a7 4539 57bb 8a3d 30e5 033d
00000070: 773b bb3d b318 27bb b391 f23d 4ff8 593d
00000080: 7887 573d 6ec2 05be 0e73 c73c 5f75 18be
00000090: cfdc 2e3d a635 433d 7d99 78bd 2969 983d
000000a0: b0b8 efbc e087 943d ba08 58bd 73b9 043e
000000b0: 9afd 273d 6cf1 b0bc b4ee 0d3d bdc8 1b3d
000000c0: daad bcbd bc6d fabc fcc1 883d 06be 5f39
000000d0: e5d0 84bd 8c2f 2a3d d19e dd3c 4246 0b3a
000000e0: 40f1 903d 0a35 a1bd 754e 8cbc 2b1a 8fbb
000000f0: 1328 183d 8736 083d b49b 7bbc fa69 7b3d
00000100: 0b21 11bd 4733 1dbb e122 113e 5ed9 0cbd
00000110: 612e 86bd a1c8 473d a191 34bd c33e 573d
00000120: d3fc fb3c 2903 0f3d b05d 8dbd ada8 ebbb
00000130: f3a8 84bd 9e8e b9bc 04ae 223c 7d24 a03a
00000140: 0cf1 4cbd 7ced 263d 1ff3 7d3d f7e4 34bd
00000150: 4c9d 8cbc e0a4 143c 59f3 ff3b 775b 27bd
00000160: b6e1 88bc b1a0 453d 5b72 a4bd 683e 2dbb
00000170: e4fc 363d 6661 acbd 7127 31bd 6f20 743d
00000180: b49a d13d c914 92bc 75f2 993c 25f0 893c
00000190: 43ec a0bd 5b66 973d 1553 9abd 5df1 3fbd
000001a0: 19a2 f7bd ecb2 433d c12e 7f3c c6c2 abbd
000001b0: 28fe b1bc 049c 97bb 0a2e 853d 1908 7dbd
000001c0: 3c4f 123d ac65 633c 8c86 56bc 6969 363b
000001d0: 4dc7 813d e4a7 e63c dbb2 1a3d 3374 f8bc
000001e0: 6aa2 1c3d f64c 9f3d 909e a93c 791f 73bd
000001f0: 1db2 a73c 9f8b 66bd 25b3 c13c cad2 e93d
00000200: f1f5 6a3c fcf7 92bd 69e4 80bd 6d9b 16bd
00000210: 7e5e 2d3d da09 dc3a ec2e b43d 8ebb 023e
00000220: eada c23d 6b5b abbd 5171 a4bc 1a39 18be
00000230: 90de 1e3d 435a 10be da7e 39bc ceed 88bd
00000240: 6630 073e a497 073d d997 903d 9345 a63d
00000250: 4cf4 003d 269c 9c3d 8502 09bd 1f06 983d
00000260: b0e2 833d 76b6 41bd 7c51 0bbd 59d7 52bc
00000270: 8d9f ad3b db57 a6bd a0bd 8f3c f595 8abd
00000280: 3fa0 f8bc 2167 72bd f287 b0bc 9dd7 96bd
00000290: b382 e9ba d849 833c dfa5 02bd aa10 183e
000002a0: badf 2abc b289 04bd c9d8 c2bc 9413 283c
000002b0: b1cb a5bd 08ad 9d3d eafd a7bd c5d5 b1bd
000002c0: 4163 903d 8142 003d 2b52 213d 32ba 143d
000002d0: d7b6 d9bd cff1 a43d 89d5 5cbd 9060 05bd
000002e0: a8c9 1cbc c0ba 75bd 906a d33d c8c5 a03d
000002f0: 7381 c5bd 049a e03b e7a9 843b 7cea debc
00000300: 84c7 a83c 6979 6b3d 0f21 523d 980e bbbc
00000310: e478 873d 40d1 3e3d 8498 cfbc 8662 7739
00000320: 1b33 84bd 6dd0 1fbd 8b89 173d b4b8 5abd
00000330: 9751 f9bc 7f1d f83d 0c3c ea3b b709 71bd
00000340: 600b 17bb 7781 cf3d d880 353d fc00 02bc
00000350: d1e1 0ebc 6b56 9cbc 8923 c63d d79f cebd
00000360: 5331 673a 2126 3e3d 1809 503c 5421 b73d
00000370: f14e b13d 4422 89bd 177a 39bd 34b7 1b3c
00000380: 18bd 8a3d cfc0 53bd 4682 7abd 2a47 89bd
00000390: d232 90bd e1a2 933d f61a 9dbc 9b1d c1bd
000003a0: 8125 70bd 37b8 303e f1f7 99bd a6b7 553d
000003b0: e042 a0bd ba57 b73b cbc7 ca3c 2637 f6bd
000003c0: d49e 0f3d 1dcd c3bc 27a4 c93b c540 053b
000003d0: 409e 79bb 81ac 8ebd 73b3 013e 6694 c3bc
000003e0: 195e c1bc ba2b 823d f9be 653d 5496 5a3d
000003f0: f522 44bd 20b3 cd3d 2b6a bf3d c1be 3e3d
0.011076084 0.05998616 -0.004760434 0.010495429 0.006158635 -0.10198949 0.040470112 0.021083772
0.050732665 0.04405254 0.021406025 -0.0375391 -0.057032697 0.013487892 0.012798655 0.017968692
-0.045573432 -0.00831491 0.07281094 -0.08460067 0.13807315 -0.08859797 -0.05046379 0.02587323
0.009208807 0.000188496 0.067740135 0.032200992 0.091422014 -0.00254969 0.11844196 0.05321532
0.052619427 -0.1306245 0.024346855 -0.14888524 0.04269105 0.047658585 -0.060693253 0.07441933
-0.02926287 0.072524786 -0.052742697 0.12961368 0.041013338 -0.021599494 0.034651473 0.038033236
-0.09212847 -0.030569904 0.066776246 0.00021337727 -0.06485156 0.04154925 0.027053269 0.00053128984
0.07077265 -0.078714445 -0.017127255 -0.004367133 0.037147593 0.033255126 -0.015356947 0.061380364
-0.035431903 -0.0023986863 0.14173461 -0.034386985 -0.06551815 0.04877532 -0.044084195 0.05255009
0.030760204 0.034915123 -0.06902635 -0.0071917386 -0.06477537 -0.022651013 0.009929184 0.0012217906
-0.050034568 0.040753826 0.061999436 -0.04416367 -0.017164849 0.009072512 0.0078109917 -0.040858712
-0.01670919 0.04824895 -0.08029624 -0.0026434902 0.04467477 -0.08417015 -0.043250505 0.059601244
0.102345854 -0.017832177 0.01879237 0.016838143 -0.07857563 0.0739257 -0.07535378 -0.04686104
-0.120914645 0.047778055 0.015575112 -0.083867595 -0.021727636 -0.004626753 0.06502922 -0.0617753
0.035720095 0.013879221 -0.013093602 0.0027833825 0.06336842 0.028156228 0.037768226 -0.030328846
0.038240828 0.07778351 0.020705491 -0.059356187 0.020470673 -0.056285497 0.023644993 0.11417158
0.014340864 -0.071762055 -0.06293566 -0.03676932 0.042326443 0.0016787604 0.08798012 0.12766859
0.09514411 -0.08367046 -0.020073565 -0.14865533 0.03878647 -0.14096932 -0.011321748 -0.06685983
0.13202056 0.0331036 0.07060213 0.08118739 0.03148298 0.076469705 -0.03344967 0.074230425
0.064397216 -0.04729315 -0.034013256 -0.012868726 0.005298561 -0.08122226 0.017546475 -0.06766883
-0.030349849 -0.059180383 -0.021549199 -0.07365344 -0.0017815441 0.016026422 -0.03189647 0.14850107
-0.010429317 -0.03235788 -0.023785012 0.010258574 -0.08095492 0.07699019 -0.08202727 -0.086833514
0.07050181 0.031313423 0.039385002 0.036310382 -0.10630577 0.08053934 -0.05391458 -0.032562792
-0.009569563 -0.05999255 0.103230596 0.07850224 -0.09643831 0.0068542976 0.0040485743 -0.02721142
0.020602949 0.057488833 0.05130106 -0.022834107 0.06614855 0.046586275 -0.02534128 0.00023592458
-0.0645506 -0.03901713 0.036996406 -0.053398803 -0.030434413 0.12115001 0.0071482714 -0.058847155
-0.0023047552 0.10132115 0.044312328 -0.007934805 -0.008720831 -0.019084176 0.096747465 -0.10089081
0.00088193006 0.04642308 0.012697481 0.08941904 0.08657635 -0.06695989 -0.04528245 0.009504128
0.06774348 -0.05169755 -0.061159395 -0.067030266 -0.07040943 0.07208801 -0.019177895 -0.09429475
-0.058629517 0.17257772 -0.07517994 0.052177094 -0.078252554 0.0055951746 0.024753472 -0.120222375
0.03506358 -0.023901517 0.0061536017 0.0020332795 -0.003808871 -0.06966496 0.1266611 -0.023874473
-0.02360444 0.063559964 0.05609033 0.05336602 -0.0478849 0.10043931 0.09346422 0.046568636

network_body._body_endoder.seq_layers.4.bias f4 [256]
00000000: 11f6 333c c8fb 3a3c 9b36 363c f553 323c
00000010: e9b9 083c d4ba 35bc 3f8d 303c e313 2ebc
00000020: 9a16 313c d78c 36bc df6c 303c 1622 2fbc
00000030: 61d6 2c3c 603d 323c f60f 62bc b8df 333c
00000040: ff1c 35bc 7f2f 31bc 43ad 2dbc 9d67 313c
00000050: c0bb 303c f356 90bc ed29 303c 689d 33bc
00000060: 9324 323c a877 2cbc 4343 413c 624e 2fbc
00000070: 6703 323c d20b 33bc 3f83 33bc 9ed5 2ebc
00000080: a60e 32bc b1a3 33bc 1dc8 8abc 3728 43bc
00000090: 7c91 30bc 5095 30bc 190c 0f3c dac3 373c
000000a0: 4973 393c 1c73 93bc 5918 313c c9d7 c13b
000000b0: 422c b63b b270 323c 0ec8 2bbc e89a 34bc
000000c0: 80c5 2fbc fc76 3b3c 10e8 89bc cbe7 393c
000000d0: 0f62 313c bb7c 4c3c 2f28 0d3c fc67 2ebc
000000e0: 7447 313c a934 2d3c 7cda 303c 0149 323c
000000f0: d6a9 2b3c f02f cd3b a969 383c 700b 31bc
00000100: 7497 28bc 27f4 203c 9572 2f3b 4e5e 323c
00000110: 37f0 4ebc 9f65 1d3c 10e0 35bc d3c2 2e3c
00000120: c631 29bc fcaa 2cbc 4e8b 313c 5d04 2ebc
00000130: 0d0f 353c ab15 33bc c1b5 353c 69f9 303c
00000140: c72d 2dbc 7788 2fbc dbc4 31bc ae6b 363c
00000150: df3d 30bc 39d2 353c d508 4cbc 3966 2dbc
00000160: fcb1 1cbc 3843 333c 8d6b 2dbc fb66 33bc
00000170: 71a8 2c3c 455c 303c 2acf 30bc 5ef8 d7bb
00000180: f1ac 333c 1eaf 2fbc 483f 313c d50c 33bc
00000190: 8823 3abc b241 31bc 53dd 2b3c 6d6c 333c
000001a0: bc40 093c e13f 373c 393b 27bc 1baa 30bc
000001b0: 7542 803c 345d 30bc d41a 313c 7c3c 133c
000001c0: 1984 353c d0a4 323c 9730 39bc 66ae 30bc
000001d0: 275b 32bc e034 30bc 7d75 313c ec07 39bb
000001e0: 809e 323c 3b7b 3cbc cad6 32bc 2832 303c
000001f0: 2262 363c 45ea 2fbc 549e 2dbc 09eb 323c
00000200: 9994 323c 84ce 323c 7dda 383c 5487 2cbc
00000210: 0527 1f3c ec03 14bc aa6e 363c 7eae 233c
00000220: 0609 303c 01c2 263c 2c44 31bc c308 343c
00000230: 440a 35bc b83e 36bc 1370 2fbc 1f68 b33b
00000240: fd0b 30bc 410d 323c 7acc 64ba 3e1b 2fbc
00000250: af00 323c 38c1 2bbc 6992 1b3c e8b5 353c
00000260: feed 2cbc 36da 323c e088 2dbc 861b 363c
00000270: 25fb 30bc d39b 31bc b1cc 313c ee0b 30bc
00000280: 3f97 393c f911 313c b170 35bc 0f25 32bc
00000290: ce0f 1a3c e18e 343c 90fa 30bc 7871 2dbc
000002a0: 1d88 30bc 1dcd 333c 30b8 31bc 67cf 303c
000002b0: 8e63 323c 01f3 303c 07ef 31bc af2d 31bc
000002c0: 16e1 2b3c 57af 2fbc bda3 35bc 24e5 003c
000002d0: a998 f8bb 4aec 243c ae69 2ebc a798 22bc
000002e0: 0583 17bc 7074 37bc 9c5f 31bc 683d 933c
000002f0: e48b 33bc f3f2 353c 3785 a93b 6d24 31bc
00000300: 911a 333c 8bc2 1a3c cbf1 313c 3829 8fbc
00000310: 0f6f 29bc 2516 303c 90f6 37bc 56a4 c93b
00000320: 02c1 2d3c 3bbd 32bc 80ff 0d3c 46e8 023c
00000330: 168b 583c 2e6a 4c3c 6505 2ebc 2d7a 313c
00000340: ce37 35bc 139b 90bb ea8d 33bc 3214 9cbc
00000350: 68ee 343c ba35 323c e81e 2f3c e6b9 29bc
00000360: 718d 2fbc 129b 2fbc 2907 323c 19a2 91ba
00000370: 01e3 373c e796 f53b 64b3 303c fa43 30bc
00000380: 6a4e 2f3c 646b 303c c33b 35bc 2ac4 413c
00000390: 286d 34bc f0fe b33a d36f 2fbc 1100 373c
000003a0: a865 2dbc ac84 d93a 6e19 363c 222a 30bc
000003b0: aa4f 33bc e09a 273c 57ba 35bc d17c 323c
000003c0: 5591 03bc 8655 32bc a585 32bc c18e 32bc
000003d0: 9dcd 2ebc 6abc 313c fd20 2fbc 2672 d4bb
000003e0: 542a 98bc 49fb 293c 682f 393c 3b6b 36bc
000003f0: 834f 36bc 2bf4 473c 9648 2b3c 0ac0 363c
0.01098396 0.011412568 0.011121417 0.010884275 0.008345106 -0.011091907 0.010775863 -0.010624859
0.010808611 -0.011141977 0.010768144 -0.010689279 0.010549159 0.010878891 -0.013797751 0.010978632
-0.0110542765 -0.010814547 -0.010600391 0.010827926 0.010786951 -0.017619586 0.010752183 -0.010962822
0.010872978 -0.010526575 0.011795822 -0.01069984 0.010865069 -0.010928111 -0.0109565845 -0.0106710475
-0.01086775 -0.01096432 -0.016941125 -0.011911443 -0.010776874 -0.010777786 0.008730912 0.011216128
0.01131899 -0.017999224 0.010809028 0.005915616 0.005559475 0.0108911265 -0.0104847085 -0.011023261
-0.01072824 0.011441942 -0.016834289 0.011346768 0.010826602 0.01248091 0.008615538 -0.010644909
0.010820258 0.010571637 0.010794278 0.010881663 0.010477504 0.006261818 0.01125566 -0.01080595
-0.0102900155 0.009823835 0.0026771177 0.010886742 -0.012630514 0.009606748 -0.011100784 0.010666567
-0.010326808 -0.010538813 0.0108364355 -0.0106211575 0.011050952 -0.010930459 0.011090697 0.0108016515
-0.010569996 -0.010713688 -0.010850157 0.011134071 -0.010756939 0.011097484 -0.012453278 -0.010583454
-0.009563919 0.010941319 -0.010584724 -0.010949845 0.010538206 0.010764186 -0.010791579 -0.006590887
0.010966525 -0.010722904 0.01081831 -0.010928352 -0.01136101 -0.010818886 0.0104897795 0.010951144
0.00837725 0.0111846635 -0.010206991 -0.010782744 0.01565669 -0.010764409 0.010809619 0.008986589
0.011078858 0.010903552 -0.011303089 -0.010783767 -0.01088599 -0.010754794 0.010831234 -0.0028233482
0.010902047 -0.01150399 -0.0109154675 0.010754146 0.011131795 -0.010737007 -0.01059683 0.010920295
0.010899686 0.010913495 0.01128256 -0.010530312 0.009713893 -0.009034138 0.011134783 0.009990333
0.010744339 0.01017809 -0.010819476 0.010988417 -0.011049811 -0.011123352 -0.010707873 0.0054750587
-0.010745046 0.010867418 -0.0008727979 -0.010687647 0.010864421 -0.010483079 0.009495356 0.011090733
-0.010554789 0.010916283 -0.010591716 0.011114961 -0.010802065 -0.010840374 0.010852025 -0.010745032
0.011327564 0.010807508 -0.011074231 -0.010873093 0.009403182 0.011020393 -0.010801926 -0.010586135
-0.010774639 0.010974196 -0.010847136 0.010791636 0.0108879935 0.010800124 -0.010860211 -0.0108141145
0.010490676 -0.010722957 -0.0110864015 0.007867131 -0.007586558 0.010066101 -0.010645313 -0.0099240905
-0.009247546 -0.011197194 -0.010826018 0.017973617 -0.0109586455 0.011105287 0.005173351 -0.010811907
0.010931627 0.009445797 0.010860871 -0.01747571 -0.01034142 0.010747467 -0.011228219 0.0061536236
0.010605099 -0.010909374 0.008666873 0.007989949 0.013216754 0.012476487 -0.010621403 0.010832352
-0.011060668 -0.0044130175 -0.010959128 -0.019052599 0.011043169 0.010877067 0.010688521 -0.010359263
-0.010714875 -0.010718124 0.010865965 -0.0011110931 0.011223556 0.0074947956 0.010784958 -0.010758394
0.010699848 0.010767791 -0.011061612 0.011826554 -0.011012353 0.0013732594 -0.010707813 0.011169449
-0.010583319 0.0016595325 0.011114461 -0.010752233 -0.010944286 0.010229796 -0.01109179 0.010894016
-0.008030255 -0.010884648 -0.010896121 -0.010898293 -0.010669139 0.010848144 -0.010689017 -0.006483334
-0.018574871 0.010374852 0.011302806 -0.011133964 -0.0111273555 0.01220421 0.010454318 0.011154184

action_model._continuous_distribution.mu.weight f4 [1, 256]
00000000: d1ba c33c f924 8f3c ee05 803c 1d92 d33c
00000010: af7e af3b 4ad4 a0bc c73f 963c d6e7 1abd
00000020: 8756 a63c 6132 9ebc 0f56 cd3c 1a6f bebc
00000030: 52ee 583c 68f0 943c 046e 2dbc ea0c 8b3c
00000040: 62d4 a0bc 87d3 ccbc 526b 51bc abc5 b63c
00000050: 0e2d 8a3c 1ecb 9abc f608 233d b9ae 7fbc
00000060: 7b7d ba3c 0a5f dfbc 0480 873c 5be7 71bc
00000070: 12af 543c e184 76bc e7e6 88bc dd85 d4bc
00000080: ad9c 9abc 3459 a7bc ee87 9abc f62e 6dbc
00000090: e04f efbc b53c a6bc 424a 1f3c 7924 8a3c
000000a0: e32b 363c 591e a2bc 88f8 e33c 044c 0e3c
000000b0: 4a37 5f3c f408 c33c 96a3 7bbc 6967 96bc
000000c0: dfdd 02bd 10c0 5e3c 0d3b 8abc 329e 613c
000000d0: 339d 643c 44f5 8d3c 151d 0e3c 8658 05bd
000000e0: 81de 8a3c c58d 833c 076a 943c 6d5d 9e3c
000000f0: 7b84 593c 815a fc3a 3cf9 9e3c 36c2 ccbc
00000100: 8990 7dbc 4c8a 143c 8de7 983a c47a 973c
00000110: 4872 33bc 54e9 433c 9bb9 87bc 1a06 453c
00000120: 2ad1 56bc f61a f0bc e5bc b83c d591 0fbd
00000130: 6c1b 583c fbfd 89bc 2a88 ba3c 8500 883c
00000140: 8542 ccbc 44d9 07bd 62f0 ccbc 8895 a53c
00000150: 5299 00bd fa06 8c3c 8f1a 9cbc e62b eebc
00000160: 9049 11bc 0108 a43c a3e1 e6bc af56 a5bc
00000170: fbbf 603c 9e94 733c d680 aabc 3348 643a
00000180: fc94 a33c 09a0 6bbc 0b7d 3b3d 136d 49bc
00000190: bbb5 38bc 6df2 07bd aba6 b03c 6dbc 873c
000001a0: 7dff 0a3c ebef c73c 363e 52bc 2af3 ccbc
000001b0: 1de3 983c 77ff 28bc ba42 cc3c c6d7 063c
000001c0: 7ee4 8e3c e325 ad3c 336a 6ebc c0d8 e7bc
000001d0: c352 c6bc 38c6 d4bc 478c 4b3c 755b a5bb
000001e0: 1160 573c f8f5 8bbc 2d66 82bc 7ef5 103d
000001f0: b2ed 8f3c 1dfd dabc 0b43 1bbd df11 b13c
00000200: b40f 8e3c 53c4 aa3c 0140 763c 0a8d 95bc
00000210: 3033 5d3c 8610 0ebc ce73 963c 75c0 2b3c
00000220: cf3a 053d 415b 4b3c 2ba8 a9bc 413c a03c
00000230: 19f9 89bc 9318 5cbc 6e6b a6bc 0268 583a
00000240: defc 92bc 715d a33c 6cb6 1e3c c30f a0bc
00000250: 95f5 8d3c 1a4b 53bc 19e7 183c 826c b83c
00000260: 6dcb 4fbc 3849 e83c 56dd e1bc 862f 843c
00000270: 3108 99bc 801c 96bc 4f87 f63c 3507 b6bc
00000280: fdd8 8d3c 9559 023d a702 b7bc ef99 73bc
00000290: 584d 483c 196b 453c e44a b4bc eb93 13bd
000002a0: 59ef bdbc 32e4 673c 90b1 78bc 09bf 473d
000002b0: 8e00 e63c c0ef 273d 2ead 74bc f915 92bc
000002c0: c072 7c3c c81e babc b41f 5ebc 1105 ec3b
000002d0: 33fb 76bc 0ae4 2d3c 8473 c1bc 7814 9bbc
000002e0: 5bbf 0fbc 4adb 9ebc c298 a0bc e427 933c
000002f0: 82c2 8cbc 2026 373c beb0 a6bb 2c13 a6bc
00000300: 5966 c03c dd63 233c 726c c53c 51a5 98bc
00000310: e6f8 36bc 7905 2d3d 5685 6cbc be93 1dbb
00000320: f717 613c 7126 89bc 363d 793c 5718 393c
00000330: cb3a 4a3c 28d5 863c 3dc7 27bd ec43 023d
00000340: ee41 92bc acb4 823b feb5 74bc a28d 9fbc
00000350: b19b d43c 2bbf 7c3c 3f68 973c 69d5 9dbc
00000360: a572 cdbc 012f c7bc f9eb be3c 8a3a e3ba
00000370: 5073 3c3c 9aa2 ff3b cfb6 fd3c 3f72 85bc
00000380: 7ed4 593c 58f8 db3c b9d9 a1bc e8da 573c
00000390: e7b1 8cbc 4cdc 9bbb a683 70bc 0196 c03c
000003a0: c00e ebbc ddde 373c 970a ad3c b534 c1bc
000003b0: 1146 89bc 45ae 253c 4af7 9abc 52a7 ad3c
000003c0: 65cf d2bb 1ed5 83bc 0c1a 98bc 1487 48bc
000003d0: e4db a0bc 663c d73c 270b ecbc 15b3 a7bb
000003e0: 9e6c 9abc 663b 8d3c c0f5 8f3c 1863 87bc
000003f0: 1306 6bbc c485 7d3c b6f2 a03c 4313 a83c
0.023892792 0.017473685 0.015627827 0.025826508 0.005355678 -0.019632477 0.018340958 -0.037818752
0.020304931 -0.019311132 0.02506545 -0.023246337 0.013240414 0.01818104 -0.010585312 0.016973931
-0.019632522 -0.025003208 -0.012781935 0.022311052 0.016867187 -0.018895682 0.039803468 -0.015605622
0.022764912 -0.027266998 0.016540535 -0.014764632 0.012981193 -0.015046329 -0.016711665 -0.025942737
-0.018873537 -0.020428278 -0.018863644 -0.014476528 -0.029212892 -0.02029262 0.009722294 0.016863095
0.011118862 -0.019789862 0.02782847 0.008685116 0.013624022 0.02380798 -0.015358826 -0.018359857
-0.031949874 0.013595596 -0.01687386 0.013770627 0.013953495 0.017328866 0.008673926 -0.032555126
0.016951801 0.016058812 0.018116964 0.019331658 0.013276215 0.0019253046 0.019405954 -0.02499495
-0.015476354 0.009066176 0.0011665687 0.018491156 -0.01095254 0.011957485 -0.016567996 0.0120253805
-0.013111392 -0.029309731 0.02255101 -0.035051186 0.013190132 -0.01684474 0.022770006 0.01660181
-0.024934063 -0.033166185 -0.025016967 0.020212904 -0.031396218 0.01709317 -0.019055633 -0.029073667
-0.008867636 0.020023348 -0.028183764 -0.020182936 0.013717647 0.014866976 -0.020813387 0.0008708268
0.019968502 -0.014381417 0.045773547 -0.012294072 -0.011273797 -0.03319018 0.021563848 0.01656934
0.008483765 0.024406394 -0.012832215 -0.025018293 0.018662984 -0.010314814 0.024934161 0.008230155
0.017442938 0.02113623 -0.014551687 -0.028301597 -0.024209386 -0.025973424 0.012423581 -0.005046303
0.013145463 -0.01708506 -0.015917862 0.03539037 0.017569397 -0.026732022 -0.037905734 0.021614967
0.017341472 0.020845568 0.015029908 -0.01825573 0.013500974 -0.008670932 0.018365767 0.010482897
0.032526787 0.012411893 -0.020710072 0.019559981 -0.016842412 -0.013433593 -0.020314898 0.00082552445
-0.017942842 0.019942017 0.009687047 -0.019538766 0.017329017 -0.012896324 0.009332442 0.022512678
-0.012682778 0.028355226 -0.027571362 0.016135942 -0.018680664 -0.018324137 0.030093817 -0.022220233
0.017315382 0.031823713 -0.022340132 -0.014868244 0.012225471 0.01204946 -0.022008367 -0.036029737
-0.023185419 0.014153527 -0.015179053 0.04876617 0.028076436 0.041000128 -0.014933867 -0.017832743
0.015408218 -0.022719756 -0.013557363 0.0072027524 -0.015074539 0.010613451 -0.023614652 -0.018930659
-0.00877365 -0.019391675 -0.01960409 0.017963357 -0.017182592 0.011178523 -0.0050869873 -0.020272814
0.023486303 0.00997254 0.024099562 -0.018633517 -0.01116774 0.042241547 -0.014436087 -0.002404436
0.013738624 -0.016741963 0.015212348 0.011297307 0.012343119 0.016459063 -0.040961493 0.031803057
-0.017853703 0.003988823 -0.014935968 -0.019476715 0.025953146 0.015426437 0.018482326 -0.019266801
-0.02507908 -0.024314405 0.02330588 -0.0017336172 0.011502102 0.007801366 0.030970959 -0.016289828
0.013295291 0.026851818 -0.019757139 0.01317475 -0.017174674 -0.004756486 -0.014679825 0.023509027
-0.028693557 0.011222568 0.021123214 -0.023584703 -0.016757043 0.01011235 -0.018916745 0.021197949
-0.0064334148 -0.016092833 -0.018567108 -0.012239236 -0.019636102 0.026273917 -0.028813912 -0.005117784
-0.01885062 0.017240237 0.017573237 -0.016526744 -0.01434471 0.015473787 0.019646984 0.020516997
