results/training1/BoundarySequence/BoundarySequence-165000.onnx (onnx, 558972 bytes, 10 tensors)

network_body.observation_encoder.processors.0.normalizer.running_mean f4 [20]
0.0 0.0 0.0 0.0 0.0 0.0 0.0 0.0
0.0 0.0 0.0 0.0 0.0 0.0 0.0 0.0
0.0 0.0 0.0 0.0
00000000: 0000 0000 0000 0000 0000 0000 0000 0000
00000010: 0000 0000 0000 0000 0000 0000 0000 0000
00000020: 0000 0000 0000 0000 0000 0000 0000 0000
00000030: 0000 0000 0000 0000 0000 0000 0000 0000
00000040: 0000 0000 0000 0000 0000 0000 0000 0000

network_body._body_endoder.seq_layers.0.weight f4 [256, 20]
0.24609503 -0.012704195 -0.05265646 0.27022377 0.19660276 -0.052708622 0.18088378 0.18193363
0.13361438 0.13545644 -0.20478934 -0.14973165 -0.22162835 0.25933543 -0.17579593 -0.12163985
0.031075656 0.28844893 -0.16063313 -0.31135124 -0.1611355 -0.10401935 0.115931064 0.19222702
0.049041964 -0.026534146 -0.022588914 0.0044855243 -0.17587973 -0.19944595 -0.059341162 -0.030066546
0.42173502 -0.25854248 0.05956875 -0.05256276 0.17361523 0.13583243 0.04894328 -0.05495588
-0.3709865 -0.33628017 -0.056823663 0.1758875 -0.5052912 -0.091239385 -0.05969587 -0.037823323
0.30750203 0.01414183 0.07082334 0.38182524 0.11866364 0.07575454 -0.041207153 0.24201831
-0.0677508 -0.124422595 -0.14392196 0.07112624 -0.057654403 0.060875524 -0.12251938 -0.25132167
-0.15479822 0.22969249 -0.2502823 0.21769445 -0.34604898 0.24152513 -0.0029720198 0.21919838
0.47420284 0.22184576 0.046582107 -0.2937035 -0.19712992 -0.14748926 0.16642788 -0.28403148
-0.03195678 -0.35001612 0.0672543 0.16799366 0.15050274 -0.082114145 0.056486912 0.34417605
0.241296 0.30624658 0.0068316823 0.3356335 -0.19517083 0.14223202 0.14657739 -0.43890306
0.15182568 -0.20635796 0.11320842 -0.13717385 -0.22788276 0.13332969 -0.09251386 -0.06273242
-0.12893921 -0.037642498 0.6013383 -0.39956665 0.035963934 0.52703077 -0.21410102 -0.43508467
0.14130883 0.4085704 -0.081690185 0.07676102 0.5612971 0.17028128 0.33002648 -0.49553347
-0.3111581 -0.11635539 0.35326618 -0.122932084 0.34139845 -0.100365624 0.03255856 0.026178485
0.16964516 0.013646703 0.06903954 -0.24414067 0.18212764 0.09805996 -0.045368563 -0.17118433
0.25190854 0.014486577 0.24764407 0.03813089 -0.047903966 -0.15580636 0.04709066 0.057154924
-0.08196537 0.16253814 -0.24057654 -0.17743734 -0.46871886 -0.1477162 0.22357543 0.19982597
0.087731265 -0.13264163 -0.26603624 0.051177055 0.03976396 0.28026122 0.23204567 -0.17828995
-0.09448364 -0.0023980774 0.06396642 0.6350696 -0.0656128 -0.100190565 -0.09215536 0.12240889
-0.04088651 0.3271594 -0.2730174 0.12006143 -0.024267085 -0.10729111 0.19589947 0.1024976
-0.096574165 -0.077303566 0.055979006 -0.22987594 -0.09745918 -0.294386 0.19248828 -0.12852503
0.3273528 -0.13791874 -0.100750744 -0.09744202 -0.08523576 0.38068718 0.27952412 0.44186455
-0.21092959 0.018047096 0.5788594 0.05587489 -0.32956278 -0.41881776 -0.20198667 -0.1453192
-0.13645297 -0.045038607 -0.14200273 -0.034098547 0.040808205 -0.0629474 0.005746177 -0.17417704
-0.040544756 0.029537056 0.10412402 0.3277936 -0.161951 0.2819532 -0.14416565 0.09180933
0.19679347 0.27051637 -0.48698616 -0.21067321 -0.4523656 -0.19791833 -0.0131329745 -0.06425371
-0.22146973 -0.099869005 -0.14318472 0.33446035 -0.37852257 0.01588228 0.029350469 0.37639356
-0.017294863 -0.065712444 -0.18568286 -0.11216195 -0.1693288 -0.04421603 -0.14784244 0.18776932
0.07440651 -0.13535619 -0.16320594 -0.15041581 0.052548144 0.24599944 -0.059212435 -0.1929174
-0.1468863 -0.07873306 0.19884631 -0.0865812 0.0036450098 0.23905033 -0.0631199 0.16860339
00000000: 5600 7c3e 4225 50bc 4dae 57bd c55a 8a3e
00000010: 3c52 493e ffe4 57bd 9939 393e cf4c 3a3e
00000020: 35d2 083e 18b5 0a3e 4cb4 51be 4153 19be
00000030: 8bf2 62be 9dc7 843e d903 34be 501e f9bd
00000040: 6092 fe3c 94af 933e 037d 24be 6e69 9fbe
00000050: b400 25be 1908 d5bd 446d ed3d 29d7 443e
00000060: 3ae0 483d 235e d9bc 630c b9bc 4efb 923b
00000070: d119 34be 8f3b 4cbe b80f 73bd 1e4e f6bc
00000080: a7ed d73e ae5f 84be 5dfe 733d 0c4c 57bd
00000090: 31c8 313e a817 0b3e c078 483d 6b19 61bd
000000a0: f1f1 bdbe ea2c acbe eebf 68bd da1b 343e
000000b0: c45a 01bf b7db babd a883 74bd a1ec 1abd
000000c0: e870 9d3e 22b3 673c d40b 913d 997e c33e
000000d0: ec05 f33d 3225 9b3d d5c8 28bd a6d3 773e
000000e0: eec0 8abd 46d1 febd 4760 13be a2aa 913d
000000f0: 0627 6cbd 9d58 793d 71eb fabd 3cad 80be
00000100: 6d83 1ebe 8234 6b3e 0025 80be 4beb 5e3e
00000110: 552d b1be 5d52 773e 38c6 42bb 8a75 603e
00000120: b7ca f23e 892b 633e e1cc 3e3d 4e60 96be
00000130: 6ddc 49be 6d07 17be 126c 2a3e 936c 91be
00000140: 1de5 02bd 5035 b3be 9fbc 893d 8806 2c3e
00000150: 641d 1a3e 762b a8bd d25e 673d d837 b03e
00000160: 4c16 773e 5acc 9c3e 4edc df3b 27d8 ab3e
00000170: ddda 47be 45a5 113e 6218 163e e7b7 e0be
00000180: 3178 1b3e 804f 53be d1d9 e73d 4d77 0cbe
00000190: 195a 69be 9487 083e e877 bdbd db79 80bd
000001a0: a408 04be 052f 1abd 4ff1 193f 0094 ccbe
000001b0: eb4e 133d 7deb 063f 4c3d 5bbe 6bc3 debe
000001c0: 43b3 103e 2430 d13e 2f4d a7bd e234 9d3d
000001d0: 2bb1 0f3f 375e 2e3e 3bf9 a83e 90b6 fdbe
000001e0: 1d50 9fbe bc4b eebd 4edf b43e d1c3 fbbd
000001f0: c7cb ae3e 7e8c cdbd 205c 053d 4374 d63c
00000200: 76b7 2d3e 6c96 5f3c 9a64 8d3d 0300 7abe
00000210: ab7f 3a3e a9d3 c83d 63d4 39bd f24a 2fbe
00000220: 28fa 803e 1c59 6d3c 6896 7d3e 232f 1c3d
00000230: f336 44bd b48b 1fbe 23e2 403d 481b 6a3d
00000240: 76dd a7bd 6670 263e b259 76be 22b2 35be
00000250: ebfb efbe ea42 17be f5f0 643e 2e9f 4c3e
00000260: 73ac b33d 35d3 07be e735 88be 089f 513d
00000270: 89df 223d 667e 8f3e 619d 6d3e a491 36be
00000280: a380 c1bd 1029 1dbb d400 833d ec93 223f
00000290: 0160 86bd b630 cdbd f3bb bcbd 83b1 fa3d
000002a0: 9d78 27bd 7081 a73e f0c8 8bbe c4e2 f53d
000002b0: c4cb c6bc 71bb dbbd df99 483e 43ea d13d
000002c0: adc8 c5bd 5551 9ebd 3e4a 653d 9964 6bbe
000002d0: ae98 c7bd c3b9 96be a61b 453e 119c 03be
000002e0: c99a a73e 923a 0dbe 6856 cebd af8f c7bd
000002f0: 1690 aebd 6ee9 c23e c91d 8f3e 123c e23e
00000300: edfd 57be 81d7 933c 2130 143f 12dd 643d
00000310: 74bc a8be 486f d6be 98d5 4ebe 8ece 14be
00000320: 54ba 0bbe 677a 38bd 2a69 11be ebaa 0bbd
00000330: 8126 273d 91ea 80bd 6d4a bc3b 775b 32be
00000340: 4212 26bd b2f7 f13c f93e d53d 90d4 a73e
00000350: 7cd6 25be 2b5c 903e 29a0 13be 8806 bc3d
00000360: 3a84 493e 1f81 8a3e 4056 f9be b8ba 57be
00000370: 779c e7be 1aab 4abe b02b 57bc 7397 83bd
00000380: f6c8 62be 1f88 ccbd 049f 12be 633e ab3e
00000390: b6cd c1be 8e1b 823c 6570 f03c a8b6 c03e
000003a0: f5ad 8dbc 3f94 86bd a623 3ebe 2ab5 e5bd
000003b0: 8764 2dbe de1b 35bd 0264 17be 9a46 403e
000003c0: 7162 983d d09a 0abe 751f 27be 9a06 1abe
000003d0: b93c 573d 47e7 7b3e bd88 72bd 248c 45be
000003e0: 5d69 16be cc3e a1bd 5e9e 4b3e 7c51 b1bd
000003f0: 1ee1 6e3b 9cc9 743e 0245 81bd 5ea6 2c3e

network_body._body_endoder.seq_layers.0.bias f4 [256]
-0.0058650393 -0.01378604 0.0059373653 0.015398507 0.01395027 0.012562313 0.01337976 -0.014136118
0.014533934 -0.007207681 0.013494582 0.012626092 0.01237762 0.008458645 0.014887148 0.007290857
0.012536307 -0.013721794 -0.0129553545 0.0118068475 -0.011529739 -0.013655248 0.01573616 -0.011910301
-0.010813842 0.0128583275 -0.008153124 -0.014717199 0.011284529 0.013051033 -0.010601066 -0.0078095556
0.01042224 -0.013806626 0.01500258 0.012321655 -0.012555595 -0.007677533 -0.011167305 0.012766445
0.01593064 -0.014886645 -0.011574334 -0.015585957 0.015482877 0.013760707 -0.008641101 -0.016472353
-0.013583111 0.014217235 -0.0142916795 0.010039715 -0.012528575 -0.014108666 -0.009855791 0.014881894
0.015744535 0.012170213 -0.010566671 -0.009655602 -0.013565711 0.012749625 -0.005436422 -0.009667738
-0.0028700691 0.0066830595 0.012690815 -0.012342911 -0.013706458 -0.01703929 0.013998771 0.014682013
-0.0025893562 0.013498393 0.013429686 0.012210046 0.012978644 -0.0126626855 -0.009919505 -0.014392252
0.013268757 -0.012274401 0.012565431 -0.012199624 0.014230075 -0.012899227 -0.012472841 -0.013149075
0.013053021 -0.016648145 -0.013077608 0.0127775 0.013649338 -0.013296173 -0.007857112 0.008920526
-0.013442514 -0.012144347 0.011195133 0.011755603 0.0071910676 0.01426403 -0.016074035 -0.004485479
0.011008405 -0.01723445 -0.014023152 0.009221007 -0.013406968 -0.013264276 0.011815639 0.013094257
-0.007859237 -0.012635567 -0.01393148 0.014028064 -0.009278352 0.007357507 0.012325316 0.013403527
0.013979259 0.008187865 0.011111755 0.011685322 0.011641089 -0.0097579975 -0.01489422 -0.015011903
0.017174896 -0.011545157 -0.011081505 -0.010534104 -0.014763156 -0.0066406946 -0.011022674 0.013273509
0.012170434 -0.010690861 -0.0075572273 0.0065480773 -0.011752277 0.010664052 -0.01233668 0.0152699305
0.010946141 -0.014440174 0.020406524 0.01253508 0.013593262 0.012767396 0.012810832 -0.011900786
-0.009426581 0.01352336 0.01234469 0.012472695 0.011251923 0.014740615 -0.016807057 0.0143506685
0.010002788 -0.011369001 0.0133974925 -0.010463857 -0.011912909 -0.0036054985 0.0114690475 -0.014305221
0.014854628 -0.0143917315 -0.009686213 0.014045944 -0.013162481 -0.013242224 0.009358825 -0.011373243
0.013774565 -0.011350734 -0.0118191205 -0.009923803 -0.010205997 0.010601561 -0.012202334 0.008854374
-0.011009153 0.010784993 -0.009339279 0.011876002 0.013418333 -0.0116749145 -0.010547321 -0.015480057
0.01535912 -0.011859417 -0.008301685 -0.011385602 0.014019478 -0.012100124 -0.0018458036 0.012908817
0.0070500425 0.012313132 0.014129539 -0.014625749 -0.007756392 0.012775301 0.012294818 0.013022209
0.0132668335 -0.015211588 -0.008657627 0.010730982 0.013510829 -0.011744477 -0.01130663 0.012374823
0.014608263 -0.0067613623 0.01603092 0.013672246 -0.011935984 0.012276137 0.019274134 -0.012146281
0.01367922 -0.011029895 0.013434655 -0.012447464 0.012646806 0.012895433 -0.01635422 0.021073438
-0.0099647455 0.009378045 0.013918214 -0.0134396255 -0.010793624 0.010395981 0.0117912395 -0.008469641
-0.007864076 -0.014128256 -0.011082346 0.008221666 -0.012322653 -0.0117829805 0.014347039 -0.015511167
0.012707446 -0.011319295 -0.00029055605 0.010254902 0.010521223 -0.0013708449 0.016189907 0.012484217
00000000: 842f c0bb d8de 61bc 3b8e c23b 054a 7c3c
00000010: ac8f 643c 29d2 4d3c c836 5b3c 2d9b 67bc
00000020: bd1f 6e3c 692e ecbb 6118 5d3c abdd 4e3c
00000030: 80cb 4a3c 2196 0a3c 39e9 733c 24e8 ee3b
00000040: 1565 4d3c 60d1 60bc b242 54bc 8271 413c
00000050: 3be7 3cbc 43ba 5fbc 1fe9 803c 6c23 43bc
00000060: 8a2c 31bc bcab 523c ae94 05bc 6820 71bc
00000070: bfe2 383c 00d4 553c 18b0 2dbc 4de7 ffbb
00000080: 0bc2 2a3c 3035 62bc 62cd 753c c4e0 493c
00000090: fbb5 4dbc d193 fbbb 12f7 36bc 5a2a 513c
000000a0: f980 823c 1de7 73bc 47a2 3dbc 3e5c 7fbc
000000b0: e5ab 7d3c 9774 613c 6893 0dbc 07f1 86bc
000000c0: b28b 5ebc 68ef 683c a627 6abc 9e7d 243c
000000d0: a744 4dbc 0928 67bc 2f7a 21bc 30d3 733c
000000e0: affa 803c 9365 473c d51f 2dbc 8832 1ebc
000000f0: b742 5ebc cee3 503c 0324 b2bb 6f65 1ebc
00000100: c517 3cbb 91fd da3b 23ed 4f3c ec39 4abc
00000110: 0d91 60bc fb95 8bbc 1a5b 653c d38c 703c
00000120: 30b2 29bb 5d28 5d3c 3008 5c3c a50c 483c
00000130: 61a4 543c 2777 4fbc 6b85 22bc 7bcd 6bbc
00000140: 3365 593c 921a 49bc 3ddf 4d3c efe0 47bc
00000150: 4325 693c 4857 53bc e35a 4cbc 386f 57bc
00000160: 57dc 553c b161 88bc 7743 56bc b858 513c
00000170: 79a1 5f3c 31d8 59bc 1ebb 00bc 6627 123c
00000180: fe3d 5cbc 15f9 46bc cb6b 373c 939a 403c
00000190: 0ca3 eb3b aeb3 693c b2ad 83bc edfa 92bb
000001a0: 995c 343c 432f 8dbc 5dc1 65bc b513 173c
000001b0: e6a8 5bbc 6852 59bc 6296 413c 4b89 563c
000001c0: 07c4 00bc 6905 4fbc dd40 64bc f7d5 653c
000001d0: 3b04 18bc 3e17 f13b 1ff0 493c 789a 5b3c
000001e0: 4309 653c 6526 063c 140e 363c cb73 3f3c
000001f0: 44ba 3e3c 02e0 1fbc e306 74bc 7cf4 75bc
00000200: 5eb2 8c3c e627 3dbc 338f 35bc 3c97 2cbc
00000210: 2ae1 71bc 2f9a d9bb 7298 34bc 2279 593c
00000220: 8066 473c b928 2fbc 9ea2 f7bb 4191 d63b
00000230: 9f8c 40bc 47b8 2e3c c91f 4abc bb2e 7a3c
00000240: 7157 333c 7b96 6cbc 952b a73c f05f 4d3c
00000250: 46b6 5e3c 572e 513c 86e4 513c 84fb 42bc
00000260: f271 1abc 1591 5d3c 6241 4a3c 465a 4c3c
00000270: fc59 383c 9f82 713c f4ae 89bc 111f 6b3c
00000280: bce2 233c 0c45 3abc 2881 5b3c 9970 2bbc
00000290: 5d2e 43bc 3a4a 6cbb ace8 3b3c 7260 6abc
000002a0: d360 733c 4ccb 6bbc ecb2 1ebc f620 663c
000002b0: 72a7 57bc eaf5 58bc c255 193c d756 3abc
000002c0: b7ae 613c 6ef8 39bc fca4 41bc 7297 22bc
000002d0: 0e37 27bc 2bb2 2d3c 4cec 47bc f011 113c
000002e0: bc5f 34bc 8ab3 303c c603 19bc 9093 423c
000002f0: 91d8 5b3c 2448 3fbc acce 2cbc 11a0 7dbc
00000300: d2a4 7b3c 004e 42bc ca03 08bc ad8a 3abc
00000310: f4b1 653c 993f 46bc e4ee f1ba 817f 533c
00000320: 0b04 e73b 05bd 493c 957f 673c d6a0 6fbc
00000330: 5529 febb 7f4f 513c 3470 493c 1a5b 553c
00000340: 225d 593c 063a 79bc b8d8 0dbc 00d1 2f3c
00000350: 865c 5d3c e86b 40bc 723f 39bc c5bf 4a3c
00000360: 7f57 6f3c 6b8e ddbb 4753 833c 8e01 603c
00000370: 258f 43bc da21 493c cae4 9d3c 3201 47bc
00000380: cf1e 603c bcb6 34bc 071d 5c3c 73f0 4bbc
00000390: 8d34 4f3c 5e47 533c 49f9 85bc 34a2 ac3c
000003a0: 2c43 23bc 5fa6 193c 3809 643c e031 5cbc
000003b0: bed7 30bc e853 2a3c 0b30 413c 40c4 0abc
000003c0: 53d8 00bc 337a 67bc ba92 35bc 2bb4 063c
000003d0: f4e4 49bc 670d 41bc d80f 6b3c 8d22 7ebc
000003e0: e432 503c 9074 39bc c655 98b9 2d04 283c
000003f0: 3561 2c3c ecad b3ba b2a0 843c 9a8a 4c3c

network_body._body_endoder.seq_layers.2.weight f4 [256, 256]
-0.006681262 -0.062097654 -0.057609897 0.12655014 0.13138416 0.05002022 -0.00056597276 -0.07769735
0.0367489 -0.041122116 0.012967499 0.043411225 0.053421818 -0.004484774 0.036019195 0.04935688
0.11418235 -0.1083653 0.07509718 0.07446135 -0.04507081 -0.06002811 0.050141376 -0.06014729
0.025041828 0.09591996 -0.092847236 -0.01852226 -0.0033140369 0.060338467 -0.0039057203 -0.0015342896
0.016165804 0.0005427351 0.059224416 0.012041127 -0.0004118598 0.11940227 -0.03800917 -0.020055717
-0.014706534 -0.06573047 -0.049365513 -0.021566415 -0.015787737 0.013115985 0.05278671 -0.00723718
0.173105 0.1049127 0.11310063 0.084478125 -0.027519211 0.0136916395 -0.065531015 0.13448438
0.054800257 0.011529892 -0.008670943 0.06348192 -0.043194022 -0.04934682 -0.039931454 0.07951844
-0.07151077 -0.14875759 0.036866132 -0.097104326 -0.00562789 -0.11645464 0.04935031 0.022186844
0.11362584 0.066024445 0.019004779 -0.085049264 0.11561411 0.0041527017 0.029426794 0.08528041
0.17816299 0.0072588166 0.023212353 0.055543456 0.05662875 -0.014798477 -0.05453476 -0.09286074
0.013450596 -0.012386554 0.06510737 0.059979707 -0.07776872 -0.0544272 0.026640452 0.16294642
0.009165694 0.024003688 0.0640085 0.0027341377 0.0675648 0.09859651 -0.10975863 -0.02473571
0.022404362 0.053319845 0.03074367 -0.060300287 0.03715212 0.020142816 0.00937363 0.14148073
-0.07777794 0.019172681 -0.070770666 -0.03542626 -0.07367478 -0.040024757 0.027503604 0.037721887
0.049990967 0.037325446 0.18853064 0.11603564 -0.0044470993 0.04840904 0.03999357 -0.061211526
-0.020273183 -0.0068546757 -0.00041889917 -0.0060421596 -0.018565703 -0.054082662 0.023430921 -0.006980327
-0.088461265 0.0517871 -0.05808144 0.04004693 -0.028330043 0.025172586 -0.05249715 -0.051433906
0.048256345 0.033420917 -0.009970573 -0.03466599 0.1756577 0.13049427 0.038050003 0.072665855
0.013788932 0.06488174 0.00062460086 0.03832842 0.034314077 -0.014288076 -0.09344686 0.10853497
-0.021706088 0.047516838 0.09182897 -0.023325078 -0.02245538 -0.02534496 0.056544244 0.11576046
0.08512648 0.0025483314 -0.02589078 -0.006350215 -0.010514356 -0.019047033 0.056142792 -0.03162738
0.018400338 -0.0019246056 0.0038488754 -0.028004281 -0.038304575 -0.03326991 -0.066198915 -0.12401142
-0.062077057 -0.07034599 -0.073456496 0.023572851 0.010542689 0.1240038 -0.011076714 -0.10774464
0.028312834 -0.019184742 0.009234372 -0.042626504 0.041769557 -0.021186657 -0.019015314 0.13632226
0.05474823 0.0242724 0.0015028262 0.08312314 0.0607477 0.039109446 -0.024117207 -0.059256822
0.00023455982 -0.04000447 0.006738956 0.03684276 -0.057151143 -0.0312738 0.0055266162 -0.01894966
0.08824099 -0.04196393 0.105892636 -0.029677656 0.09992781 0.03925805 0.0020604122 -0.11184036
0.015647247 0.010736589 0.081184484 -0.065220825 -0.11682513 0.09231208 -0.08708519 0.039532088
-0.11091056 -0.06764467 0.122945845 0.0052822116 -0.062049318 -0.04851899 0.021685552 0.1511151
-0.096889235 -0.03744539 -0.09101651 0.024898315 0.009183236 -0.024179332 -0.017067397 -0.06895518
0.10341006 -0.08830318 -0.010265981 -0.11839346 0.09497897 0.021382447 0.117265865 0.034270212
00000000: 7dee dabb 1c5a 7ebd 5bf8 6bbd 5c96 013e
00000010: 9289 063e 01e2 4c3d ca5d 14ba ca1f 9fbd
00000020: 0486 163d aa6f 28bd a275 543c f8cf 313d
00000030: d6d0 5a3d 03f5 92bb dd88 133d 712a 4a3d
00000040: 70d8 e93d a0ee ddbd 8dcc 993d 317f 983d
00000050: 2b9c 38bd 09e0 75bd 0b61 4d3d 015d 76bd
00000060: 8524 cd3c af71 c43d b126 bebd ffbb 97bc
00000070: 5030 59bb 7825 773d 1df7 7fbb 371a c9ba
00000080: 266e 843c 5646 0e3a 4d95 723d 2648 453c
00000090: e3ee d7b9 2d89 f43d 81af 1bbd e34b a4bc
000000a0: adf3 70bc b29d 86bd 7e33 4abd 0dac b0bc
000000b0: 4955 81bc 6ee4 563c e136 583d de25 edbb
000000c0: 7042 313e 78dc d63d 4ea1 e73d de02 ad3d
000000d0: f86f e1bc e652 603c 2035 86bd 46b6 093e
000000e0: 3c76 603d dfe7 3c3c 9210 0ebc cf02 823d
000000f0: 37ec 30bd e41f 4abd 2a8f 23bd 90da a23d
00000100: 3d74 92bd e953 18be f100 173d a2de c6bd
00000110: 2a6a b8bb c57f eebd 8d23 4a3d 2fc1 b53c
00000120: aab4 e83d d337 873d e9af 9b3c 4f2e aebd
00000130: 17c7 ec3d 6313 883b 7610 f13c 7fa7 ae3d
00000140: 5c70 363e 5edb ed3b d527 be3c 8981 633d
00000150: 8cf3 673d 5075 72bc d75f 5fbd c62d bebd
00000160: e35f 5c3c f9f0 4abc 0357 853d 48ad 753d
00000170: 3545 9fbd 0eef 5ebd 143d da3c 6ddb 263e
00000180: b52b 163c 62a3 c43c e316 833d 382f 333b
00000190: 6a5f 8a3d f8ec c93d 22c9 e0bd 8ba2 cabc
000001a0: 5a89 b73c e965 5a3d 26da fb3c 6ffd 76bd
000001b0: d22c 183d 8c02 a53c db93 193c 53e0 103e
000001c0: 0a4a 9fbd 0710 9d3c 36f0 90bd 201b 11bd
000001d0: cee2 96bd 00f1 23bd 3d4f e13c 4482 1a3d
000001e0: 54c3 4c3d 91e2 183d 2d0e 413e 18a4 ed3d
000001f0: f9b8 91bb 8f48 463d 4cd0 233d f0b8 7abd
00000200: f213 a6bc 309d e0bb b29f dbb9 4ffd c5bb
00000210: 1a17 98bc c885 5dbd 34f2 bf3c 3abb e4bb
00000220: 2e2b b5bd b61e 543d cee6 6dbd 4008 243d
00000230: 6814 e8bc bd36 ce3c 4007 57bd 5cac 52bd
00000240: 72a8 453d 5fe4 083d 9d5b 23bc edfd 0dbd
00000250: 9ddf 333e 4aa0 053e 52da 1b3d d6d1 943d
00000260: f9ea 613c b8e0 843d 41bc 233a 43fe 1c3d
00000270: eb8c 0c3d 8918 6abc 1161 bfbd 9547 de3d
00000280: f7d0 b1bc 04a1 423d d410 bc3d 3c14 bfbc
00000290: 58f4 b7bc 3ca0 cfbc f09a 673d d213 ed3d
000002a0: cb56 ae3d e801 273b e718 d4bc 7715 d0bb
000002b0: 6844 2cbc 8608 9cbc fcf5 653d b68b 01bd
000002c0: 4ebc 963c 0c43 fcba 6a3d 7c3b 3c69 e5bc
000002d0: 42e5 1cbd 0746 08bd 4c93 87bd b3f9 fdbd
000002e0: 8344 7ebd 8f11 90bd 5c70 96bd da1b c13c
000002f0: 3ebb 2c3c b4f5 fd3d 1b7b 35bc 39a9 dcbd
00000300: 51f0 e73c 5229 9dbc c34b 173c 2199 2ebd
00000310: 8e16 2b3d a48f adbc 01c6 9bbc 1098 0b3e
00000320: ae3f 603d ead6 c63c 7bfa c43a 773c aa3d
00000330: 95d2 783d 3a31 203d 7391 c5bc 48b7 72bd
00000340: 2cf4 7539 badb 23bd 76d2 dc3b 6fe8 163d
00000350: 5117 6abd f518 00bd 9e18 b53b 513c 9bbc
00000360: b1b7 b43d 5fe2 2bbd 3dde d83d 8e1e f3bc
00000370: f4a6 cc3d 0dcd 203d fb07 073b 8f0c e5bd
00000380: a82e 803c 85e8 2f3c 0d44 a63d 7f92 85bd
00000390: 0442 efbd 1e0e bd3d b859 b2bd 66ec 213d
000003a0: 1325 e3bd 4a89 8abd 08cb fb3d 6716 ad3b
000003b0: 6d27 7ebd d9bb 46bd e6a5 b13c ebbd 1a3e
000003c0: dd6d c6bd 5660 19bd dd66 babd 8df7 cb3c
000003d0: 4975 163c bc13 c6bc edd0 8bbc 6038 8dbd
000003e0: a7c8 d33d 4cd8 b4bd a532 28bc 4578 f2bd
000003f0: 5684 c23d 3e2a af3c 1629 f03d ec5e 0c3d

network_body._body_endoder.seq_layers.2.bias f4 [256]
0.018882647 0.00095515227 0.0011799743 0.0019218635 0.014203853 -0.01275816 0.010617861 0.009617599
-0.014369689 0.012063137 0.0150744 -0.012129697 -0.010740024 -0.011085379 -0.00049318664 0.012275213
-0.016402954 0.012906104 0.010332306 -0.011404629 0.009875901 -0.011793977 0.0071409782 0.012339708
-0.012329741 -0.0025363031 -0.0037283457 0.012548221 0.012380007 0.01189917 0.000278092 -0.013223446
0.012004616 -0.011776796 -0.013761684 -0.010703863 0.014176513 0.011444815 -0.014471217 0.012574647
0.012499923 0.009605419 0.012170329 -0.010533494 0.0121087385 0.010534235 -0.010713389 -0.0006287716
-0.012157197 -0.015584342 -0.006004372 -0.011956514 -0.012865474 -0.011246061 -0.013516692 0.013794525
0.013195667 -0.012700861 0.014524007 0.013458914 -0.013201342 0.01576784 -0.011954405 -0.011605027
-0.01013383 -0.013448371 0.011619038 0.012579517 0.013538167 -0.011991494 -0.013671114 -0.013007967
0.012174704 -0.002390421 0.0121522285 0.011498374 -0.015497152 0.007245765 0.013017096 -0.016956527
0.0019583963 0.0139148645 -0.0070668934 0.012695552 -0.010452412 -0.011900175 0.008608808 -0.012495707
0.013436513 0.011841916 0.013574168 -0.010278914 -0.01362303 0.011963086 -0.011604068 -0.012662835
0.005218708 -0.00975368 -0.012309912 -0.011728954 -0.011851562 0.012944719 0.012362289 -0.012401726
0.012604914 0.0138332145 0.012323163 -0.015687816 -0.012758293 0.0069422643 0.013490341 -0.012732972
-0.010239611 0.012012167 0.012378779 0.01308459 0.010090412 0.012180755 -0.01163971 0.010103719
0.012302879 0.013245842 0.018251764 0.012144202 -0.011917729 0.010541633 0.0014386518 -0.0113601135
-0.012996531 -0.01998098 -0.012292387 -0.012802795 0.012709181 -0.014223251 0.010410861 -0.004624937
-0.012323604 0.013157028 0.010320704 -0.014320361 0.011259578 -0.012689626 0.01335076 -0.008536027
0.0059936913 -0.013437217 0.010193943 0.013599443 0.011425792 0.011897788 0.012487796 0.005849876
0.010301646 0.013500172 -0.011305477 0.009642463 0.007408881 -0.0121622 -0.014868498 -0.012393855
0.009329664 -0.011943756 0.002974054 0.011163149 -0.01315489 -0.0037453354 -0.013218235 0.0145346
-0.012976146 0.012033943 -0.012743136 0.011614075 0.015547216 0.01295544 -0.012181237 -0.013513529
-0.0125656575 -0.011297132 0.013426077 0.011615405 -0.012412561 0.011927151 0.011765591 -0.010213961
-0.0031376046 0.009571826 0.016371734 0.012839192 -0.013581661 0.013104614 0.018126126 0.012248799
-0.0107884975 0.01300226 -0.012968238 -0.0032881428 0.014135502 -0.011909676 -0.011753267 -0.0049484083
0.012917623 0.004970588 0.008845173 0.0046419986 -0.017411144 0.0036097348 0.0021518033 -0.017020054
0.012551264 0.013696234 0.008329079 0.01341691 0.013088521 0.011217713 0.012437522 -0.0119686425
-0.011938344 0.011574828 -0.01193566 0.010691344 -0.0076591573 -0.01010312 0.0065130685 0.012674016
0.004461658 0.0126735 -0.01276392 -0.0048164083 0.013223549 -0.012906082 -0.009900721 -0.012045835
-0.012919714 -0.005217619 -0.010265467 -0.0074678436 -0.013412444 -0.009529714 -0.012278069 -0.0012619213
0.013061693 -0.013282497 0.020406453 0.0128374295 -0.012482994 0.013156612 0.012604991 -0.013143331
-0.013435097 -0.012226546 -0.015599983 0.011660927 -0.012649067 0.013067852 0.012627893 0.0015390896
00000000: c8af 9a3c 2f63 7a3a 5ea9 9a3a 0ae7 fb3a
00000010: 47b7 683c 9a07 51bc 89f6 2d3c 2293 1d3c
00000020: d86e 6bbc 77a4 453c 9efa 763c a3bb 46bc
00000030: edf6 2fbc 739f 35bc 3249 01ba fa1d 493c
00000040: 7d5f 86bc 2074 533c d548 293c 7bda 3abc
00000050: 88ce 213c 863b 41bc defe e93b 7d2c 4a3c
00000060: af02 4abc 1b38 26bb 4357 74bb 0e97 4d3c
00000070: 83d5 4a3c bcf4 423c e0cc 9139 27a7 58bc
00000080: 02af 443c 76f3 40bc b078 61bc 415f 2fbc
00000090: 9b44 683c 0983 3b3c af18 6dbc e405 4e3c
000000a0: 7acc 4c3c 0c60 1d3c 0f66 473c ad94 2cbc
000000b0: bb63 463c c997 2c3c 3687 2fbc 26d4 24ba
000000c0: fb2e 47bc 7855 7fbc 53c0 c4bb 41e5 43bc
000000d0: b6c9 52bc 6641 38bc 1e75 5dbc 6e02 623c
000000e0: a432 583c 4617 50bc 1af6 6d3c c782 5c3c
000000f0: 714a 58bc 8f2b 813c 69dc 43bc 0323 3ebc
00000100: 5d08 26bc 8e56 5cbc c75d 3e3c 521a 4e3c
00000110: 30cf 5d3c f977 44bc cffc 5fbc 5e1f 55bc
00000120: 6978 473c 9ca8 1cbb 241a 473c ad63 3c3c
00000130: c4e7 7dbc e26d ed3b a845 553c 6ae8 8abc
00000140: 7058 003b 2cfb 633c 6691 e7bb 0101 503c
00000150: 9840 2bbc f4f8 42bc f50b 0d3c cbba 4cbc
00000160: d224 5c3c 9804 423c 3066 5e3c e468 28bc
00000170: 2133 5fbc d200 443c fd1e 3ebc c877 4fbc
00000180: b201 ab3b e6cd 1fbc 83af 49bc cc2a 40bc
00000190: 0e2d 42bc 1616 543c 338b 4a3c 9c30 4bbc
000001a0: d784 4e3c b5a4 623c 18e7 493c bc83 80bc
000001b0: 2908 51bc ef7b e33b 9706 5d3c f59d 50bc
000001c0: 0bc4 27bc aece 443c 5dd0 4a3c c060 563c
000001d0: 4152 253c ca91 473c 7bb4 3ebc 128a 253c
000001e0: 0492 493c 1705 593c b984 953c 7af8 463c
000001f0: 9442 43bc d0b6 2c3c 2591 bc3a c51f 3abc
00000200: 67ef 54bc 27af a3bc 0266 49bc d0c2 51bc
00000210: 2b3a 503c a308 69bc 5192 2a3c c98c 97bb
00000220: f1e8 49bc 9390 573c 2c18 293c f39f 6abc
00000230: 187a 383c 26e8 4fbc 25bd 5a3c b1da 0bbc
00000240: ba66 c43b c627 5cbc 7f04 273c 33d0 5e3c
00000250: 3f33 3b3c f1ee 423c 9d99 4c3c 51b0 bf3b
00000260: 3cc8 283c d32f 5d3c 9b3a 39bc 6cfb 1d3c
00000270: 33c6 f23b f743 47bc 009b 73bc 980f 4bbc
00000280: 72db 183c beaf 43bc 59e8 423b a4e5 363c
00000290: 9c87 57bc 4d74 75bb 4c91 58bc 8822 6e3c
000002a0: e799 54bc 042a 453c 96c8 50bc f648 3e3c
000002b0: c0b9 7e3c 0e43 543c d093 47bc d967 5dbc
000002c0: 30e0 4dbc 9b17 39bc 0cf9 5b3c 8a4e 3e3c
000002d0: 0e5e 4bbc 196a 433c 77c4 403c 7558 27bc
000002e0: 45a0 4dbb 26d3 1c3c 041e 863c 795b 523c
000002f0: 9d85 5ebc bcb4 563c 3e7d 943c 30af 483c
00000300: 3dc2 30bc 6e07 553c bc78 54bc e27d 57bb
00000310: 9898 673c cd20 43bc c690 40bc 4226 a2bb
00000320: 70a4 533c 50e0 a23b 58eb 103c e81b 983b
00000330: d1a1 8ebc 4d91 6c3b 4505 0d3b a46d 8bbc
00000340: d1a3 4d3c 2b66 603c b076 083c 99d2 5b3c
00000350: 3c71 563c 80ca 373c c0c6 4b3c 2018 44bc
00000360: 0b99 43bc 59a4 3d3c c98d 43bc bf2a 2f3c
00000370: abf9 fabb 8e87 25bc 946b d53b ada6 4f3c
00000380: 1a33 923b 83a4 4f3c c31f 51bc f6d2 9dbb
00000390: 96a7 583c 0874 53bc a236 22bc e55b 45bc
000003a0: 35ad 53bc 8ff8 aabb 7d30 28bc d0b4 f4bb
000003b0: debf 5bbc 8422 1cbc f429 49bc 0d67 a5ba
000003c0: b600 563c d59e 59bc 6f2b a73c 1554 523c
000003d0: 7985 4cbc d58e 573c 2a85 4e3c 2057 57bc
000003e0: e21e 5cbc da51 48bc 1297 7fbc 790d 3f3c
000003f0: 083e 4fbc 8b1a 563c 39e5 4e3c 47bb c93a

network_body._body_endoder.seq_layers.4.weight f4 [256, 256]
0.012894959 0.061751146 -0.0058271843 0.011817871 0.008018082 -0.1038343 0.042333663 0.022964183
0.048898928 0.04590567 0.023252478 -0.039397452 -0.058912992 0.011651687 0.011001407 0.019829342
-0.047415577 -0.0064483415 0.07460707 -0.08646438 0.13992822 -0.09047736 -0.048620902 0.02773123
0.0073547647 6.317333e-05 0.06876153 0.03407047 0.09329723 -0.00069233583 0.116623394 0.05135249
0.054471117 -0.13248643 0.022469036 -0.15074445 0.044549208 0.049524464 -0.062535524 0.07629327
-0.027409099 0.07440122 -0.050874088 0.12771834 0.04286668 -0.019719569 0.032781284 0.039841704
-0.09398564 -0.032414522 0.065301865 -0.0016485043 -0.066707 0.039687797 0.025215868 0.0024030958
0.07263218 -0.08054802 -0.0152616985 -0.002508042 0.035306502 0.03508877 -0.017209567 0.059517156
-0.03726841 -0.004254388 0.14360832 -0.03256088 -0.06367955 0.046924345 -0.045942668 0.05067819
0.03261521 0.033060912 -0.06716745 -0.005307139 -0.06662892 -0.02076554 0.011790911 -0.00060755596
-0.048553772 0.042598337 0.06030483 -0.042295903 -0.019038554 0.007222974 0.009455773 -0.0427192
-0.01486467 0.05010352 -0.078453995 -0.004523234 0.042802855 -0.08229997 -0.04512251 0.057746787
0.10257316 -0.019524468 0.016929414 0.014959332 -0.08042262 0.075780295 -0.073493466 -0.04872627
-0.1190574 0.049618926 0.017427858 -0.08570508 -0.023598352 -0.003162903 0.06688071 -0.06365415
0.033836097 0.015755875 -0.0112472335 0.0046504447 0.0652558 0.030015836 0.035907995 -0.028451249
0.04009211 0.079638794 0.022544937 -0.05748216 0.018589996 -0.054417145 0.023662074 0.11229278
0.012505297 -0.07357311 -0.064808175 -0.038620736 0.044177238 -0.00017597251 0.08985355 0.12881626
0.09328776 -0.08180146 -0.018221045 -0.15050551 0.040662788 -0.14279528 -0.00945255 -0.068697765
0.13374223 0.031260956 0.072442584 0.0830437 0.033343665 0.0783521 -0.03159326 0.075991
0.06624785 -0.04545212 -0.03591266 -0.010991757 0.007051577 -0.08307556 0.015672348 -0.069532454
-0.02853755 -0.061029978 -0.019677151 -0.071787536 -0.0036312772 0.01426597 -0.033770107 0.15034197
-0.012298588 -0.03049955 -0.025649305 0.012138964 -0.079102784 0.07884492 -0.08390549 -0.08869682
0.068637654 0.029446337 0.041247677 0.038157273 -0.10819046 0.08240227 -0.052037198 -0.034434974
-0.009478518 -0.058168903 0.10506352 0.08038241 -0.098304644 0.00871575 0.0058720084 -0.025344344
0.018732479 0.059348326 0.04943678 -0.024325615 0.068007365 0.044717077 -0.027209248 -0.0014383168
-0.06270514 -0.03916548 0.03886523 -0.05151157 -0.03226397 0.12282496 0.007810049 -0.06067621
-0.00044499605 0.10319912 0.046201505 -0.006096877 -0.006879147 -0.01721412 0.098622836 -0.10275651
-0.0009855874 0.04827915 0.010840893 0.09126426 0.084682025 -0.0688148 -0.043711334 0.011379289
0.06961563 -0.049831644 -0.06300419 -0.06885554 -0.068545915 0.07023189 -0.02105117 -0.09614556
-0.06047722 0.17087927 -0.07706661 0.05029112 -0.08011016 0.0038265479 0.02289206 -0.12070268
0.036933247 -0.025765758 0.007962316 0.0039056109 -0.0056653502 -0.06780047 0.1284987 -0.025759388
-0.025454745 0.06168806 0.054243688 0.05523843 -0.04974605 0.1023287 0.09531986 0.04791423
00000000: 6145 533c c5ee 7c3d f7f1 bebb be9f 413c
00000010: 465e 033c 14a7 d4bd 1066 2d3d 621f bc3c
00000020: 3e4a 483d 9507 3c3d fb7b be3c 395f 21bd
00000030: c04e 71bd b8e6 3e3c 3f3f 343c 2571 a23c
00000040: d636 42bd 9c4c d3bb 97cb 983d 3d14 b1bd
00000050: 5849 0f3e 324c b9bd b626 47bd 9b2c e33c
00000060: 3d00 f13b ec7b 8438 d8d2 8c3d 7a8d 0b3d
00000070: 9e12 bf3d df7d 35ba 3fd8 ee3d fd56 523d
00000080: 1b1d 5f3d 86aa 07be fc10 b83c c15c 1abe
00000090: 3b79 363d 2ada 4a3d a012 80bd a53f 9c3d
000000a0: 0c89 e0bc ab5f 983d 5961 50bd 99c8 023e
000000b0: f994 2f3d ef8a a1bc ab45 063d 0e31 233d
000000c0: 8b7b c0bd 17c5 04bd fcbc 853d a012 d8ba
000000d0: ae9d 88bd ac8f 223d 8291 ce3c 427d 1d3b
000000e0: 2ec0 943d 5cf6 a4bd 340c 7abc f65d 24bb
000000f0: 8d9d 103d 3eb9 0f3d 14fb 8cbc 43c8 733d
00000100: c3a6 18bd 6568 8bbb 0f0e 133e 8f5e 05bd
00000110: 6d6a 82bd be33 403d 612e 3cbd ef93 4f3d
00000120: 8797 053d e16a 073d 178f 89bd 82e7 adbb
00000130: be74 88bd 7e1c aabc aa2e 413c 6444 1fba
00000140: 52e0 46bd 987b 2e3d 3302 773d 783e 2dbd
00000150: bef6 9bbc b3ae ec3b 63ec 1a3c 54fa 2ebd
00000160: f28a 73bc 5939 4d3d 7dac a0bd a337 94bb
00000170: 0c52 2f3d e38c a8bd 62d2 38bd e587 6c3d
00000180: e011 d23d c7f1 9fbc 8eaf 8a3c fc17 753c
00000190: 9db4 a4bd b332 9b3d be83 96bd 3395 47bd
000001a0: 5ed4 f3bd 373d 4b3d dec4 8e3c 2586 afbd
000001b0: 5551 c1bc b548 4fbb c1f8 883d 1b5d 82bd
000001c0: b897 0a3d 7712 813c 5146 38bc c262 983b
000001d0: d5a4 853d c5e3 f53c 4314 133d 9812 e9bc
000001e0: a037 243d aa19 a33d 29b0 b83c 6a72 6bbd
000001f0: 0c4a 983c 83e4 5ebd f7d6 c13c c2f9 e53d
00000200: 04e3 4c3c 80ad 96bd 26ba 84bd c730 1ebd
00000210: 31f3 343d 4385 38b9 2305 b83d 69e8 033e
00000220: a70d bf3d 8687 a7bd 4d44 95bc 1e1e 1abe
00000230: 068e 263d ed38 12be dede 1abc 6ab1 8cbd
00000240: b9f3 083e 7d0b 003d c75c 943d d112 aa3d
00000250: 5e93 083d 1177 a03d ef67 01bd 2ba1 9b3d
00000260: f4ac 873d 012c 3abd 2719 13bd c516 34bc
00000270: ea10 e73b 8523 aabd 4c63 803c 0867 8ebd
00000280: 94c7 e9bc 92fa 79bd fa31 a1bc 5805 93bd
00000290: b9fa 6dbb d1bb 693c 8652 0abd 3ff3 193e
000002a0: 0480 49bc 31da f9bc 7e1e d2bc 81e2 463c
000002b0: a400 a2bd 7279 a13d a4d6 abbd aea6 b5bd
000002c0: e691 8c3d 7239 f13c 53f3 283d cd4a 1c3d
000002d0: f692 ddbd 85c2 a83d f524 55bd b00b 0dbd
000002e0: c94b 1bbc 8442 6ebd 8b2b d73d 889f a43d
000002f0: f253 c9bd 81cc 0e3c fa69 c03b f19e cfbc
00000300: db74 993c 3b17 733d 397e 4a3d 8346 c7bc
00000310: 7247 8b3d 4129 373d eee5 debc e785 bcba
00000320: 8d6b 80bd fb6b 20bd 2631 1f3d ccfd 52bd
00000330: 3927 04bd a78b fb3d 71eb ff3b 9e87 78bd
00000340: 5c4e e9b9 0f5a d33d ca3d 3d3d 50c8 c7bb
00000350: 786a e1bb a004 8dbc c5fa c93d 0172 d2bd
00000360: d32e 81ba 5cc0 453d 009e 313c c2e8 ba3d
00000370: c56d ad3d c6ee 8cbd a80a 33bd 3370 3a3c
00000380: a492 8e3d 441c 4cbd 5708 81bd 2204 8dbd
00000390: cd61 8cbd bdd5 8f3d 8173 acbc f7e7 c4bd
000003a0: f6b6 77bd fafa 2e3e 19d5 9dbd 10fe 4d3d
000003b0: cc10 a4bd d2c6 7a3b 2188 bb3c f732 f7bd
000003c0: 5147 173d b612 d3bc 6074 023c 47f5 7f3b
000003d0: 67a4 b9bb f9da 8abd 2a95 033e 5a05 d3bc
000003e0: 7886 d0bc 9fac 7c3d a12e 5e3d b141 623d
000003f0: 84c2 4bbd b691 d13d 0f37 c33d b641 443d

network_body._body_endoder.seq_layers.4.bias f4 [256]
0.012209542 0.012827953 0.012566114 0.012061095 0.009616341 -0.012371059 0.012053622 -0.011629662
0.012085597 -0.012449051 0.01192056 -0.011819812 0.011942234 0.012190993 -0.0154208345 0.012341553
-0.012315461 -0.011961739 -0.012066786 0.012058436 0.012101678 -0.019101148 0.011823801 -0.012375244
0.01209726 -0.011595284 0.01328246 -0.01205953 0.012481982 -0.012334613 -0.012279423 -0.011772674
-0.012123775 -0.012198282 -0.018426016 -0.01346502 -0.01185743 -0.0120043885 0.010403227 0.012592884
0.013025152 -0.019456314 0.011959914 0.00767675 0.0071483036 0.012093259 -0.011816415 -0.01231124
-0.011779912 0.01301931 -0.018367302 0.012952403 0.012291122 0.01397658 0.010303743 -0.011690389
0.012165414 0.011931637 0.012112944 0.012156422 0.011897313 0.0067386664 0.012602387 -0.011939924
-0.011525088 0.011410742 0.0032068049 0.012187927 -0.014313702 0.011291024 -0.012473749 0.012264891
-0.011657094 -0.011599764 0.012063603 -0.011642274 0.012639118 -0.012255442 0.012347632 0.0121537745
-0.011667801 -0.0117598 -0.011995417 0.012441944 -0.011822552 0.01245534 -0.013830233 -0.011628937
-0.0109613575 0.012225467 -0.011649877 -0.01217276 0.011990214 0.01219253 -0.011991263 -0.0065468014
0.012245054 -0.012072183 0.011877913 -0.012492359 -0.01301814 -0.011888021 0.011664154 0.012340072
0.009801116 0.012437231 -0.011486318 -0.01192423 0.0171996 -0.012348469 0.011992627 0.010443462
0.012441963 0.012153318 -0.0127867805 -0.011880348 -0.01204335 -0.011874108 0.012397287 -0.0045681763
0.012403438 -0.012910311 -0.012260569 0.011836535 0.012492437 -0.011835174 -0.011586953 0.012157029
0.012251619 0.01215942 0.012723751 -0.011719643 0.011359481 -0.010639675 0.012494075 0.011639266
0.011847736 0.011538479 -0.012042011 0.012296245 -0.012396013 -0.012654817 -0.011885749 0.005612789
-0.012004075 0.01213745 0.00043761512 -0.0119037265 0.012176016 -0.0119374115 0.010946907 0.012354701
-0.012067308 0.012083689 -0.01165402 0.012544213 -0.012051465 -0.0121006165 0.011982222 -0.011917916
0.012741239 0.011929117 -0.012291283 -0.012281693 0.010489942 0.012650012 -0.011973777 -0.011595428
-0.011928338 0.012482069 -0.012226225 0.011838236 0.012057859 0.011871728 -0.012286721 -0.012069303
0.011832091 -0.011875152 -0.012618032 0.009586684 -0.009111787 0.011767767 -0.011775286 -0.010999707
-0.010966306 -0.012486411 -0.01205559 0.01953115 -0.01229111 0.012795508 0.004724563 -0.012055877
0.012149058 0.011143129 0.012050445 -0.018966949 -0.011975831 0.011802558 -0.012696557 0.0058579394
0.012058359 -0.012244157 0.010256243 0.009438122 0.014889442 0.014058465 -0.011606564 0.011959977
-0.012366314 -0.003859591 -0.0123786125 -0.02053346 0.012247527 0.012257643 0.011964959 -0.01146516
-0.011832251 -0.011863611 0.012065032 -0.0020166563 0.012795809 0.009264873 0.0119091375 -0.0122809
0.012209532 0.011924404 -0.012330011 0.013470885 -0.012343648 -0.00018523853 -0.012074756 0.012422621
-0.011670562 0.00316108 0.01240228 -0.011893738 -0.012282621 0.011726983 -0.012378257 0.012134786
-0.009556707 -0.012247757 -0.012173601 -0.012495456 -0.011884473 0.0120153865 -0.011770707 -0.0080676135
-0.02005506 0.011620474 0.012690596 -0.012483992 -0.012623896 0.013807224 0.011636534 0.012478988
00000000: 880a 483c 562c 523c 1ae2 4d3c e69b 453c
00000010: dc8d 1d3c fbaf 4abc 8e7c 453c 568a 3ebc
00000020: ab02 463c 1bf7 4bbc 744e 433c e2a7 41bc
00000030: 5ca9 433c bbbc 473c aba7 7cbc 3a34 4a3c
00000040: cac6 49bc 2bfb 43bc c5b3 45bc bf90 453c
00000050: 1e46 463c 037a 9cbc 9eb8 413c 89c1 4abc
00000060: 9633 463c 25fa 3dbc ad9e 593c 5695 45bc
00000070: 3a81 4c3c 1e17 4abc a22f 49bc 2ce2 40bc
00000080: cca2 46bc 4edb 47bc 28f2 96bc 639c 5cbc
00000090: ab45 42bc 0eae 44bc 4c72 2a3c 6252 4e3c
000000a0: 7267 553c d962 9fbc 84f3 433c 3f8d fb3b
000000b0: 513c ea3b ce22 463c a399 41bc 15b5 49bc
000000c0: 8800 41bc f24e 553c 0677 96bc 5136 543c
000000d0: b460 493c 07fe 643c 08d1 283c 0c89 3fbc
000000e0: 7251 473c ea7c 433c 5f75 463c bb2b 473c
000000f0: f3ec 423c 08d0 dc3b 3e7a 4e3c ac9f 43bc
00000100: b9d3 3cbc 1ff4 3a3c 4229 523b dfaf 473c
00000110: 0484 6abc fdfd 383c b25e 4cbc aef2 483c
00000120: 65fd 3ebc f00c 3ebc 6ba6 453c 3dbf 3ebc
00000130: 4e14 4f3c 0dcb 48bc b94d 4a3c a020 473c
00000140: 4e2a 3fbc 2dac 40bc 6d88 44bc 4cd9 4b3c
00000150: 61b3 41bc 7b11 4c3c 3498 62bc 4c87 3ebc
00000160: 4497 33bc 534d 483c 20df 3ebc 4270 47bc
00000170: 9a72 443c 2dc3 473c 0177 44bc 8d86 d6bb
00000180: 7b9f 483c 68ca 45bc 949b 423c c0ac 4cbc
00000190: 094a 55bc f9c5 42bc 021b 3f3c 032e 4a3c
000001a0: dc94 203c 87c5 4b3c 1c31 3cbc d85d 43bc
000001b0: 2de6 8c3c 3c51 4abc b97c 443c 0e1b 2b3c
000001c0: 60d9 4b3c b61e 473c a57f 51bc cba5 42bc
000001d0: 7951 45bc 9e8b 42bc fe1d 4b3c a4b0 95bb
000001e0: ca37 4b3c c585 53bc 8ee0 48bc 07ee 413c
000001f0: 14ad 4c3c 51e8 41bc 34d7 3dbc 462e 473c
00000200: 04bb 483c 4e38 473c 4877 503c bf03 40bc
00000210: 1e1d 3a3c 0852 2ebc f3b3 4c3c 9fb2 3e3c
00000220: 021d 423c e30b 3d3c db4b 45bc 3176 493c
00000230: a618 4bbc 2656 4fbc 72bc 42bc 7deb b73b
00000240: bdac 44bc 28dc 463c b56f e539 d907 43bc
00000250: ea7d 473c 2295 43bc a85a 333c 5f6b 4a3c
00000260: f5b5 45bc aafa 453c 81f0 3ebc 3e86 4d3c
00000270: 8273 45bc aa41 46bc 1551 443c 5d43 43bc
00000280: a1c0 503c 5872 433c 6161 49bc 2739 49bc
00000290: 01de 2b3c ff41 4f3c a92d 44bc c0fa 3dbc
000002a0: 136f 43bc 9881 4c3c 8150 48bc 29f5 413c
000002b0: 548e 453c a381 423c 3e4e 49bc 53be 45bc
000002c0: 63db 413c ff8f 42bc ddbb 4ebc 7811 1d3c
000002d0: 9b49 15bc 98cd 403c 21ed 40bc 1d38 34bc
000002e0: 05ac 33bc ce93 4cbc cf84 45bc caff 9f3c
000002f0: a760 49bc 40a4 513c 82d0 9a3b 0386 45bc
00000300: d80c 473c ac91 363c 3b6f 453c 9360 9bbc
00000310: 4736 44bc 845f 413c 3805 50bc f5f3 bf3b
00000320: 6c90 453c b79b 48bc cd09 283c 5aa2 1a3c
00000330: d9f2 733c 7a55 663c 7529 3ebc c8f3 433c
00000340: 159c 4abc 31f1 7cbb aacf 4abc c935 a8bc
00000350: daa9 483c 48d4 483c ad08 443c 5ed8 3bbc
00000360: 0fdc 41bc 975f 42bc 69ac 453c e129 04bb
00000370: 83a5 513c b2cb 173c 8b1e 433c d435 49bc
00000380: 7d0a 483c 935e 433c d103 4abc fdb4 5c3c
00000390: 033d 4abc 973c 42b9 33d5 45bc 4088 4b3c
000003a0: e335 3fbc 1f2a 4f3b ef32 4b3c f4dd 42bc
000003b0: 0c3d 49bc 8822 403c 2cce 4abc fbd0 463c
000003c0: bc93 1cbc d1aa 48bc c973 47bc beb9 4cbc
000003d0: 18b7 42bc 2fdc 443c ecd9 40bc 062e 04bc
000003e0: 824a a4bc cd63 3e3c 38ec 4f3c a889 4cbc
000003f0: 75d4 4ebc b237 623c 29a7 3e3c ab74 4c3c

action_model._continuous_distribution.mu.weight f4 [1, 256]
0.025730094 0.019310012 0.017459288 0.027671367 0.007063993 -0.021488437 0.020223316 -0.0396548
0.022212323 -0.021171842 0.026923446 -0.025086395 0.015109263 0.02003452 -0.0125352405 0.018842854
-0.021466034 -0.026852421 -0.014635742 0.02418409 0.018764822 -0.020701762 0.041658588 -0.017446144
0.024648776 -0.02917381 0.01841984 -0.016638383 0.014841474 -0.016911266 -0.018560097 -0.027793514
-0.020729328 -0.02226783 -0.020694532 -0.016364425 -0.031039506 -0.022191007 0.011630668 0.018715467
0.012988464 -0.0215805 0.029690133 0.010559834 0.015524633 0.025696138 -0.017254744 -0.020230154
-0.033783715 0.015474887 -0.018711576 0.015625997 0.01586854 0.01918239 0.010529371 -0.034399163
0.018803552 0.017945932 0.019996425 0.021177065 0.015179215 0.0025159586 0.021256441 -0.026824998
-0.01739398 0.010916317 0.0018078705 0.02035234 -0.012846786 0.013835948 -0.018413965 0.013930565
-0.015001262 -0.031222723 0.024416456 -0.03688052 0.015071061 -0.01868668 0.024607938 0.01844957
-0.026806192 -0.03500338 -0.026867572 0.022045363 -0.03324419 0.018929778 -0.02095205 -0.030933844
-0.010813921 0.021869788 -0.030056085 -0.02201255 0.0155992275 0.016740294 -0.022683516 0.0015951963
0.02184043 -0.016263256 0.04761166 -0.014206705 -0.013148625 -0.035036072 0.023495583 0.01846594
0.01039702 0.026230415 -0.014753253 -0.02687012 0.020487238 -0.01223139 0.026805999 0.010110079
0.019291427 0.02297678 -0.016400067 -0.030137656 -0.026027922 -0.027800545 0.014284311 -0.006869678
0.015003854 -0.018957509 -0.017747346 0.037233837 0.019431775 -0.02856822 -0.03972545 0.023482641
0.019205736 0.022708379 0.01691517 -0.020142274 0.015368568 -0.010530569 0.020219669 0.012365527
0.034387622 0.014335003 -0.02257053 0.021442708 -0.018672463 -0.015307898 -0.022180194 0.0005279603
-0.019808594 0.021816537 0.011603876 -0.02140391 0.01919558 -0.0147911655 0.0112700015 0.024367629
-0.01455596 0.030196909 -0.029416 0.018000424 -0.020540686 -0.020175148 0.03194245 -0.02406593
0.019200286 0.033682283 -0.024203341 -0.016787853 0.014148438 0.01394276 -0.023847781 -0.03788765
-0.02504706 0.016014054 -0.017061977 0.050589107 0.029905498 0.04286183 -0.016796004 -0.019681536
0.017311584 -0.024583464 -0.015401022 0.009082963 -0.016933227 0.012481868 -0.025482751 -0.020906461
-0.010688309 -0.02124335 -0.02144344 0.019778607 -0.019051025 0.013042968 -0.006900687 -0.022136178
0.025344875 0.011848501 0.025943603 -0.020448506 -0.013029272 0.04408386 -0.016308313 -0.003906613
0.015611341 -0.018612461 0.017089587 0.013232636 0.01422761 0.018308043 -0.042785786 0.033655867
-0.019691821 0.005635312 -0.016784228 -0.021249454 0.027802596 0.017284118 0.020371174 -0.021138199
-0.026926812 -0.026165169 0.025148569 -0.0027272797 0.0134441685 0.009705294 0.032806814 -0.018127335
0.015169656 0.02871505 -0.02160667 0.015043962 -0.019007115 -0.0065750666 -0.016579852 0.025371064
-0.03060312 0.013133293 0.022973424 -0.02543359 -0.018613122 0.0119846035 -0.020779556 0.023075214
-0.008245491 -0.017951049 -0.02046002 -0.01412019 -0.02156697 0.02811374 -0.030660443 -0.0069202827
-0.020637812 0.019158222 0.01942893 -0.018379083 -0.016203951 0.017339088 0.021584377 0.02238656
00000000: ebc7 d23c 0830 9e3c c806 8f3c 10af e23c
00000010: 1179 e73b 8508 b0bc 5eab a53c 126d 22bd
00000020: 9ef6 b53c 9270 adbc 8f8e dc3c fc81 cdbc
00000030: d88c 773c 6f1f a43c 9c60 4dbc 545c 9a3c
00000040: 89d9 afbc 9cf9 dbbc c0ca 6fbc b61d c63c
00000050: afb8 993c be96 a9bc 32a2 2a3d 37eb 8ebc
00000060: 3bec c93c eafd eebc 34e5 963c 384d 88bc
00000070: a729 733c 7f89 8abc 580b 98bc 39af e3bc
00000080: 8dd0 a9bc 066b b6bc 9487 a9bc b00e 86bc
00000090: 9046 febc eac9 b5bc 8f8e 3e3c 2e51 993c
000000a0: 91cd 543c 97c9 b0bc b938 f33c 2703 2d3c
000000b0: 085b 7e3c b580 d23c d259 8dbc b5b9 a5bc
000000c0: cb60 0abd 618a 7d3c 0549 99bc 1702 803c
000000d0: befe 813c 6324 9d3c 6283 2c3c 23e6 0cbd
000000e0: e809 9a3c 5903 933c 8bcf a33c 867b ad3c
000000f0: 3eb2 783c c8e2 243b fd21 ae3c 19c0 dbbc
00000100: d27d 8ebc 5ada 323c 11f6 ec3a f3b9 a63c
00000110: 537b 52bc 2cb0 623c e2d8 96bc 063d 643c
00000120: dac7 75bc ccc6 ffbc 0505 c83c 0710 17bd
00000130: 9dec 763c cf14 99bc 9696 c93c 8d23 973c
00000140: a998 dbbc b45f 0fbd 6219 dcbc 7a98 b43c
00000150: 0f2b 08bd 9f12 9b3c a2a3 abbc f968 fdbc
00000160: df2c 31bc 4528 b33c 2e38 f6bc aa53 b4bc
00000170: e793 7f3c f122 893c c8d2 b9bc e815 d13a
00000180: b4ea b23c 853a 85bc 7204 433d 3dc3 68bc
00000190: 556d 57bc fc81 0fbd cf79 c03c e245 973c
000001a0: 4358 2a3c 2be1 d63c a1b7 71bc ba1e dcbc
000001b0: dad4 a73c 2b66 48bc 4198 db3c bfa4 253c
000001c0: 0e09 9e3c cd39 bc3c 6f59 86bc 3fe3 f6bc
000001d0: 8238 d5bc f8bd e3bc be08 6a3c 091b e1bb
000001e0: bad2 753c c74c 9bbc e262 91bc 8282 183d
000001f0: 632f 9f3c e607 eabc 27b7 22bd ab5e c03c
00000200: 5955 9d3c ec06 ba3c af91 8a3c 6901 a5bc
00000210: 72cc 7b3c 6888 2cbc b8a3 a53c c898 4a3c
00000220: 09da 0c3d 5cdd 6a3c d5e5 b8bc 9ea8 af3c
00000230: fef6 98bc facd 7abc 3db3 b5bc d166 0a3a
00000240: a245 a2bc 98b8 b23c 2f1e 3e3c 4157 afbc
00000250: 0d40 9d3c a556 72bc d0a5 383c 9f9e c73c
00000260: 1f7c 6ebc 825f f73c d3f9 f0bc a075 933c
00000270: f144 a8bc 5a46 a5bc 16d6 023d ea25 c5bc
00000280: eb49 9d3c 6ff6 093d 1646 c6bc ae86 89bc
00000290: dace 673c 2d70 643c 6c5c c3bc 1530 1bbd
000002a0: 7e2f cdbc e82f 833c 8fc5 8bbc 8636 4f3d
000002b0: 60fc f43c e38f 2f3d c697 89bc 2c3b a1bc
000002c0: 06d1 8d3c 4363 c9bc 9154 7cbc b5d0 143c
000002d0: 8db7 8abc c080 4c3c 34c1 d0bc 0744 abbc
000002e0: 041e 2fbc 8906 aebc 27aa afbc bf06 a23c
000002f0: e510 9cbc 2cb2 553c 281f e2bb ee56 b5bc
00000300: 0ea0 cf3c 3720 423c ae87 d43c a083 a7bc
00000310: ba78 55bc 4791 343d 0399 85bc 0c03 80bb
00000320: b6c6 7f3c 2979 98bc 76ff 8b3c b3cd 583c
00000330: ec1a 693c c0fa 953c 2640 2fbd bcda 093d
00000340: be50 a1bc 6ca8 b83b 147f 89bc 5613 aebc
00000350: 45c2 e33c 6c97 8d3c 73e1 a63c 042a adbc
00000360: 9e95 dcbc 5658 d6bc 5f04 ce3c 29bc 32bb
00000370: ee44 5c3c f402 1f3c 7060 063d c77f 94bc
00000380: 268a 783c d33b eb3c 7900 b1bc f37a 763c
00000390: cfb4 9bbc a873 d7bb 78d2 87bc fad6 cf3c
000003a0: 65b3 fabc 062d 573c c332 bc3c 1b5a d0bc
000003b0: 8c7a 98bc 125b 443c e339 aabc 3b08 bd3c
000003c0: 1918 07bc 140e 93bc c69b a7bc 5f58 67bc
000003d0: 37ad b0bc c94e e63c 9c2b fbbc 8ac3 e2bb
000003e0: a110 a9bc b4f1 9c3c 6b29 9f3c bb8f 96bc
000003f0: 26be 84bc b40a 8e3c b8d1 b03c 0564 b73c
