results/training1/BoundarySequence/BoundarySequence-499231.onnx (onnx, 552778 bytes, 10 tensors)

network_body.observation_encoder.processors.0.normalizer.running_mean f4 [14]
0	0x428ca658	70.32489
1	0xc33b5dcb	-187.36638
2	0xc25cfda2	-55.24769
3	0x3d89e538	0.06733173
4	0x420e1680	35.521973
5	0x3eab304d	0.33435288
6	0x459b15a5	4962.7056
7	0x44036eca	525.7311
8	0xbc28aecd	-0.010295582
9	0x43cf9e2e	415.23578
10	0x3c28aecd	0.010295582
11	0x440733ba	540.8082
12	0xbba1119d	-0.0049154297
13	0x43c8144e	400.15863

network_body._body_endoder.seq_layers.0.weight f4 [256, 14]
0	0x3dd5c13f	0.104372494
1	0x3e883691	0.2660413
2	0xbc1dfda8	-0.009642996
3	0xbe92a1a6	-0.28638953
4	0x3da6e4de	0.08149122
5	0xbe1ae3e0	-0.1512599
6	0xbe8d9f91	-0.27660802
7	0x3db3a10f	0.08770954
8	0xbdd09145	-0.10183958
9	0xbee59088	-0.4483683
10	0x3dca0313	0.098638676
11	0xbd9f7945	-0.07786802
12	0x3d73ef2b	0.05955426
13	0x3e751eaf	0.23937486
14	0x3b986bc1	0.004651517
15	0xbe150940	-0.1455431
16	0x3b5a08c9	0.0033269397
17	0x3ea734b6	0.32657403
18	0x3e8fea0e	0.28108257
19	0xbd46781e	-0.048454396
20	0x3da02fb8	0.07821602
21	0xbdb3e551	-0.08783973
22	0xbe84b56e	-0.2591967
23	0xbdf67729	-0.12034447
24	0xbea2f2f0	-0.31825972
25	0xbeb257f9	-0.34832743
26	0x3d120754	0.03565152
27	0x3d33f6c2	0.0439365
28	0xbc59a265	-0.013283347
29	0xbd20ceb6	-0.039259635
30	0x3f0344b2	0.51276696
31	0xbda56a1b	-0.08076879
32	0xbe2fe14a	-0.17175785
33	0x3e441ade	0.19150874
34	0xbde16dd2	-0.11007275
35	0x3dbfd678	0.093670785
36	0x3e0445d8	0.12917268
37	0x3df2f1a1	0.11862493
38	0xbda27da6	-0.07934122
39	0xbe151cca	-0.14561763
40	0xbea85c69	-0.32883003
41	0xbac0502d	-0.0014672332
42	0x3eaf7b25	0.3427364
43	0x3da96cc5	0.08272699
44	0x3e02ea66	0.12784728
45	0x3d8c224d	0.0684248
46	0x3e8da180	0.27662277
47	0x3d58d064	0.05293311
48	0xbe01e3f2	-0.1268461
49	0x3e295f14	0.16540176
50	0x3d897526	0.067117974
51	0x3dbc8bbf	0.09206342
52	0xbd67a28a	-0.056551494
53	0xbef7eea3	-0.48424253
54	0x3e6abffe	0.22924802
55	0xbd0fed6a	-0.035138525
56	0x3d01004b	0.03149442
57	0xbdf21364	-0.11820105
58	0x3e49d10a	0.19708648
59	0x3d317ebc	0.043333754
60	0xbd019bd9	-0.03164277
61	0x3e23f3db	0.16010992
62	0x3ea35842	0.31903273
63	0xbe8ae1d5	-0.2712542
64	0x3e553141	0.2081957
65	0xbd48de37	-0.049040046
66	0x3ee2aa57	0.44270584
67	0xbcdebdbf	-0.027190087
68	0xbd50d2ea	-0.050982393
69	0x3e8ec77f	0.27886578
70	0xbe32b25a	-0.17450848
71	0x3d5e50be	0.05427622
72	0xbd181869	-0.037132654
73	0x3ee98b85	0.45614257
74	0x3e1aa908	0.15103543
75	0xbe78a834	-0.24282914
76	0x3f0610bb	0.5236928
77	0xbf2ad043	-0.6672403
78	0x3eb6f923	0.3573695
79	0x3e369da7	0.17833577
80	0xbe77924a	-0.24176899
81	0xbcec8e43	-0.02887643
82	0xbe54b542	-0.2077227
83	0xbf06e799	-0.5269714
84	0x38b2f9b7	8.5342144e-05
85	0xbd0a35a1	-0.03374255
86	0xbef85807	-0.4850466
87	0xbdef666d	-0.11689458
88	0x3dcece2a	0.100979164
89	0xbd2944b4	-0.041325286
90	0x3eed8304	0.4638902
91	0x3dc830bd	0.09774921
92	0xbdcc112a	-0.09964211
93	0x3e967cf2	0.293922
94	0x3e255bc9	0.16148295
95	0x3ef0d432	0.47036892
96	0x3e0be015	0.136597
97	0xbe97d812	-0.29657036
98	0x3ec7ff3a	0.3906191
99	0x3db8ab8b	0.09017094
100	0x3dcde65d	0.10053704
101	0x3eaada1c	0.3336953
102	0xbda2b820	-0.07945275
103	0xbece5f76	-0.40307206
104	0x3db7d4b0	0.08976114
105	0xbeb02aaa	-0.3440755
106	0xbeb0bf11	-0.34520772
107	0xbe1b15eb	-0.1514508
108	0xbd1cf172	-0.038316198
109	0xbd960c7e	-0.073266014
110	0xbdbed797	-0.09318464
111	0xbdebf716	-0.11521737
112	0xbe46ae63	-0.19402461
113	0xbee380c3	-0.44434175
114	0x3ea651c3	0.32484254
115	0xbeb9dc88	-0.36301064
116	0xbf0eab37	-0.55730003
117	0xbd5e62a9	-0.05429331
118	0x3e315313	0.17316847
119	0x3cde45bc	0.027132861
120	0x3dbeeaea	0.0932215
121	0x3d898a75	0.06715862
122	0xbe5d6463	-0.21620326
123	0x3ca94b07	0.020665659
124	0x3e532550	0.20619702
125	0xbe8f04d4	-0.2793337
126	0x3e8ef6f5	0.27922788
127	0xbe1c5542	-0.15266898
128	0x3eb30b5b	0.349696
129	0xbe9687f4	-0.294006
130	0xbe1ec92f	-0.15506433
131	0x3ec0d9cc	0.37666166
132	0xbecba137	-0.39771435
133	0xbcfa148f	-0.030527381
134	0xbe0ceacc	-0.13761443
135	0xbee2ffab	-0.44335684
136	0xbee05f21	-0.43822578
137	0x3e36f3ab	0.1786639
138	0xbe42cae3	-0.19022708
139	0xbd1abbfa	-0.037776925
140	0x3ea7e37b	0.3279074
141	0xbe220453	-0.15821962
142	0x3e07ee17	0.13274418
143	0xbe4d6f41	-0.20061971
144	0xbde72d98	-0.11287993
145	0x3e5da058	0.21643198
146	0x3c95f13f	0.018303512
147	0xbe31ee6d	-0.17376108
148	0xbd245ecf	-0.04012948
149	0x3ee7ed2a	0.4529813
150	0xbc5bb569	-0.013409951
151	0xbdf2ca12	-0.11854948
152	0xbd64d342	-0.055865534
153	0xbeac702c	-0.3367933
154	0x3f06d250	0.5266466
155	0x3ed41b7f	0.41427228
156	0xbdc7b427	-0.09751158
157	0x3f4423c6	0.76617086
158	0xbed4be64	-0.41551507
159	0xbe8aa8fa	-0.27082044
160	0xbdad268d	-0.084546186
161	0x3d770570	0.06030792
162	0xbdc78ec6	-0.09744029
163	0x3ec7698c	0.38947713
164	0x3d72ccab	0.059277218
165	0xbcb32082	-0.021866087
166	0x3da09540	0.07840967
167	0x3e3bcddb	0.18340246
168	0x3eaead32	0.34116513
169	0x3e42291a	0.18960992
170	0xbe9b5312	-0.30336815
171	0xbf629f76	-0.8852457
172	0xbe97556b	-0.29557356
173	0x3e9103d6	0.2832324
174	0x3e7dc55c	0.24782318
175	0xbe0e1a74	-0.13877279
176	0xbf0c910d	-0.5490883
177	0xbed10eef	-0.40831706
178	0x3e5de10a	0.21667877
179	0xbdc60110	-0.096681714
180	0xbeb0870c	-0.34478033
181	0x3e7f01e7	0.2490307
182	0xbed56086	-0.41675204
183	0xbe4e4661	-0.20144035
184	0xbc872c2e	-0.016500559
185	0xbda48083	-0.08032324
186	0xbe0cbd1e	-0.13744017
187	0xbda43b8f	-0.080191724
188	0x3dab8f42	0.08376934
189	0xbe04c6de	-0.12966487
190	0x3de612f0	0.11234081
191	0xbe297896	-0.16549906
192	0xbdc9cc1a	-0.098533824
193	0x3e0f9e9e	0.14025351
194	0xbe3f1e74	-0.1866396
195	0xbe544c50	-0.20732236
196	0xbf03e528	-0.5152154
197	0x3ee3ea47	0.44514677
198	0xbe8ac068	-0.2709992
199	0x3e8cb751	0.2748361
200	0xbe15a1c7	-0.14612494
201	0x3e95de3b	0.2927111
202	0x3dcdab95	0.10042492
203	0x3dafa20f	0.08575832
204	0xbe5a3a84	-0.21311384
205	0x3e80f69c	0.25188148
206	0x3e7df0b8	0.24798858
207	0xbeb79042	-0.35852247
208	0x3e98d94b	0.2985328
209	0xbe6b2284	-0.22962385
210	0xbf0b0600	-0.5430603
211	0xbe145eea	-0.14489332
212	0xbd7531a3	-0.05986179
213	0x3ddc8065	0.10766677
214	0xbe3c3cca	-0.18382564
215	0x3dd335ee	0.10313021
216	0xbe2c7a7f	-0.16843604
217	0x3e8535b4	0.26017535
218	0x3eb7e86f	0.3591952
219	0x3e278db5	0.1636265
220	0xbdc192f6	-0.09451859
221	0xbd85b8e8	-0.06529409
222	0xbe2d0a96	-0.1689857
223	0xbe84a5b5	-0.25907674
224	0xbe7a1a13	-0.24424009
225	0xbe4d1354	-0.20026904
226	0xbd82778d	-0.06370459
227	0xbe074fd6	-0.13214049
228	0x3e20c1b3	0.1569889
229	0x3e821b5d	0.25411502
230	0xbe5db77e	-0.21652028
231	0x3d554980	0.05207205
232	0xbd138c73	-0.036022615
233	0x3dde2a0d	0.10847864
234	0xbbe3660b	-0.0069396547
235	0x3e6e5627	0.23275052
236	0x3d409221	0.04701436
237	0xbd08f18f	-0.033433493
238	0xbe82a9f6	-0.25520295
239	0xbdd7058c	-0.10499105
240	0xbd5c8b70	-0.053843915
241	0x3f0a4154	0.5400593
242	0xbeb0eb4a	-0.3455451
243	0x3ed8a1ee	0.42311043
244	0x3e036da5	0.12834795
245	0x3da99fea	0.08282454
246	0x3c7f1270	0.015568361
247	0x3e42c7f8	0.19021595
248	0xbe849590	-0.25895357
249	0xbce10773	-0.027469372
250	0xbd70a69a	-0.058752634
251	0x3dc32b34	0.09529725
252	0x3d9cc5ff	0.07654952
253	0xbec015ff	-0.37516782
254	0xbe29cb2a	-0.16581407
255	0xbe8b6c0d	-0.27230874

network_body._body_endoder.seq_layers.0.bias f4 [256]
0	0xbc156cf6	-0.009120217
1	0xbc8ebd0c	-0.017424129
2	0x3b857f4c	0.004074013
3	0x3bfda185	0.007740202
4	0x3b3e997f	0.002908319
5	0x3aa856cd	0.0012843251
6	0x3bb83213	0.0056212037
7	0x3b8296a4	0.003985243
8	0x3b72553d	0.0036977076
9	0xbb96b6c6	-0.004599425
10	0xba423efa	-0.0007409897
11	0xbac834b6	-0.0015274498
12	0x3c4658c7	0.012106127
13	0x3babf79a	0.0052480223
14	0x3b8dca37	0.0043270844
15	0xbb10d7e6	-0.0022101342
16	0xb9c7f2d1	-0.0003813715
17	0x3c16be9e	0.00920072
18	0x3ad6d0ac	0.0016389093
19	0x3c804f77	0.015662892
20	0x3b92b47b	0.0044770814
21	0xbaf1d373	-0.0018449858
22	0xbc29763c	-0.010343131
23	0x3b93805a	0.0045013847
24	0x3b0ba0fe	0.0021305676
25	0x39946f45	0.00028311662
26	0xbbdd2989	-0.006749336
27	0x3b1a6344	0.0023557702
28	0xbc40249e	-0.01172748
29	0xbc6be110	-0.014396921
30	0xbc474750	-0.012162998
31	0x3b1398ba	0.0022521452
32	0x3ba8d442	0.005152256
33	0x39308816	0.00016835364
34	0xbbe19c2e	-0.006885073
35	0xbafdf526	-0.0019375428
36	0xbc44d8f2	-0.012014614
37	0x3b43f10e	0.0029898318
38	0xbb71f6a7	-0.0036920698
39	0xbbc71413	-0.006075391
40	0xbb91de18	-0.0044515245
41	0xbc014619	-0.007890248
42	0x3bc25261	0.0059302305
43	0xbc1a1a9f	-0.009405761
44	0xbba040be	-0.0048905304
45	0x3b0ec968	0.0021787528
46	0x3941f20b	0.00018496082
47	0xbbb099c7	-0.0053894254
48	0x392b559b	0.00016339721
49	0xbbf243f7	-0.007393356
50	0xbc31b600	-0.010846615
51	0xbc005c5a	-0.007834518
52	0x3bc249cd	0.005929208
53	0x3b322902	0.0027185087
54	0xba8a769c	-0.0010563913
55	0x3b091938	0.0020919573
56	0x3c086b65	0.008326386
57	0x3b127fb9	0.002235396
58	0xb9c11a0f	-0.00036831244
59	0x3ab369e8	0.0013688179
60	0xbc06edd8	-0.008235417
61	0x3c5e9d4a	0.013587305
62	0xbb9d9722	-0.004809276
63	0xbc03d8b7	-0.008047274
64	0xbc966772	-0.018359873
65	0xbce76d2e	-0.028250303
66	0x3be6d47f	0.0070443745
67	0xbb2096a6	-0.0024503856
68	0xbb6112ae	-0.003434341
69	0x3c1d739f	0.009610086
70	0x3bcfc940	0.0063411295
71	0x3aff5d0c	0.0019482686
72	0xbba6a04e	-0.005085028
73	0x3c2527b8	0.0100802705
74	0x3b4d0941	0.0031286033
75	0x3b5a9f67	0.0033359171
76	0xbc1f0a3c	-0.00970703
77	0xbb6856b2	-0.0035452065
78	0x3c297848	0.010343619
79	0xbc6c33d3	-0.014416653
80	0x3b13f2d8	0.0022575166
81	0x3b028a3c	0.001991882
82	0x3c2c35f9	0.010510915
83	0x39ae5425	0.0003325056
84	0x3aebf988	0.0018003443
85	0x3ab73d2b	0.0013980021
86	0xbbe3e223	-0.006954448
87	0xbac9316a	-0.001534981
88	0x3afc644a	0.0019255963
89	0x3c4b884c	0.012422632
90	0x3b133654	0.0022462802
91	0xba5f011d	-0.0008506941
92	0x3be123ea	0.0068707364
93	0x3b2d0967	0.002640331
94	0x3a0848d3	0.000519884
95	0x3a3c041b	0.00071722426
96	0xba352fa8	-0.00069117034
97	0xbc0f970c	-0.00876404
98	0x3c130ff0	0.008975968
99	0xbcbfd50e	-0.023417022
100	0x3c1e2bfb	0.00965404
101	0x3bef94ff	0.007311463
102	0xbbfbb05e	-0.0076809367
103	0xbc2298e9	-0.009924152
104	0x3b41b7c7	0.0029559003
105	0x3c1ccd40	0.00957042
106	0x39ec7f69	0.00045108356
107	0x3c1e8ddc	0.009677377
108	0x3c311208	0.010807522
109	0xbb63f7da	-0.0034785182
110	0xbb29556d	-0.0025838271
111	0x3bfa2b25	0.0076345378
112	0x3b7b13e0	0.0038311407
113	0x3af48076	0.0018654007
114	0xb9361afc	-0.00017366925
115	0xbbc7d46d	-0.006098321
116	0x3bfdcc56	0.007745306
117	0x3c28a0f7	0.010292283
118	0xbadb957e	-0.0016752926
119	0xbc3b6d2c	-0.011439603
120	0xbbfcb259	-0.0077116904
121	0xbcb57d3f	-0.022154449
122	0x3b838305	0.0040134215
123	0xbc87f9ef	-0.01659867
124	0x3b91ebe8	0.004453171
125	0x3bc8eae5	0.0061315172
126	0x3c042ee9	0.008067825
127	0xbc35b750	-0.011091068
128	0xba5f99d6	-0.0008529698
129	0x3b988cab	0.004655441
130	0x3b18caf0	0.002331432
131	0xbc1b444d	-0.009476733
132	0xbb63f0e9	-0.0034781045
133	0x3b0afa4a	0.0021206313
134	0x3ba65829	0.0050764275
135	0x3c395334	0.011311341
136	0xbb486a6d	-0.0030581013
137	0x3b9f3faa	0.0048598843
138	0x3885fd93	6.389166e-05
139	0xbb815981	-0.0039474373
140	0x3aa31c8e	0.0012444423
141	0x3bea1c40	0.007144481
142	0xbb78d41d	-0.0037968226
143	0x3a808677	0.0009805699
144	0x3bc4cc7f	0.006005823
145	0xbb962fe7	-0.004583347
146	0x3c0a5c72	0.008444892
147	0xb988f8f2	-0.0002612542
148	0xbc191808	-0.009344108
149	0x3af8ba00	0.0018976331
150	0xbc1cd51f	-0.009572296
151	0x3bd7672b	0.006573578
152	0x3c23547d	0.009968874
153	0x3b13e292	0.0022565466
154	0xbb13bf99	-0.002254462
155	0x3b5a09b5	0.0033269946
156	0x3ba7ebe0	0.005124554
157	0x3c15e0a8	0.0091478005
158	0xbac6874f	-0.0015146526
159	0xbb3e466d	-0.0029033676
160	0x3c26f2fd	0.010189769
161	0x3c5f4402	0.013627054
162	0x3b6de0f3	0.003629741
163	0x3bd1f575	0.0064074346
164	0x3c3f9ec7	0.01169557
165	0xbc1febba	-0.009760791
166	0xb9e60261	-0.0004387079
167	0xb9c9474a	-0.00038390822
168	0xbc15c02a	-0.009140054
169	0xbc23e510	-0.010003343
170	0xbb45242e	-0.003008138
171	0x3bbcba90	0.0057595447
172	0x3b11e431	0.0022261257
173	0xbbd898c8	-0.00661001
174	0x3a3843e3	0.0007029159
175	0x3bcc04ea	0.0062261717
176	0x3c321c2b	0.010870974
177	0xb99b89af	-0.00029666486
178	0x3b3bc8c3	0.00286536
179	0xbb828abc	-0.0039838236
180	0xbae4e10b	-0.0017462088
181	0x3a599049	0.0008299393
182	0x3b498b2f	0.0030753126
183	0xbbb33459	-0.005468887
184	0x3b1a2750	0.0023521967
185	0x3b25b295	0.0025283445
186	0xbc1bedc4	-0.009517137
187	0x3c29d913	0.010366696
188	0xbb205385	-0.0024463844
189	0xbc932d19	-0.01796584
190	0xbc30cb32	-0.010790633
191	0x3bef5f81	0.007305086
192	0x3b5a171d	0.0033277937
193	0x3bb553ff	0.0055336948
194	0x3a5234d0	0.0008018734
195	0xba7426b9	-0.00093136315
196	0xbbdfc7ab	-0.006829222
197	0x3be29cbf	0.0069156582
198	0x3b2a51e3	0.002598875
199	0xbbbf2c59	-0.005834144
200	0x3bc04eb8	0.005868759
201	0xb91f3e0a	-0.00015186533
202	0x3bb92421	0.005650059
203	0xbb744bf8	-0.0037276726
204	0x3bf10cf1	0.007356279
205	0x3b85f003	0.0040874495
206	0xbb8a9902	-0.0042296657
207	0xbc4fe1b2	-0.012688087
208	0xbbadf74d	-0.0053090216
209	0xbafd86b2	-0.001934251
210	0xbb9789c8	-0.004624579
211	0xbc216dbf	-0.009852826
212	0x3b995157	0.004678886
213	0x3c2e07ab	0.010621945
214	0xbb76d6d5	-0.003766467
215	0xbb05911e	-0.0020380686
216	0x3b00dc41	0.0019662532
217	0xbcdc8486	-0.02691866
218	0xbc159af2	-0.00913118
219	0xbaa05564	-0.001223248
220	0xbb589d6b	-0.0033052813
221	0x3be4ef6c	0.006986549
222	0x3b981a92	0.0046418393
223	0xbb9cdb16	-0.0047868593
224	0xbbcb0f8e	-0.0061969226
225	0x3ab13171	0.0013518763
226	0xbbcb737d	-0.0062088356
227	0x3bd88e81	0.0066087847
228	0xbc12b77c	-0.008954879
229	0x3b8e8eab	0.0043505034
230	0xbb8af50a	-0.0042406367
231	0x3beb8363	0.0071872934
232	0x3b87be8e	0.004142589
233	0xbb8bee8d	-0.004270381
234	0x3c2f926e	0.010716064
235	0xbc6fb14a	-0.014629671
236	0xbad415be	-0.0016180796
237	0xba87fe28	-0.0010375427
238	0xbbaba0b7	-0.0052376646
239	0x3b471b1b	0.0030381146
240	0xbc2d74f7	-0.010586969
241	0x3b73907c	0.0037164977
242	0xbb442414	-0.002992873
243	0x3be04637	0.0068443078
244	0xbc8a8359	-0.016908335
245	0x3b70b65f	0.0036729795
246	0x3a11ebd0	0.000556645
247	0x3b3dc74e	0.0028957906
248	0x3c3e2380	0.011605144
249	0x3b92b474	0.004477078
250	0x3ad434d6	0.0016190063
251	0xbc5452fd	-0.012959239
252	0xbb8a559b	-0.0042216307
253	0xba2a09a6	-0.0006486423
254	0x3baf0aea	0.005341877
255	0xbabee008	-0.0014562616

network_body._body_endoder.seq_layers.2.weight f4 [256, 256]
0	0x3c46c89a	0.012132788
1	0x3da6b696	0.08140294
2	0x3d80c263	0.06287076
3	0xbdb78e07	-0.089626364
4	0x3b0268bc	0.0019898852
5	0x3bbbdda3	0.0057332083
6	0x3c80772f	0.015681831
7	0xbd7f7ac1	-0.062372927
8	0x3dff1ee9	0.124570675
9	0x3d0ca401	0.034336094
10	0x3ad6eb4f	0.0016397032
11	0x3dd93481	0.106057175
12	0xbd6ae61f	-0.057348367
13	0x3cab703f	0.020927547
14	0xbdc7330a	-0.09726532
15	0xbbc61445	-0.006044897
16	0xbd87a6ca	-0.06623609
17	0x3d1c3d96	0.03814467
18	0xbccbf5c6	-0.024897467
19	0x3cb9a190	0.022660047
20	0x3ca7f886	0.020504247
21	0x3bb9866b	0.005661776
22	0x3dea327c	0.114354104
23	0xbd285a6d	-0.04110186
24	0xbdae5635	-0.085125364
25	0x3d05b0aa	0.032639183
26	0xbdb72ab0	-0.08943689
27	0xbd76f47d	-0.060291756
28	0xbda387e2	-0.07984902
29	0xbc0a1324	-0.008427415
30	0xbd9f7ab6	-0.07787077
31	0xbd1c4530	-0.03815192
32	0xbaaf921d	-0.0013394986
33	0x3d05a725	0.032630105
34	0xbd80b916	-0.06285302
35	0xbd143841	-0.03618646
36	0xbde5e171	-0.1122464
37	0x3881d72d	6.191279e-05
38	0x3d3d0a19	0.046152208
39	0x3d32ef1d	0.043685067
40	0xbcabd6be	-0.02097642
41	0x3c862e2c	0.016379438
42	0xbdee82a7	-0.11646014
43	0xbb058412	-0.002037291
44	0x3d8cfd71	0.068842776
45	0xbd3e58b4	-0.046471313
46	0x3debc754	0.11512628
47	0xbd1d364c	-0.03838186
48	0x3d794d3c	0.060864672
49	0x3c09f2b3	0.00841968
50	0xbdf40229	-0.119144745
51	0xbd92a5eb	-0.071605526
52	0x3e0b348d	0.13594265
53	0x3d55bb15	0.05218037
54	0xbc6b49d5	-0.014360865
55	0xbd9e0157	-0.07715099
56	0x3c9d2145	0.019180903
57	0x3d11ccac	0.03559558
58	0xbc8da683	-0.017291313
59	0x3de57208	0.1120339
60	0x3dcbf167	0.09958153
61	0x3c74e54f	0.01494725
62	0xbcdf0f8c	-0.027229093
63	0x3d9977bf	0.07493543
64	0xbda94c11	-0.08266462
65	0x3d81c1b1	0.06335772
66	0xbd6775b7	-0.056508746
67	0x3d71ba11	0.059015337
68	0xbd47cb37	-0.048777785
69	0xbd307ed2	-0.043089695
70	0xbd9e5e7c	-0.07732865
71	0x3d72c429	0.059269104
72	0x3d5fa0da	0.05459676
73	0xbd8005a6	-0.06251077
74	0xbbbf7353	-0.005842605
75	0x3d1cca66	0.03827896
76	0xbc7a3eab	-0.01527373
77	0x3e16521a	0.14679757
78	0x3db7b11e	0.08969329
79	0x3da75655	0.081707634
80	0xbd7a5337	-0.061114516
81	0x3d78528f	0.06062561
82	0xbc5b07ee	-0.01336859
83	0x3d2656fb	0.040610295
84	0xbb57b979	-0.0032916947
85	0xbd203d37	-0.03912088
86	0x3bf38691	0.007431813
87	0xbdbe52a0	-0.09293103
88	0xbad95e83	-0.0016583953
89	0x3dd5bbbb	0.10436197
90	0xbd794a75	-0.060862023
91	0x3cb1ce3b	0.021704784
92	0xbd99595e	-0.074877486
93	0x3d0ec95d	0.034860004
94	0xbd1b102a	-0.037857212
95	0x3d7e89ae	0.06214302
96	0x3e284fd8	0.16436708
97	0x3d004d7d	0.0313239
98	0x3dacbd98	0.084346
99	0xbbbce8f6	-0.005765076
100	0x3d03b99d	0.032159436
101	0xbdcb43a6	-0.09925012
102	0xbd59e5de	-0.053197734
103	0xbdcabbab	-0.09899076
104	0xbbae7828	-0.0053243823
105	0xbd2c1acc	-0.042017743
106	0x3cc121d6	0.023575705
107	0x3d406580	0.046971798
108	0xbc923a46	-0.017850053
109	0xbd39cc11	-0.04536063
110	0x3d81f9c2	0.06346466
111	0x3c1e3c71	0.009657965
112	0x3d492720	0.049109578
113	0x3dddcf2f	0.10830533
114	0x3df3145e	0.11869119
115	0x3e0d8153	0.13818865
116	0x3ca5e0bc	0.020248763
117	0x3d708da3	0.058728825
118	0x3d6ee842	0.058326967
119	0xbde7bbf7	-0.11315148
120	0xbc017596	-0.00790157
121	0xbcf9fc26	-0.030515742
122	0xbdea6bae	-0.114463195
123	0xbcf4c11e	-0.029877242
124	0x3bdd3ebf	0.0067518647
125	0xbd8fff5b	-0.07031127
126	0x39f80061	0.00047302528
127	0x3cadea06	0.021229755
128	0x3cb1b959	0.021694826
129	0xbdc13c6b	-0.09435352
130	0x3dfd3f4f	0.12365591
131	0x3a8d9d54	0.0010804334
132	0x3d42dede	0.047575824
133	0xbdaf354e	-0.08555089
134	0x3cb0fb0b	0.021604082
135	0xbd5f709f	-0.054550763
136	0x3db0cfd4	0.0863339
137	0xbd4a1bfd	-0.049343098
138	0x3dbf33b5	0.09336034
139	0x3d5d1e7c	0.05398415
140	0x3d2cbdeb	0.042173307
141	0xbdc21a07	-0.094776206
142	0xbd8f6b66	-0.070029065
143	0x3bc14249	0.0058977944
144	0xbc1739d0	-0.009230092
145	0x3c88a0f3	0.016678309
146	0xbdabdb91	-0.08391488
147	0x3c1ba206	0.009499079
148	0x3d702548	0.058629304
149	0x3b80aa76	0.0039265705
150	0x3d6d6849	0.057960782
151	0x3d3a8440	0.04553628
152	0xbd125ab9	-0.03573105
153	0x3c490714	0.012269754
154	0x3d943b1e	0.07237838
155	0x3d34b266	0.044115447
156	0x3d3ba70f	0.045813616
157	0x3dc152a7	0.09439593
158	0x3dbc48e6	0.09193592
159	0xbd4a095e	-0.04932534
160	0x3d0d0659	0.03442988
161	0xbccb4cdb	-0.024816921
162	0x3d79e15e	0.061005943
163	0x3d7416bf	0.059592005
164	0xbd55c8e3	-0.052193534
165	0x3c446b8d	0.011988533
166	0x3d82b62f	0.06382405
167	0x3b5902eb	0.0033113312
168	0xbd575131	-0.052567665
169	0x3c8280c0	0.015930533
170	0xbdb52ec3	-0.0884681
171	0x3afeb994	0.0019433969
172	0xb8e93b88	-0.00011121394
173	0xbc0a7baa	-0.008452335
174	0xbe12b954	-0.1432851
175	0xbc936cb8	-0.017996177
176	0xbd7f1b22	-0.062281735
177	0x3b9b2dba	0.0047356756
178	0x3da46add	0.08028195
179	0x3d3d11d4	0.04615958
180	0x3d95684d	0.072952844
181	0x3b980d2f	0.0046402435
182	0x3c4237fe	0.01185417
183	0x3c969fde	0.018386777
184	0xbd57acee	-0.052655153
185	0x3aea3d97	0.0017871138
186	0xbd009b64	-0.031398192
187	0xbd9cdf21	-0.07659746
188	0xbd9fdd77	-0.07805913
189	0xbca0dafb	-0.019635668
190	0x3d183f46	0.037169717
191	0xbcd8570c	-0.026408695
192	0xbd9d75b6	-0.07688467
193	0x3e213efa	0.1574668
194	0xbd8d90f6	-0.06912415
195	0xbd3e1543	-0.046406996
196	0x3d03e069	0.032196436
197	0x3c2e4106	0.01063562
198	0x3ca5e8e7	0.020252658
199	0x3c32521f	0.010883837
200	0xbcda7a50	-0.026669651
201	0xbd8115f8	-0.06303018
202	0xbd849a06	-0.0647469
203	0xbc801665	-0.015635679
204	0x3d169a20	0.03676808
205	0x3dde647b	0.10859009
206	0xbdd801da	-0.10547228
207	0xbdeebb25	-0.11656789
208	0x3d933a8e	0.07188903
209	0xbcb13ba1	-0.021634879
210	0x3c15f2f9	0.0091521675
211	0xbd5595a3	-0.052144658
212	0x3d9d7fed	0.076904155
213	0x3d2edd72	0.042691655
214	0xbca00973	-0.019535756
215	0x3dd3823f	0.10327577
216	0x3dfa973b	0.12235876
217	0xbcb7ed20	-0.022451937
218	0x3cce3f9f	0.025176821
219	0x3db74d3b	0.089502774
220	0x3db7ced0	0.08974993
221	0xbd29bef2	-0.041441865
222	0xbdeee5ee	-0.11664949
223	0xbd2690da	-0.040665485
224	0x3daa1023	0.08303859
225	0xbd992cd2	-0.07479252
226	0x3d531b6e	0.05153983
227	0x3c84d1ce	0.016213324
228	0x3c006578	0.007836692
229	0xbd2e5c89	-0.042568717
230	0x3c24717c	0.010036822
231	0xbd04819b	-0.032350164
232	0xbc61396c	-0.013746601
233	0x3d4de70e	0.05026918
234	0xbdfb9a15	-0.12285248
235	0xbd987fd8	-0.07446259
236	0xbc89587b	-0.016765824
237	0x3ce3f3d3	0.027826225
238	0x3d6f3b6b	0.058406275
239	0xbca3aa62	-0.019978706
240	0xbe22c750	-0.15896344
241	0x3d8b7678	0.068097055
242	0x3d7aa437	0.061191764
243	0x3d50abc2	0.05094505
244	0x3cc9756f	0.02459213
245	0x3ddebc8e	0.10875808
246	0x3db36cc4	0.0876098
247	0x3c481a5f	0.012213319
248	0x3dbdb28e	0.09262572
249	0xbd4b82c8	-0.04968527
250	0x3cfff1b7	0.031243188
251	0x3d660753	0.05615933
252	0xbdf20e23	-0.118191026
253	0xbc24c7e9	-0.010057428
254	0x3d1fb093	0.038986754
255	0x3dcfa22b	0.10138353

network_body._body_endoder.seq_layers.2.bias f4 [256]
0	0x3b794659	0.0038036315
1	0x3bebf8bd	0.007201283
2	0xbc128e6b	-0.008945088
3	0xbbbec892	-0.0058222497
4	0xbbd3c049	-0.006462131
5	0xba81843b	-0.0009881327
6	0xbb71c70b	-0.003689232
7	0xbb327ca5	-0.0027234938
8	0xbaf540ce	-0.001871133
9	0xbc04678e	-0.00808133
10	0xbc2a4bbe	-0.010394035
11	0x3bce505d	0.006296201
12	0xb93810e1	-0.00017553895
13	0xbb156d8b	-0.0022800888
14	0x3c192307	0.00934673
15	0x3b76ff64	0.0037688846
16	0xb9dbbb85	-0.00041910648
17	0x3c4d8977	0.012544981
18	0xbae344e6	-0.0017339259
19	0xbc062ecd	-0.008189869
20	0xba5d818d	-0.00084497855
21	0xbb8ccf80	-0.004297197
22	0xbb130052	-0.002243061
23	0x38d2788b	0.00010036033
24	0x3ba5c1b7	0.005058493
25	0xbb990270	-0.00466948
26	0xb9b171e0	-0.00033844914
27	0x39ae648f	0.00033262788
28	0x3b99154c	0.0046717282
29	0x3aabd6dc	0.0013110298
30	0xbb9eb758	-0.0048436336
31	0x3ba9564d	0.0051677586
32	0x3b248712	0.0025104922
33	0xbb587f86	-0.0033034994
34	0xbc17d1d0	-0.009266332
35	0x3b406067	0.0029354335
36	0x3b754d15	0.0037429978
37	0xbaa7707c	-0.0012774612
38	0x3b43a43b	0.0029852528
39	0x39fcceb8	0.00048219203
40	0x3c198f3e	0.0093725305
41	0x3c08ddda	0.008353675
42	0xbafba915	-0.0019200171
43	0xbab02092	-0.0013437441
44	0x3b048e1b	0.0020226303
45	0xbb0963b0	-0.002096396
46	0xbbf6bd98	-0.0075299256
47	0x3b1fbb90	0.002437327
48	0x39ad6cea	0.0003307828
49	0xbbd38cd6	-0.006455998
50	0x3bf29bd4	0.00740383
51	0x3ad6553a	0.0016352304
52	0xba09ea6f	-0.00052610686
53	0x3b246375	0.0025083695
54	0x3be5ccd7	0.007012944
55	0xbc07a8c8	-0.008279987
56	0xbb963aa1	-0.004584626
57	0xbbd48a59	-0.006486219
58	0x3c52ac03	0.012858394
59	0x3b038c66	0.0020072698
60	0x3b0b4b7a	0.0021254704
61	0x3a0f77fb	0.00054728956
62	0xbac175c7	-0.0014759832
63	0x3b057882	0.0020366018
64	0x39609cdd	0.00021420741
65	0x3bca1b22	0.0061677853
66	0x3aef53c4	0.0018259217
67	0xbae9227a	-0.0017786764
68	0xba2ce1fa	-0.00065949524
69	0xbc056bdd	-0.008143392
70	0xbb2b4717	-0.0026134902
71	0x3b75dbb6	0.003751499
72	0x3c473568	0.012158729
73	0x3bfe71e0	0.00776504
74	0xbbc5a34a	-0.0060314285
75	0xbb507749	-0.003180938
76	0x3b660735	0.003509951
77	0xbbeb4aac	-0.0071805324
78	0x3b36960e	0.0027860436
79	0xba880540	-0.0010377541
80	0x3c161786	0.009160882
81	0xb98e9258	-0.00027193385
82	0x3befb6c6	0.0073154895
83	0xba2e1245	-0.00066402956
84	0x3b4e2a10	0.0031458177
85	0x3b1958fb	0.0023398984
86	0x3b3a95d1	0.0028470645
87	0x3a79969b	0.0009521038
88	0xbc467b8a	-0.012114415
89	0x3a43c09b	0.000746736
90	0xbb572600	-0.0032829046
91	0x3b524b8f	0.0032088493
92	0x3b70432b	0.003666113
93	0xbcadc1aa	-0.02121051
94	0x3c6157b7	0.013753823
95	0x3ad4b94a	0.0016229537
96	0xbb979356	-0.004625718
97	0x3b7ba4a2	0.003839769
98	0xbbcdbdd9	-0.006278735
99	0x3c1cb54d	0.00956471
100	0xbc17a502	-0.0092556495
101	0xbb5eb6c2	-0.0033983444
102	0xba1bd11f	-0.0005943942
103	0x3b170f2c	0.0023049815
104	0xbc2226c8	-0.0098969415
105	0x3aecee3f	0.0018076374
106	0xbbaa75ca	-0.00520203
107	0xbadfbc6a	-0.0017069702
108	0xba485692	-0.00076422945
109	0x3caaca62	0.020848457
110	0xbb802996	-0.0039112074
111	0x3b19727c	0.0023414185
112	0x3b96a4e1	0.004597292
113	0x3a8e85fc	0.0010873671
114	0x3accf0ac	0.0015635691
115	0xbb85c004	-0.004081728
116	0x3baf92cd	0.005358076
117	0x3bf0b780	0.0073460937
118	0x3c487206	0.012234217
119	0xbace895e	-0.0015757491
120	0xbc1825d9	-0.009286367
121	0xbc2eb44f	-0.010663106
122	0x3ba270f2	0.004957312
123	0x3b51c15c	0.003200612
124	0x3b58186f	0.0032973548
125	0xbb0530cd	-0.0020323277
126	0xba8481d8	-0.0010109497
127	0x3b32acc0	0.0027263612
128	0x3bb37bf2	0.005477422
129	0x3bd34f79	0.006448683
130	0x3a614b33	0.00085942744
131	0xbc36d596	-0.011159321
132	0xbbd5d906	-0.0065261154
133	0xbc3e81d7	-0.011627636
134	0x3bcad810	0.0061903074
135	0x3c803cf1	0.01565406
136	0xbb900403	-0.0043950095
137	0xbbbcef6b	-0.0057658455
138	0xbab0d85b	-0.0013492213
139	0x3b41000d	0.0029449493
140	0x3b4f7c32	0.003165972
141	0xbb407bf5	-0.002937076
142	0xbb8f6a7f	-0.004376709
143	0xbad54bce	-0.0016273202
144	0x3b08c999	0.0020872115
145	0x3a828ca7	0.000996013
146	0x3b88a239	0.004169729
147	0xbc3f6c4d	-0.011683536
148	0x3a85b557	0.0010201138
149	0xb97c3700	-0.00024053082
150	0xbb8d5986	-0.0043136505
151	0x3b8cbd15	0.0042950013
152	0x3bc12ee4	0.0058954824
153	0x3bbc8f09	0.005754356
154	0xbbddc4f8	-0.0067678653
155	0xbb0e4c0a	-0.0021712803
156	0xbb1540dc	-0.0022774255
157	0x3adbb5b5	0.0016762527
158	0xbb134b9e	-0.0022475491
159	0xbb92c7c9	-0.0044793827
160	0x3b4dc4ee	0.0031397897
161	0xbbaa8003	-0.0052032485
162	0x3a63957c	0.00086816377
163	0xbb7f2f9d	-0.0038938292
164	0xba13d912	-0.0005639951
165	0x3640d5b0	2.8734612e-06
166	0x392ec550	0.00016667438
167	0x3c003908	0.007826097
168	0x3ba4697c	0.0050174575
169	0xba9b3e9b	-0.0011844219
170	0xbb1a78d4	-0.0023570554
171	0x3b4e326e	0.0031463164
172	0xbc0b818b	-0.008514772
173	0x3b1dfd58	0.0024107303
174	0xba15683a	-0.000569943
175	0x3badb822	0.0053014914
176	0xba7fff49	-0.00097655185
177	0xbb980855	-0.004639665
178	0xbc18d24b	-0.0093274815
179	0x3acce464	0.001563203
180	0xbba8e8a2	-0.005154685
181	0xba4a4b14	-0.0007716876
182	0xbad983c6	-0.0016595058
183	0xbc1c582c	-0.009542506
184	0xbb12f8b9	-0.0022426082
185	0x3b7d3673	0.003863719
186	0xbabb1a64	-0.0014274833
187	0x3ba83d24	0.0051342417
188	0xbb9f4f38	-0.0048617385
189	0x3c084baa	0.008318821
190	0x3a60dc79	0.0008577775
191	0x3ba660b1	0.0050774445
192	0x3b66a46f	0.0035193225
193	0x39dd61a4	0.00042225153
194	0xbab0347f	-0.001344338
195	0x3aba6d78	0.0014223298
196	0xbb165c01	-0.0022943022
197	0xbc36b087	-0.011150486
198	0x3bbf9b46	0.0058473675
199	0xbbd70abd	-0.0065625594
200	0xbbeb4465	-0.007179784
201	0x3ae25915	0.001726898
202	0x3ba6b271	0.00508719
203	0xbbc2fc50	-0.005950488
204	0xba65ea70	-0.00087705906
205	0xbb880715	-0.004151235
206	0x3b07e172	0.002073374
207	0x3b0e17ce	0.002168167
208	0xbbbb00c3	-0.005706878
209	0x3c5af163	0.013363215
210	0x3b5d154e	0.0033734622
211	0xbbee9655	-0.0072811046
212	0x3ad1a802	0.0015995505
213	0xbb04379d	-0.002017475
214	0x3b67dd4e	0.003537971
215	0xbc698bc1	-0.014254511
216	0xbbeb80b9	-0.007186976
217	0x3a6d1cbf	0.0009045116
218	0x3ad4fff9	0.0016250602
219	0x3a670796	0.0008813081
220	0xbaaae377	-0.001303776
221	0x3b40ddb9	0.0029429032
222	0x3b8ed57b	0.004358945
223	0x3b951e08	0.004550699
224	0x3b352021	0.0027637559
225	0xbbb4f347	-0.005522165
226	0xbc0a1a66	-0.008429145
227	0xbb849a37	-0.004046704
228	0x3b418c07	0.0029532926
229	0x3b804526	0.003914493
230	0xbc3b062f	-0.0114150485
231	0xbb9214fc	-0.004458068
232	0x3a5136e7	0.00079808984
233	0x3abdca33	0.0014479816
234	0x3c34a377	0.011025301
235	0xba9e5c1f	-0.0012081898
236	0xbb700272	-0.0036622551
237	0x3b907ebe	0.00440964
238	0x3b35ed5d	0.0027759888
239	0xbc27229f	-0.010201125
240	0xb9b17f24	-0.00033854798
241	0x39d9f8fa	0.00041574967
242	0xbba3f1a1	-0.0050031696
243	0xba875549	-0.00103251
244	0xbc003922	-0.0078261215
245	0x3b62b361	0.0034591781
246	0xbb4e0021	-0.0031433182
247	0x3b567967	0.003272617
248	0x3bd6ae86	0.0065515665
249	0x3bcb020b	0.006195312
250	0x3ac9fb3b	0.0015409956
251	0xb9bc0929	-0.0003586498
252	0x3b17285d	0.002306483
253	0xbbdf50cd	-0.006815052
254	0x39c04701	0.00036673996
255	0xbbb93525	-0.0056520873

network_body._body_endoder.seq_layers.4.weight f4 [256, 256]
0	0x3d4d4900	0.050118446
1	0xbc6e997a	-0.014562959
2	0xbb4c0ef2	-0.0031136838
3	0x3cdccada	0.026952196
4	0x3d2a54ff	0.041584965
5	0x3e483d38	0.19554603
6	0x3da73faf	0.081664436
7	0x3d05674e	0.032569222
8	0x3ce019a3	0.027355975
9	0xba224ae1	-0.00061909674
10	0xbd510710	-0.051032126
11	0xbc909891	-0.017650874
12	0xbc6112fd	-0.013737437
13	0xbd93d84e	-0.07218991
14	0x3c87c9a0	0.016575634
15	0x3ce54a68	0.027989581
16	0xbc1a9869	-0.0094357515
17	0xbd05fe41	-0.03271318
18	0xbdeea3a1	-0.116523035
19	0xbd07ade5	-0.033124823
20	0xbe0a1ad0	-0.1348679
21	0xbd204118	-0.03912458
22	0xbd101dbd	-0.03518461
23	0x3d39ceae	0.04536312
24	0xbdc9baa1	-0.0985005
25	0xbd24f962	-0.040276892
26	0x3dac56c9	0.084149905
27	0xbd03bab5	-0.03216048
28	0x3dc3301d	0.09530661
29	0xbd350ee1	-0.044203643
30	0x3d612342	0.054965265
31	0x3d480824	0.04883589
32	0x3d40752b	0.04698674
33	0x3d9b0ad8	0.07570428
34	0x3c568b5e	0.013094751
35	0x3c15b293	0.009136814
36	0xbd226025	-0.03964247
37	0x3cdacf8e	0.026710298
38	0x3d63f14b	0.055650037
39	0x3d95e18e	0.07318412
40	0x3db6c53c	0.08924338
41	0x3cf1e2e7	0.02952714
42	0x3ce6a66e	0.028155532
43	0x3d11d2c8	0.035601407
44	0x3d344647	0.044012334
45	0xbd901545	-0.07035307
46	0xbc0d69ff	-0.0086312285
47	0x3d2653b6	0.040607177
48	0xbcc64644	-0.024203427
49	0x3e113e59	0.1418394
50	0xbe00cf45	-0.12579067
51	0x3d7cd4c9	0.061726365
52	0x3c8f0095	0.017456332
53	0xbc634edb	-0.013873781
54	0x3d9bbf31	0.07604826
55	0xbc30ea97	-0.010798118
56	0x3c3bf8d6	0.011472901
57	0x3d0604fa	0.03271959
58	0x3df527da	0.11970492
59	0xbd06a862	-0.032875426
60	0x3d68089c	0.056648836
61	0xbd249717	-0.040183153
62	0xbca0cada	-0.019627977
63	0x3d844c26	0.06459837
64	0xbd5ac560	-0.053410888
65	0x3e326e24	0.17424828
66	0xbc8a3ba3	-0.01687414
67	0x3c262c6f	0.01014243
68	0x3bf44bfe	0.007455348
69	0xbd2c9bc1	-0.042140726
70	0x3ba97c69	0.0051723015
71	0x3d2eb794	0.042655542
72	0xbd9cbf4a	-0.07653673
73	0xbd371bac	-0.044704124
74	0xbdfc11b5	-0.12308065
75	0xbd3f2412	-0.04666526
76	0xbd04ef94	-0.032455042
77	0xbd7b404f	-0.061340626
78	0x3dbbc41b	0.091682635
79	0x3db79891	0.089646466
80	0xbdee6143	-0.11639645
81	0xbd8f52bb	-0.069982015
82	0xbbcb9084	-0.006212296
83	0x3dc8a183	0.09796431
84	0xbda8cfe0	-0.08242774
85	0xbd9ec717	-0.07752817
86	0x3d2a4136	0.041566096
87	0xbd870b5e	-0.06593965
88	0x3d7cf14c	0.061753556
89	0x3ddd38ef	0.10801875
90	0xbd19f022	-0.037582524
91	0xbc22e9f5	-0.009943475
92	0x3bb99d17	0.0056644785
93	0xbd4b9c07	-0.049709346
94	0xbb9006fb	-0.0043953634
95	0x3df91aad	0.12163291
96	0x3cd44003	0.02590943
97	0xba64413d	-0.0008707231
98	0xbc4d8b1d	-0.012545374
99	0x3cc734e6	0.024317216
100	0x3a1ab481	0.0005901531
101	0xbd0de9a2	-0.034646638
102	0x3c10720a	0.0088162515
103	0x3d16e9be	0.036844008
104	0x3d19e6b8	0.037573546
105	0xbc9f6fb0	-0.019462436
106	0x3d9536b6	0.07285826
107	0x3d247033	0.040146064
108	0x3ca916c3	0.020640736
109	0x3dbb4814	0.09144607
110	0x3cd65871	0.026165219
111	0x3da70a4a	0.08156259
112	0x3c8b9121	0.017036976
113	0x3d59cc38	0.053173274
114	0x3cd36766	0.02580614
115	0xbd8c6c80	-0.06856632
116	0x3d1d83fb	0.038455945
117	0xbcbb703b	-0.022880664
118	0xbd32a274	-0.04361196
119	0xbd41a6ee	-0.047278337
120	0xbc179050	-0.009250715
121	0xbd6110d5	-0.054947693
122	0xbe393919	-0.18088187
123	0xbd9578a6	-0.072984025
124	0xbb7124c4	-0.0036795596
125	0x3baf2e65	0.005346107
126	0xbd7b5f0b	-0.061369937
127	0x3ca540bc	0.02017247
128	0xbce1a7a4	-0.027545758
129	0xbbed860c	-0.0072486456
130	0x3daf07ed	0.085464336
131	0x3c5e2a88	0.013559945
132	0x3ba1d060	0.0049381703
133	0xbb5bebaa	-0.0033557215
134	0xbd5ce242	-0.053926714
135	0x3d3cf529	0.04613224
136	0x3cdc20eb	0.026871165
137	0xbe166c3f	-0.1468973
138	0xbcfaa67a	-0.03059696
139	0xbcee0e14	-0.029059447
140	0x3d043b86	0.03228333
141	0xbb8d25c0	-0.0043074787
142	0x3cb01121	0.021492543
143	0xbc30d24d	-0.010792327
144	0xbdc3956c	-0.09549984
145	0x3d132316	0.035922132
146	0x3dcc78ba	0.09983964
147	0x3d66f5ad	0.05638664
148	0x3d6cea21	0.05784047
149	0x3d5d17cd	0.053977776
150	0xbd8b4abe	-0.06801365
151	0xbd3eecc7	-0.046612527
152	0xbdd54f3a	-0.10415502
153	0xbb0a482d	-0.002110015
154	0xbd6b67be	-0.057471983
155	0x3bd45851	0.0064802547
156	0xbc9b4b10	-0.018956691
157	0xbd93159a	-0.071818545
158	0x3cfab4ce	0.030603793
159	0x3e07558a	0.13216224
160	0xbdc8b03b	-0.09799238
161	0x3d443e12	0.047910757
162	0x3bbce155	0.0057641664
163	0xbd654dd4	-0.055982426
164	0xbde8b0a7	-0.11361819
165	0x3d2ffa0e	0.04296308
166	0xbdf222ed	-0.11823068
167	0xbba13b4e	-0.0049203997
168	0x3cdf5345	0.027261386
169	0xbd9dcf71	-0.07705582
170	0xbdaba547	-0.083811335
171	0x3d3aa7d9	0.04557023
172	0xbd8986b0	-0.06715143
173	0xbcbccff3	-0.023048377
174	0x3d143466	0.036182784
175	0x3dc45b32	0.095877066
176	0x3d9e05f4	0.07715979
177	0xbd1b29c7	-0.03788164
178	0xbc822dcd	-0.01589098
179	0x3cefcd0c	0.029272579
180	0x3cd743cc	0.026277445
181	0xbd3d5311	-0.046221796
182	0xbca6d848	-0.020366803
183	0x3cebb5ab	0.02877315
184	0x3d5393d6	0.05165466
185	0x3d9c4c39	0.07631726
186	0x3c41c92a	0.011827746
187	0xbca37fc3	-0.019958382
188	0x3d8c36cf	0.068463914
189	0xbd317c2a	-0.043331303
190	0x3bf291ed	0.0074026496
191	0x3b519e1b	0.0031985107
192	0x3dbca415	0.09210984
193	0xbc899e51	-0.016799124
194	0x3e1f93e5	0.15583761
195	0x3da5b378	0.080908716
196	0xbda1ebb4	-0.07906285
197	0xbd124d82	-0.03571845
198	0x3cb9b4ff	0.022669313
199	0x3dfae087	0.122498564
200	0xbd91d511	-0.07120717
201	0xbcc8d0e2	-0.024513666
202	0x3cb0c239	0.021576988
203	0xbd8970c3	-0.06710961
204	0xbd04a0d8	-0.032379955
205	0xbdd5821f	-0.10425209
206	0x3d051eb4	0.032499984
207	0xbd770412	-0.060306616
208	0xbcbacd0e	-0.022802856
209	0x3d649136	0.055802546
210	0xbc4e75d0	-0.012601331
211	0xbdba0b1c	-0.0908415
212	0x3d5bfe55	0.053709347
213	0xbbbd7bab	-0.0057825646
214	0x3d168341	0.036746267
215	0x3d1895b2	0.037252136
216	0xbd95134d	-0.07279072
217	0xbd7c868f	-0.061651763
218	0x3df21ac5	0.11821512
219	0x3c2b3435	0.010449459
220	0x3d81493e	0.06312798
221	0xbdab6b6f	-0.08370101
222	0xbd183b4c	-0.037165925
223	0xbcadfc5d	-0.0212385
224	0xbb98d027	-0.0046634856
225	0x3c43f309	0.0119598
226	0x3cb51f1b	0.022109559
227	0x3b4ed4b1	0.003155988
228	0xbd5b52a5	-0.053545613
229	0x3c4188fb	0.011812444
230	0xbd4eeb6a	-0.050517477
231	0xbd2094bf	-0.039204355
232	0xbdd6e825	-0.10493497
233	0xbe0fe497	-0.14052044
234	0x3cf1835e	0.029481586
235	0x3d37a90d	0.044838954
236	0x3c7b5c1c	0.015341785
237	0x3dd21f9d	0.10259936
238	0x3d8b52c7	0.06802898
239	0xbda01408	-0.07816321
240	0xbd6a68fb	-0.057229023
241	0x3ca6d002	0.020362858
242	0x3c7caf24	0.015422616
243	0xbdd6b698	-0.10484046
244	0xbce9f8b5	-0.028560976
245	0x3d4f5a64	0.050623313
246	0xbc3414f7	-0.0109913265
247	0x3d99de9e	0.07513164
248	0xbda6adc1	-0.0813861
249	0x3deb510d	0.114900686
250	0xbd1680af	-0.036743816
251	0x3e0aef70	0.135679
252	0x3d11f0c9	0.03563002
253	0xbb61b6ca	-0.0034441226
254	0x3d5d0c6c	0.053966925
255	0x3d2f4d9e	0.04279863

network_body._body_endoder.seq_layers.4.bias f4 [256]
0	0x3a71f1b4	0.0009229437
1	0xbb9482be	-0.0045321872
2	0xbbc90df3	-0.006135696
3	0x3b2acdeb	0.0026062678
4	0x3b7a5229	0.0038195944
5	0x3b929265	0.004473018
6	0xbc038888	-0.008028157
7	0xbb93b004	-0.0045070667
8	0x3b9c4e9e	0.004770114
9	0xbbb00c48	-0.005372558
10	0x3b7cc0c9	0.0038567057
11	0x3b7c67fd	0.003851413
12	0xbae6d6d9	-0.0017611637
13	0xbb9607be	-0.0045785597
14	0xbb9414a0	-0.0045190603
15	0xbb85d503	-0.004084231
16	0xbad3a74b	-0.001614788
17	0xbbdfd959	-0.00683133
18	0xbb9e031e	-0.004822149
19	0xbb62250c	-0.0034506945
20	0x3bc2cca8	0.005944807
21	0x3b3005f8	0.0026859026
22	0xbb0a07c5	-0.002106176
23	0xba9d971f	-0.0012023187
24	0x3bc81e42	0.0061071226
25	0x3bb5a418	0.005543243
26	0x3abee404	0.0014563804
27	0xbbb50c36	-0.0055251373
28	0x3a887206	0.0010409958
29	0x3b9001ad	0.004394731
30	0xba83e35c	-0.0010062265
31	0xbb3b5d4b	-0.0028589542
32	0x3b47e79d	0.0030503043
33	0xb96f64d4	-0.00022830378
34	0x3b97e34c	0.00463525
35	0xbb84c6a0	-0.0040519983
36	0x3b331046	0.0027322932
37	0xba1dbefe	-0.0006017535
38	0xbbb4e77e	-0.00552076
39	0xba99f062	-0.0011744613
40	0xbaa53196	-0.0012603279
41	0xbb5e7d98	-0.0033949371
42	0xbb66496b	-0.0035138975
43	0xbba312e5	-0.0049766176
44	0xbb8b387e	-0.0042486778
45	0x3c4ea25e	0.012611954
46	0x3a1461f2	0.0005660347
47	0xbb71c195	-0.0036889066
48	0x3bbdac0b	0.0057883314
49	0x3a1e6c2c	0.00060433405
50	0x3b7a4e55	0.0038193662
51	0xbb98af3a	-0.0046595605
52	0xbb5f1352	-0.0034038615
53	0xba0fcdb9	-0.0005485672
54	0x3be857af	0.007090531
55	0x3b492376	0.0030691302
56	0xbb2fec2d	-0.0026843653
57	0x393b8d4b	0.00017886345
58	0x3b146298	0.0022641774
59	0x3be2c691	0.0069206436
60	0x3b5e1275	0.0033885513
61	0x3bc7a754	0.006092945
62	0x3be5f780	0.0070180297
63	0x3b0e1217	0.0021678263
64	0xbbeb27f6	-0.0071763946
65	0xba72310f	-0.00092388777
66	0x3a53533f	0.0008061416
67	0x3b5dcbfe	0.0033843513
68	0x3b8bd474	0.0042672697
69	0xb9bbdba0	-0.00035831053
70	0xbb4d6d61	-0.0031345712
71	0x3b898353	0.0041965633
72	0xbb290768	-0.0025791768
73	0xbb242f59	-0.0025052635
74	0x3b8c5f99	0.004283857
75	0xbb89423f	-0.0041888054
76	0x38a034ac	7.6392054e-05
77	0xb8855201	-6.3572086e-05
78	0x3b900dbf	0.00439617
79	0x3b8e66ac	0.0043457355
80	0x3b6164ba	0.0034392313
81	0x3b7a16f9	0.0038160665
82	0x3b898101	0.0041962867
83	0xbba527b7	-0.005040135
84	0xba35e296	-0.0006938366
85	0xbb2d0476	-0.0026400364
86	0xba7cfa6e	-0.0009650354
87	0x3b91b89a	0.004447055
88	0xbace8b09	-0.0015757988
89	0xbacd73ff	-0.0015674828
90	0xb8b3b9d3	-8.5699976e-05
91	0x3b844a2f	0.0040371637
92	0xbaf26758	-0.0018493934
93	0x3b4afccd	0.0030973435
94	0x3b98d0f8	0.004663583
95	0x3c1d97d0	0.009618714
96	0xbb4fb495	-0.0031693329
97	0xbaf1dcbc	-0.0018452625
98	0x3a9fee3e	0.0012201739
99	0x3affbb14	0.001951071
100	0xbb833bdc	-0.0040049385
101	0xbbd0551e	-0.006357803
102	0x377f2a6a	1.520906e-05
103	0x3c1d284f	0.00959213
104	0x3b9c5e0c	0.0047719534
105	0x3abe9c42	0.0014542418
106	0x3b40c9a2	0.0029417058
107	0x3b670dd0	0.0035256036
108	0xbb902e96	-0.0044000847
109	0xb7bedb37	-2.2751845e-05
110	0xbb6e8bea	-0.0036399313
111	0x3b7f4d28	0.00389559
112	0x3bdb45a8	0.0066916533
113	0x3baba55e	0.005238219
114	0x3bc54475	0.0060201236
115	0x3b50c243	0.003185407
116	0x3a4a0e79	0.0007707845
117	0xbaaeca9b	-0.0013335528
118	0x3b9fd92e	0.0048781848
119	0xbb9ab821	-0.004721657
120	0x3b87e470	0.004147105
121	0xbc05b2e9	-0.008160331
122	0x3b31a563	0.0027106635
123	0x3babf846	0.0052481024
124	0x3b66655b	0.0035155627
125	0x3af0d451	0.0018373822
126	0x3714338c	8.833489e-06
127	0xbbc91f4d	-0.0061377645
128	0xbb2cbcf1	-0.0026357735
129	0xbb5c3fe8	-0.0033607427
130	0xbbbe8d6d	-0.005815199
131	0x3bda78b0	0.006667219
132	0xbb6e72ed	-0.003638442
133	0x3bb17178	0.005415138
134	0x3b9b65bd	0.0047423528
135	0x3ba26c22	0.004956738
136	0xbae35936	-0.0017345313
137	0xbaed76fd	-0.0018117126
138	0xbb571fea	-0.0032825419
139	0x3b3cbfbb	0.0028800804
140	0x3b441504	0.0029919753
141	0x3b178720	0.0023121312
142	0x3b6a5049	0.003575342
143	0x3acc5521	0.0015589335
144	0xbb8d39b3	-0.004309857
145	0xbb8a36ee	-0.004217974
146	0x3b65044f	0.0034945195
147	0xbb437a7a	-0.002982764
148	0x3ba7ee85	0.0051248693
149	0x3b853ffe	0.0040664664
150	0xbc085ea3	-0.008323344
151	0xbc021c90	-0.00794138
152	0xbab03c6d	-0.0013445743
153	0x3b68bcaf	0.0035512855
154	0xbb7e1317	-0.0038768703
155	0x3bb72035	0.005588556
156	0x3c3f1cf6	0.01166462
157	0xba425b16	-0.00074140856
158	0xbb244be7	-0.0025069655
159	0x3b37c268	0.002803946
160	0xbb10d6c4	-0.0022100667
161	0x3b8fe39c	0.004391147
162	0xb940d3c1	-0.00018389431
163	0x3b967b5f	0.0045923437
164	0xbbd96446	-0.006634268
165	0xbb45bf0e	-0.0030173692
166	0xbbcadb9a	-0.0061907293
167	0xbb8b3760	-0.0042485446
168	0xbc01269a	-0.0078827385
169	0x3b566239	0.0032712354
170	0x3b846278	0.0040400587
171	0xbc223687	-0.009900696
172	0x3b455510	0.0030110516
173	0xbb596cc4	-0.0033176402
174	0x3b953688	0.00455362
175	0xbb1d706d	-0.002402331
176	0xbaf3b893	-0.0018594436
177	0x397039c9	0.0002290971
178	0xbb459931	-0.0030151124
179	0x3bb0b941	0.0053931777
180	0x39b0c038	0.0003371255
181	0x3ad5a61c	0.0016300115
182	0xbb0ddd15	-0.0021646668
183	0xbba5845a	-0.005051178
184	0x3b546031	0.0032405967
185	0xbad8c68d	-0.0016538665
186	0xbb91fed5	-0.004455427
187	0x3c256a16	0.010096094
188	0x3bc9d6d2	0.006159642
189	0x3aac7014	0.001315596
190	0x3b065f68	0.0020503644
191	0xbbcd7629	-0.0062701893
192	0xbac22f7d	-0.0014815178
193	0x3b02c84e	0.0019955817
194	0xbb872085	-0.0041237497
195	0xbb12c489	-0.0022394976
196	0xbc1f3e40	-0.009719431
197	0xbc278c21	-0.01022628
198	0xb94cd4ea	-0.00019534273
199	0x395da2c6	0.0002113684
200	0xbb68fe58	-0.0035551991
201	0x393b2b1b	0.00017849768
202	0xb9ca3c20	-0.0003857324
203	0x3b8bea86	0.0042699007
204	0x3b4a4e7f	0.0030869541
205	0xbb007061	-0.0019598233
206	0xbb8e22de	-0.0043376526
207	0xb9c4f6c6	-0.00037567894
208	0x3b68755e	0.0035470347
209	0xbb2ac3da	-0.0026056678
210	0xbbca9d76	-0.0061833216
211	0xbb7ed3e5	-0.0038883623
212	0xbbad5d04	-0.0052906293
213	0xbad4cf27	-0.0016236053
214	0xbb612b9e	-0.0034358273
215	0xbb4c4c2a	-0.0031173327
216	0xbb94f106	-0.004545334
217	0x3b840a0c	0.004029518
218	0xbc0caf70	-0.008586749
219	0x3b3d1e8b	0.0028857316
220	0x3b9f2046	0.004856142
221	0xbb24592d	-0.0025077567
222	0xbbb39767	-0.005480695
223	0xbb799cb2	-0.0038087782
224	0xbae471ae	-0.0017428899
225	0xbae91f9d	-0.0017785911
226	0xbb9d2f1b	-0.004796875
227	0xbb91d37a	-0.004450259
228	0xbbd6fa79	-0.0065606204
229	0x3c18f34b	0.009335349
230	0xbb5f36d3	-0.0034059777
231	0x3ba66ed6	0.0050791306
232	0x3bd64239	0.006538656
233	0xbb29d55e	-0.002591453
234	0xbb405ed4	-0.0029353397
235	0xbba005bb	-0.0048834956
236	0xbc39d3e9	-0.011342027
237	0x3b950158	0.0045472793
238	0xbb501ada	-0.0031754286
239	0xbb709420	-0.0036709383
240	0x3b4c7e0e	0.0031203064
241	0xbb5268de	-0.0032105963
242	0xbaee6906	-0.0018189258
243	0x3bc43653	0.0059879213
244	0x3b22d3f0	0.0024845563
245	0x3bb33d6b	0.005469968
246	0x3b78c741	0.0037960561
247	0x3b8cbcc3	0.004294963
248	0x3c3a45ee	0.011369212
249	0xbb52f8df	-0.0032191796
250	0xbae4a3b0	-0.0017443802
251	0x3bd25378	0.0064186417
252	0xbbbda0f3	-0.005787009
253	0xbb12aaaa	-0.0022379556
254	0x3b70001e	0.0036621164
255	0x3aa9bf75	0.0012950735

action_model._continuous_distribution.mu.weight f4 [1, 256]
0	0xbd071fbd	-0.032989252
1	0xbc46e049	-0.012138435
2	0xbc161e90	-0.00916256
3	0x3bd3be85	0.0064619207
4	0x3b273f84	0.0025520036
5	0x3c3162e7	0.010826803
6	0xbb885d2f	-0.004161499
7	0xbc139203	-0.00900698
8	0x3ca1c57e	0.019747492
9	0xbbb6e1ec	-0.005581131
10	0x3c7a04c9	0.01525993
11	0x3c9f9267	0.01947899
12	0xbc021a60	-0.007940859
13	0xbc33a74e	-0.0109651815
14	0xba829504	-0.0009962623
15	0xbc1bb599	-0.0095037455
16	0xbc4f77f0	-0.012662873
17	0x3c128dd3	0.008944946
18	0xbc6ce21a	-0.014458204
19	0xbc605240	-0.013691485
20	0x3c469567	0.012120581
21	0x3c4dd80d	0.012563718
22	0x3bcbab56	0.006215493
23	0xbd153353	-0.0364259
24	0x3cc82926	0.024433684
25	0x3c4167a9	0.0118045
26	0x3ba2da57	0.004969876
27	0xbb10bc85	-0.0022085023
28	0xbcea9ad2	-0.028638277
29	0x3bbfdfa4	0.0058555175
30	0xbca6bedb	-0.020354679
31	0xbc909ce1	-0.01765293
32	0x3bb3e8eb	0.0054904125
33	0x3bddcc0e	0.00676871
34	0x3cab5d16	0.02091841
35	0xbbf20351	-0.0073856493
36	0x3b45bd2d	0.0030172572
37	0x3c109c62	0.008826347
38	0x389ec315	7.570364e-05
39	0xbc40588a	-0.011739859
40	0xbc185cb8	-0.00929945
41	0xbcaeed12	-0.021353278
42	0xbc7eb3b9	-0.015545779
43	0x3a8acf63	0.001059037
44	0xbca2e8e5	-0.019886443
45	0xbc360b54	-0.011111099
46	0x3c473209	0.012157925
47	0xbc81d82d	-0.015850151
48	0x3cd8f98c	0.02648618
49	0x3c31b5de	0.010846583
50	0x3c85b5fa	0.016322125
51	0x3b781e1a	0.0037859739
52	0xbc9268ab	-0.017872175
53	0xbcc6bee9	-0.024260955
54	0x3d104ea5	0.03523125
55	0x3c8a0fe9	0.01685329
56	0xbbb8e526	-0.005642551
57	0xbc6b6f8c	-0.014369857
58	0xbc2e1ac2	-0.010626497
59	0xbb000eaf	-0.0019540002
60	0xbb5dec3b	-0.0033862728
61	0x3ca9213a	0.020645726
62	0x3d113e7c	0.03545998
63	0x3bd1453a	0.0063864263
64	0x3b05592a	0.0020347335
65	0xbcbd055b	-0.023073843
66	0x3c6b0ea1	0.0143467495
67	0x3bc93efd	0.006141542
68	0x3b5e30d7	0.0033903623
69	0xbc2fb8af	-0.010725184
70	0xbccbfa3c	-0.024899594
71	0xbaad7a47	-0.0013235294
72	0xbbce15c3	-0.0062892153
73	0xb9843159	-0.0002521377
74	0x3c8952f3	0.016763186
75	0xbc8d1b22	-0.017224852
76	0xbbf7bd1f	-0.007560387
77	0xbd04b11f	-0.03239548
78	0x3c4ee2d7	0.012627325
79	0x3c96ea6b	0.018422326
80	0x3c3f9d31	0.011695192
81	0x3c5f12e7	0.0136153465
82	0x3c9bdfb0	0.019027561
83	0xbc994af3	-0.018712496
84	0xbb749a79	-0.0037323518
85	0xbc4d072a	-0.012513915
86	0xbcd45c68	-0.025922969
87	0x3c874477	0.016512139
88	0xbc842a33	-0.016133403
89	0xbd0cba68	-0.03435746
90	0xbc912268	-0.017716601
91	0x3c8ddae4	0.01731629
92	0xbc8b1bee	-0.016981091
93	0x3c1b063e	0.0094619375
94	0x3cdf3797	0.027248187
95	0x3ce82ea8	0.02834256
96	0x3b836fcc	0.00401113
97	0xbc03c3f0	-0.008042321
98	0x3c113c0b	0.008864413
99	0x3c4524cc	0.012032699
100	0xbc63690c	-0.013880026
101	0xbb2eb04f	-0.002665538
102	0xbc25fdd5	-0.010131319
103	0xbbe25d8c	-0.0069081243
104	0x3c2b86ec	0.01046918
105	0x3c2a1e14	0.010383148
106	0x3c18c87c	0.009325143
107	0x3cd2fda8	0.025755718
108	0xbc82009a	-0.015869427
109	0xbc86f83e	-0.016475793
110	0xbc01e34e	-0.007927729
111	0xba7bfb6c	-0.0009612355
112	0x3d01aec5	0.031660814
113	0x3cc4b136	0.024010282
114	0x3d463aea	0.04839603
115	0x3c22e6e4	0.009942744
116	0x3befd120	0.007318631
117	0xbd0954bb	-0.03352807
118	0x3c94b428	0.018152311
119	0xbc014c7a	-0.007891769
120	0x3c9736fa	0.018458832
121	0xbbaa65d4	-0.005200127
122	0x3c5e6b8f	0.013575449
123	0x3c5ab8f9	0.013349765
124	0x3b9786f6	0.004624243
125	0x3bad6909	0.005292062
126	0xbc765907	-0.015035874
127	0xbb572b47	-0.0032832192
128	0xbb79033c	-0.0037996313
129	0xbcf5e5c6	-0.030016791
130	0x3bcb742a	0.006208916
131	0x3c962e84	0.018332727
132	0xbca60b66	-0.020269107
133	0x3ccf6fb1	0.025321813
134	0x3c7b65e2	0.015344115
135	0x3cffaa11	0.031209024
136	0xbcf106f2	-0.029422257
137	0xbc640830	-0.013917968
138	0xbaf03549	-0.0018326427
139	0x3b3b8bd3	0.0028617277
140	0x3c641d45	0.013922994
141	0x3ba050c6	0.0048924414
142	0x3c8c12e1	0.017098846
143	0xbac22369	-0.0014811578
144	0x3abe73c8	0.0014530355
145	0xbc7f8b7e	-0.015597222
146	0x3c9660e2	0.018356744
147	0xbc9d71aa	-0.019219238
148	0x3c588b80	0.013216853
149	0x3c6ffe05	0.014647965
150	0x3b38328e	0.0028106305
151	0x3b6457f5	0.0034842466
152	0xbd0264ac	-0.03183429
153	0x3b1ce35e	0.0023939232
154	0xbc36f348	-0.011166401
155	0x3d1e2b41	0.03861547
156	0xbbcafcd1	-0.006194689
157	0xbbb0ffd9	-0.005401593
158	0xbc80a646	-0.015704285
159	0x3c1e5821	0.009664566
160	0xbc7af807	-0.015317923
161	0x3bf65a83	0.007518114
162	0x39b290ec	0.0003405878
163	0x3cc7872e	0.02435645
164	0xbb85af11	-0.0040797074
165	0xbcab3188	-0.020897642
166	0xbb75cacf	-0.0037504917
167	0xbc5dcf57	-0.013538203
168	0x3c378885	0.011201982
169	0x3b97a51b	0.0046278364
170	0x3c538817	0.012910864
171	0x3bd200b1	0.006408774
172	0x3c8c3a2d	0.017117584
173	0x3c93d6c7	0.01804675
174	0x3c1432d3	0.009045321
175	0xbd09399a	-0.0335022
176	0xbc2aad54	-0.010417301
177	0x3c3adfda	0.011405909
178	0xbb8d1a08	-0.0043060817
179	0x3bf3b758	0.0074376278
180	0xbc17841f	-0.009247809
181	0x3badfbb2	0.0053095454
182	0x3b117d3c	0.002219989
183	0xbc1c2a04	-0.009531502
184	0x3c5aae50	0.013347223
185	0xbb8ea925	-0.0043536597
186	0xbc560df2	-0.013064848
187	0x3c96df01	0.018416883
188	0x3ccaf28a	0.024773855
189	0x3c81c66b	0.015841683
190	0x3bd3152d	0.0064417333
191	0x3ac5b261	0.0015083068
192	0xbbc8e66d	-0.0061309845
193	0x3bcaa526	0.006184238
194	0x3bd1d69c	0.0064037573
195	0x3b138fa5	0.0022516039
196	0x39c7df7a	0.0003812274
197	0x3bee0bba	0.0072645815
198	0xbcfd146a	-0.030893523
199	0xbca53b14	-0.020169772
200	0xbbe50485	-0.006989064
201	0x3bbe4802	0.005806924
202	0xbcca87a0	-0.024722874
203	0x3c94cbb3	0.018163538
204	0x3c6afa40	0.014341891
205	0xbc5750f8	-0.013141863
206	0xbcb3c56e	-0.021944728
207	0xbbc24f94	-0.0059298966
208	0x3c941eaf	0.018081037
209	0xbbf3e440	-0.007442981
210	0x39d66770	0.00040894328
211	0xbc5d11ee	-0.013493044
212	0xbb74f337	-0.0037376413
213	0xba341a9f	-0.0006870422
214	0xbca1e311	-0.019761594
215	0xbbf52d13	-0.00748218
216	0xbb7edff6	-0.0038890815
217	0x3cdc2fa4	0.026878186
218	0xb8008378	-3.0640018e-05
219	0x3c35ed4e	0.011103941
220	0x3c92755c	0.017878227
221	0xbca8f4eb	-0.020624598
222	0xbb752553	-0.003740628
223	0x3b5e00f4	0.003387508
224	0xbc993e40	-0.01870644
225	0xbc95eea6	-0.018302273
226	0xbc9736fa	-0.018458832
227	0xbc718ab6	-0.014742544
228	0xbb0f2ed2	-0.0021847975
229	0xbb119696	-0.0022215
230	0xbc720205	-0.014770989
231	0x3c09eed4	0.0084187575
232	0x3ca9b614	0.020716704
233	0xbb982022	-0.0046425024
234	0xbc0c501c	-0.008564021
235	0xbc160e7d	-0.009158728
236	0x3b777361	0.003775798
237	0x3ca992ce	0.020699885
238	0xbccc1f6b	-0.024917325
239	0xbc2677b6	-0.010160377
240	0x3c56bca7	0.013106502
241	0xbb13b06c	-0.0022535576
242	0xbc98a609	-0.01863386
243	0x3d322f74	0.043502286
244	0x3a72c486	0.00092608517
245	0x3c78cf37	0.015186123
246	0x3ba0e7a3	0.0049104257
247	0x3ab0374c	0.0013444214
248	0xbbeb8273	-0.0071871816
249	0xbbc8329c	-0.0061095487
250	0xbc3519d6	-0.011053523
251	0xbb4a23ca	-0.0030844086
252	0xb9dd96cc	-0.00042264757
253	0x3be3d5bb	0.006952969
254	0x3c1d106a	0.009586433
255	0x3ca38006	0.019958507
