results/training1/BoundarySequence/BoundarySequence-30133.onnx (onnx, 547681 bytes, 7 tensors)

network_body.observation_encoder.processors.0.normalizer.running_mean f4 [14]
-12.717392 -6.052745 -5.3867073 0.1238663 -1.3072959 -0.10511118 0.75197446 24.167267
0.0042280443 13.393854 -0.0042280443 6.0631723 -0.0013914702 31.497955
00000000: 707a 4bc1 16b0 c1c0 e85f acc0 9dad fd3d
00000010: 7955 a7bf 8844 d7bd 6681 403f 9056 c141
00000020: 688b 8a3b 3a4d 5641 688b 8abb 8205 c240
00000030: fe61 b6ba d0fb fb41

network_body._body_endoder.seq_layers.0.weight f4 [256, 14]
0.13187559 0.2580814 -0.007394866 -0.29189453 0.10020772 -0.16292754 -0.27930942 0.09358411
-0.089965045 -0.43900043 0.08676414 -0.06778578 0.05886269 0.2432078 0.01197005 -0.15958385
0.0055587324 0.33177412 0.30299032 -0.05421346 0.0703176 -0.07628975 -0.25320935 -0.104070395
-0.32424706 -0.33544162 0.04515522 0.059281603 -4.3442647e-05 -0.038074788 0.49285406 -0.080419
-0.16115424 0.20066299 -0.107887186 0.09423615 0.12928826 0.111424215 -0.07945682 -0.14691035
-0.32985145 -0.0070809983 0.34079972 0.09214752 0.11631211 0.07725587 0.2603097 0.05988309
-0.11515706 0.16142514 0.059467815 0.08221547 -0.04890132 -0.4899914 0.2328543 -0.042829823
0.025827583 -0.116098106 0.23557025 0.045798052 -0.028231554 0.16360413 0.31902924 -0.27885646
0.2011608 -0.04075111 0.44974107 -0.02828791 -0.050208323 0.27887732 -0.18577774 0.056613557
-0.02470345 0.46314555 0.13702638 -0.24509695 0.53296614 -0.670493 0.35519668 0.1793663
-0.23959607 -0.031723093 -0.20314361 -0.52616304 -0.009556734 -0.029338624 -0.45793808 -0.12198182
0.105555445 -0.0489879 0.45788282 0.09008251 -0.08838168 0.29743668 0.15022229 0.46613353
0.1328496 -0.29809597 0.39350897 0.095241085 0.08172912 0.33354965 -0.069299705 -0.39596203
0.08815722 -0.34585068 -0.34979317 -0.15985885 -0.033730555 -0.077167 -0.092992954 -0.121024124
-0.19464159 -0.44168115 0.32550538 -0.3734774 -0.5547878 -0.057241894 0.17251171 0.023681639
0.09429907 0.06380615 -0.21728075 0.017237835 0.19653176 -0.28285444 0.27750224 -0.15827979
0.31001532 -0.29996592 -0.1541757 0.37676176 -0.39226496 -0.022931438 -0.13350043 -0.44849914
-0.44234017 0.18015441 -0.19638465 -0.03477301 0.3390244 -0.15880279 0.1532356 -0.20050645
-0.10730215 0.21229386 0.016508866 -0.17598365 -0.03736877 0.45856988 -0.01617069 -0.11601778
-0.05524686 -0.33696976 0.53002036 0.41537434 -0.10977185 0.7677257 -0.4180553 -0.26789367
-0.07239097 0.06374728 -0.10117216 0.3876137 0.06300902 -0.019012187 0.078558534 0.18265988
0.3484608 0.20197113 -0.2681401 -0.88108826 -0.28784454 0.2762932 0.24368408 -0.15326782
-0.547304 -0.4106083 0.21489397 -0.104059964 -0.3383252 0.2371435 -0.410087 -0.2018348
-0.029025044 -0.07339946 -0.12628268 -0.07783866 0.07918296 -0.13019072 0.114034615 -0.17319895
-0.10022764 0.13839234 -0.178568 -0.21311192 -0.5207219 0.4487542 -0.23579854 0.2798719
-0.15087754 0.2841416 0.09286661 0.07698691 -0.20820755 0.25601515 0.24308228 -0.3629848
0.30020112 -0.23128931 -0.52266103 -0.1503085 -0.06903626 0.10427892 -0.15757108 0.095533505
-0.16594185 0.26281083 0.369206 0.16338821 -0.104529366 -0.061179046 -0.16763435 -0.26105657
-0.24130791 -0.19727917 -0.06675732 -0.13315961 0.14412019 0.2591808 -0.20502876 0.05252428
-0.042475082 0.10763635 -0.0004872408 0.23267296 0.0463644 -0.033206537 -0.25849771 -0.09824383
-0.042810123 0.5330702 -0.33194026 0.41751722 0.12317204 0.07528108 0.022080794 0.18538266
-0.2654664 -0.034357365 -0.062232714 0.089517936 0.06455127 -0.37162295 -0.17006494 -0.27346072
00000000: 650a 073e 3f23 843e a250 f2bb 3373 95be
00000010: b539 cd3d 7ad6 26be a501 8fbe 07a9 bf3d
00000020: 983f b8bd aac4 e0be 66b1 b13d 45d3 8abd
00000030: 011a 713d 770b 793e 071e 443c f369 23be
00000040: 0726 b63b 4cde a93e 8c21 9b3e ef0e 5ebd
00000050: ad02 903d cd3d 9cbd a8a4 81be dc22 d5bd
00000060: b603 a6be 01bf abbe aef4 383d 44d1 723d
00000070: 3036 36b8 4ff4 1bbd 5e57 fc3e b7b2 a4bd
00000080: 9e05 25be 997a 4d3e f5f3 dcbd e2fe c03d
00000090: 2464 043e 6132 e43d 42ba a2bd ab6f 16be
000000a0: 4ae2 a8be b807 e8bb 4d7d ae3e d7b7 bc3d
000000b0: 0b35 ee3d 5338 9e3d 5047 853e f947 753d
000000c0: 77d7 ebbd a24c 253e 8694 733d 9660 a83d
000000d0: c04c 48bd 27e0 fabe 5c71 6e3e 536e 2fbd
000000e0: 5e94 d33c d8c4 edbd 5439 713e bd96 3b3d
000000f0: dc45 e7bc d787 273e cd57 a33e 46c6 8ebe
00000100: 19fd 4d3e a3ea 26bd 7644 e63e 0cbc e7bc
00000110: 3ea7 4dbd 02c9 8e3e 853c 3ebe 9ee3 673d
00000120: e45e cabc 6a21 ed3e a550 0c3e b2fa 7abe
00000130: 7870 083f 6ea5 2bbf 57dc b53e cdab 373e
00000140: ac58 75be 13f0 01bd e104 50be 9fb2 06bf
00000150: d993 1cbc 8e57 f0bc dc76 eabe 9bd1 f9bd
00000160: 742d d83d 89a7 48bd 9e6f ea3e 2e7d b83d
00000170: 7401 b5bd 9f49 983e dfd3 193e 0ea9 ee3e
00000180: ba09 083e 09a0 98be 027a c93e c20d c33d
00000190: 9961 a73d 05c7 aa3e 01ed 8dbd 89bb cabe
000001a0: c68b b43d 5713 b1be 1718 b3be 0ab2 23be
000001b0: 0d29 0abd bb09 9ebd 1773 bebd 7fdb f7bd
000001c0: 2050 47be 0824 e2be a4a8 a63e 6e38 bfbe
000001d0: 9306 0ebf 7a76 6abd e9a6 303e ffff c13c
000001e0: df1f c13d ccac 823d d87e 5ebe 5c36 8d3c
000001f0: 9f3f 493e 4cd2 90be c614 8e3e 1914 22be
00000200: 54ba 9e3e 2295 99be 3ce0 1dbe ebe6 c03e
00000210: f4d6 c8be b6da bbbc 56b4 08be aea1 e5be
00000220: 697a e2be 667a 383e 0f19 49be 256e 0ebd
00000230: 9b94 ad3e 339d 22be cbe9 1c3e 9051 4dbe
00000240: 3bc1 dbbd 9063 593e 9a3d 873c 0f35 34be
00000250: ff0f 19bd acc9 ea3e 6578 84bc bb9a edbd
00000260: 884a 62bd 4d87 acbe 6aaf 073f f2ab d43e
00000270: 10d0 e0bd ac89 443f 580b d6be 5c29 89be
00000280: b841 94bd ef8d 823d 5933 cfbd 4e75 c63e
00000290: e00a 813d 72bf 9bbc 4ce3 a03d 310b 3b3e
000002a0: 7469 b23e 85d1 4e3e a949 89be 008f 61bf
000002b0: 5c60 93be 4d76 8d3e 5288 793e 3df2 1cbe
000002c0: 1d1c 0cbf 403b d2be 2a0d 5c3e 641d d5bd
000002d0: f638 adbe bfd5 723e ecf6 d1be c8ad 4ebe
000002e0: eec5 edbc 7552 96bd 3f50 01be e069 9fbd
000002f0: ad2a a23d b750 05be fb8a e93d 115b 31be
00000300: 2644 cdbd b9b6 0d3e 88da 36be 033a 5abe
00000310: 084e 05bf 1cc3 e53e 2c75 71be 5f4b 8f3e
00000320: a47f 1abe 027b 913e d930 be3d 50ab 9d3d
00000330: 5c34 55be 6b14 833e 90ea 783e 25d9 b9be
00000340: f6b3 993e 1bd7 6cbe 1dcd 05bf 79ea 19be
00000350: e262 8dbd 3090 d53d 505a 21be 12a7 c33d
00000360: a9ec 29be 248f 863e 9208 bd3e 3d4f 273e
00000370: 7e13 d6bd e196 7abd 57a8 2bbe 35a9 85be
00000380: 6c19 77be 8d03 4abe 10b8 88bd fe5a 08be
00000390: 3e94 133e 59b3 843e 0ff3 51be b323 573d
000003a0: 5afa 2dbd 7270 dc3d 5a74 ffb9 d241 6e3e
000003b0: 99e8 3d3d 9403 08bd d059 84be 1034 c9bd
000003c0: ab59 2fbd 4a77 083f 13f4 a9be d1c4 d53e
000003d0: 9f41 fc3d f82c 9a3d c8e2 b43c f4d4 3d3e
000003e0: 36eb 87be 4fba 0cbd bbe7 7ebd 2e55 b73d
000003f0: 7533 843d 5d45 bebe 8125 2ebe 0b03 8cbe

network_body._body_endoder.seq_layers.0.bias f4 [256]
0.0 0.0 0.0 0.0 0.0 0.0 0.0 0.0
0.0 0.0 0.0 0.0 0.0 0.0 0.0 0.0
0.0 0.0 0.0 0.0 0.0 0.0 0.0 0.0
0.0 0.0 0.0 0.0 0.0 0.0 0.0 0.0
0.0 0.0 0.0 0.0 0.0 0.0 0.0 0.0
0.0 0.0 0.0 0.0 0.0 0.0 0.0 0.0
0.0 0.0 0.0 0.0 0.0 0.0 0.0 0.0
0.0 0.0 0.0 0.0 0.0 0.0 0.0 0.0
0.0 0.0 0.0 0.0 0.0 0.0 0.0 0.0
0.0 0.0 0.0 0.0 0.0 0.0 0.0 0.0
0.0 0.0 0.0 0.0 0.0 0.0 0.0 0.0
0.0 0.0 0.0 0.0 0.0 0.0 0.0 0.0
0.0 0.0 0.0 0.0 0.0 0.0 0.0 0.0
0.0 0.0 0.0 0.0 0.0 0.0 0.0 0.0
0.0 0.0 0.0 0.0 0.0 0.0 0.0 0.0
0.0 0.0 0.0 0.0 0.0 0.0 0.0 0.0
0.0 0.0 0.0 0.0 0.0 0.0 0.0 0.0
0.0 0.0 0.0 0.0 0.0 0.0 0.0 0.0
0.0 0.0 0.0 0.0 0.0 0.0 0.0 0.0
0.0 0.0 0.0 0.0 0.0 0.0 0.0 0.0
0.0 0.0 0.0 0.0 0.0 0.0 0.0 0.0
0.0 0.0 0.0 0.0 0.0 0.0 0.0 0.0
0.0 0.0 0.0 0.0 0.0 0.0 0.0 0.0
0.0 0.0 0.0 0.0 0.0 0.0 0.0 0.0
0.0 0.0 0.0 0.0 0.0 0.0 0.0 0.0
0.0 0.0 0.0 0.0 0.0 0.0 0.0 0.0
0.0 0.0 0.0 0.0 0.0 0.0 0.0 0.0
0.0 0.0 0.0 0.0 0.0 0.0 0.0 0.0
0.0 0.0 0.0 0.0 0.0 0.0 0.0 0.0
0.0 0.0 0.0 0.0 0.0 0.0 0.0 0.0
0.0 0.0 0.0 0.0 0.0 0.0 0.0 0.0
0.0 0.0 0.0 0.0 0.0 0.0 0.0 0.0
00000000: 0000 0000 0000 0000 0000 0000 0000 0000
00000010: 0000 0000 0000 0000 0000 0000 0000 0000
00000020: 0000 0000 0000 0000 0000 0000 0000 0000
00000030: 0000 0000 0000 0000 0000 0000 0000 0000
00000040: 0000 0000 0000 0000 0000 0000 0000 0000
00000050: 0000 0000 0000 0000 0000 0000 0000 0000
00000060: 0000 0000 0000 0000 0000 0000 0000 0000
00000070: 0000 0000 0000 0000 0000 0000 0000 0000
00000080: 0000 0000 0000 0000 0000 0000 0000 0000
00000090: 0000 0000 0000 0000 0000 0000 0000 0000
000000a0: 0000 0000 0000 0000 0000 0000 0000 0000
000000b0: 0000 0000 0000 0000 0000 0000 0000 0000
000000c0: 0000 0000 0000 0000 0000 0000 0000 0000
000000d0: 0000 0000 0000 0000 0000 0000 0000 0000
000000e0: 0000 0000 0000 0000 0000 0000 0000 0000
000000f0: 0000 0000 0000 0000 0000 0000 0000 0000
00000100: 0000 0000 0000 0000 0000 0000 0000 0000
00000110: 0000 0000 0000 0000 0000 0000 0000 0000
00000120: 0000 0000 0000 0000 0000 0000 0000 0000
00000130: 0000 0000 0000 0000 0000 0000 0000 0000
00000140: 0000 0000 0000 0000 0000 0000 0000 0000
00000150: 0000 0000 0000 0000 0000 0000 0000 0000
00000160: 0000 0000 0000 0000 0000 0000 0000 0000
00000170: 0000 0000 0000 0000 0000 0000 0000 0000
00000180: 0000 0000 0000 0000 0000 0000 0000 0000
00000190: 0000 0000 0000 0000 0000 0000 0000 0000
000001a0: 0000 0000 0000 0000 0000 0000 0000 0000
000001b0: 0000 0000 0000 0000 0000 0000 0000 0000
000001c0: 0000 0000 0000 0000 0000 0000 0000 0000
000001d0: 0000 0000 0000 0000 0000 0000 0000 0000
000001e0: 0000 0000 0000 0000 0000 0000 0000 0000
000001f0: 0000 0000 0000 0000 0000 0000 0000 0000
00000200: 0000 0000 0000 0000 0000 0000 0000 0000
00000210: 0000 0000 0000 0000 0000 0000 0000 0000
00000220: 0000 0000 0000 0000 0000 0000 0000 0000
00000230: 0000 0000 0000 0000 0000 0000 0000 0000
00000240: 0000 0000 0000 0000 0000 0000 0000 0000
00000250: 0000 0000 0000 0000 0000 0000 0000 0000
00000260: 0000 0000 0000 0000 0000 0000 0000 0000
00000270: 0000 0000 0000 0000 0000 0000 0000 0000
00000280: 0000 0000 0000 0000 0000 0000 0000 0000
00000290: 0000 0000 0000 0000 0000 0000 0000 0000
000002a0: 0000 0000 0000 0000 0000 0000 0000 0000
000002b0: 0000 0000 0000 0000 0000 0000 0000 0000
000002c0: 0000 0000 0000 0000 0000 0000 0000 0000
000002d0: 0000 0000 0000 0000 0000 0000 0000 0000
000002e0: 0000 0000 0000 0000 0000 0000 0000 0000
000002f0: 0000 0000 0000 0000 0000 0000 0000 0000
00000300: 0000 0000 0000 0000 0000 0000 0000 0000
00000310: 0000 0000 0000 0000 0000 0000 0000 0000
00000320: 0000 0000 0000 0000 0000 0000 0000 0000
00000330: 0000 0000 0000 0000 0000 0000 0000 0000
00000340: 0000 0000 0000 0000 0000 0000 0000 0000
00000350: 0000 0000 0000 0000 0000 0000 0000 0000
00000360: 0000 0000 0000 0000 0000 0000 0000 0000
00000370: 0000 0000 0000 0000 0000 0000 0000 0000
00000380: 0000 0000 0000 0000 0000 0000 0000 0000
00000390: 0000 0000 0000 0000 0000 0000 0000 0000
000003a0: 0000 0000 0000 0000 0000 0000 0000 0000
000003b0: 0000 0000 0000 0000 0000 0000 0000 0000
000003c0: 0000 0000 0000 0000 0000 0000 0000 0000
000003d0: 0000 0000 0000 0000 0000 0000 0000 0000
000003e0: 0000 0000 0000 0000 0000 0000 0000 0000
000003f0: 0000 0000 0000 0000 0000 0000 0000 0000

network_body._body_endoder.seq_layers.2.weight f4 [256, 256]
0.012656538 0.08054874 0.06521561 -0.09417931 0.004052822 0.003013466 0.020262286 -0.06858987
0.122538574 0.038460772 0.0031447145 0.098858595 -0.04927769 0.024873704 -0.09333832 -0.007895442
-0.06581197 0.034545712 -0.025152389 0.02765677 0.021750242 0.008607468 0.11639903 -0.043147236
-0.08277813 0.026725715 -0.09474338 -0.06369647 -0.07910503 -0.012199401 -0.07950813 -0.040683854
-0.0012109999 0.03873482 -0.07029284 -0.038814593 -0.117552385 -0.004169027 0.05079634 0.0424969
-0.027434321 0.018694744 -0.123629496 -0.002958201 0.07044619 -0.03971378 0.11092415 -0.038884673
0.05513712 0.0053827604 -0.12515353 -0.067796975 0.13760991 0.04934772 -0.017545955 -0.077924445
0.011453336 0.03678792 -0.021754848 0.10711439 0.09183765 0.006935087 -0.02611366 0.07252344
-0.08081205 0.06645428 -0.050257225 0.057016835 -0.04801209 -0.038208816 -0.07379287 0.058530997
0.055069808 -0.06188896 -0.010918003 0.045520615 -0.016733577 0.15300165 0.08496571 0.07840231
-0.06544401 0.05492051 -0.020066984 0.04211021 -0.006574412 -0.0394997 -0.0010610553 -0.09111603
-0.0040991153 0.11023346 -0.05039273 0.002179891 -0.056484003 0.045526195 -0.038159493 0.055393577
0.16328321 0.027002085 0.07965266 -0.006076719 0.03501409 -0.10553676 -0.05366216 -0.099503666
-0.011470205 -0.034532063 0.018657388 0.037711896 -0.033073306 -0.046128973 0.06720077 0.019181943
0.055991665 0.10710815 0.11737859 0.13611798 0.019710725 0.05757183 0.060302645 -0.116465084
-0.013913047 -0.036823787 -0.11900754 -0.033256765 0.0021027464 -0.06749258 0.0035433292 0.02114413
0.021649005 -0.100087926 0.11605622 1.9778377e-06 0.044163283 -0.07269811 0.034737594 -0.05320108
0.08474511 -0.05163744 0.09353702 0.054463197 0.0402706 -0.0941859 -0.071447514 -1.2701461e-05
-0.016523976 0.020623414 -0.09763675 0.0057137813 0.044113982 0.0043580905 0.054063883 0.03144785
-0.044188526 0.0056237117 0.07241301 0.039793283 0.041465726 0.11421552 0.08338758 -0.051920034
0.030136926 -0.02040289 0.05886312 0.055880714 -0.053615604 0.015572968 0.06664085 0.00015439192
-0.05529882 0.01225524 -0.09322562 -0.004860029 0.010199705 -0.011850311 -0.14269838 -0.0145704895
-0.07751808 0.015399672 0.07837987 0.041345436 0.07119878 -0.0033750967 0.0113885095 0.014999717
-0.0499827 -0.004682599 -0.036494523 -0.07370936 -0.076744676 -0.021739976 0.0330408 -0.023858588
-0.07625755 0.15966366 -0.06675189 -0.045481756 0.02653589 0.018190874 0.016145334 0.0056697135
-0.027384147 -0.060618453 -0.0614101 -0.017296612 0.040851526 0.10656204 -0.10245607 -0.12590031
0.06160979 -0.01697886 0.0068862857 -0.051846966 0.072257645 0.04219833 -0.018596115 0.10540414
0.13145949 -0.01832911 0.029500214 0.08837142 0.08629222 -0.035266414 -0.12021931 -0.041972987
0.08330725 -0.07459603 0.05403186 0.018326422 0.004679503 -0.040093582 0.01312721 -0.029852046
-0.012057215 0.04596927 -0.12656169 -0.07298045 -0.024905665 0.02499752 0.06274835 -0.017502049
-0.16282505 0.05916768 0.06151163 0.060444936 0.020186253 0.09919152 0.0844478 0.018753547
0.09455537 -0.05256179 0.023412265 0.05392847 -0.11896228 -0.016531615 0.01940303 0.099749714
00000000: 5e5d 4f3c bdf6 a43d c38f 853d 15e1 c0bd
00000010: 89cd 843b 927d 453b 18fd a53c d978 8cbd
00000020: 81f5 fa3d 0b89 1d3d 8e17 4e3b 6076 ca3d
00000030: 67d7 49bd f0c3 cb3c 2928 bfbd e25b 01bc
00000040: 6dc8 86bd ce7f 0d3d 620c cebc 7390 e23c
00000050: 902d b23c 5606 0d3c 9d62 ee3d 28bb 30bd
00000060: 9587 a9bd e3ef da3c d108 c2bd 4b73 82bd
00000070: d101 a2bd ffdf 47bc 29d5 a2bd 1da4 26bd
00000080: 6aba 9eba 67a8 1e3d b1f5 8fbd 0dfc 1ebd
00000090: 4ebf f0bd 559c 88bb d30f 503d 3b11 2e3d
000000a0: f1bd e0bc b825 993c 7631 fdbd 61de 41bb
000000b0: 1846 903d ebaa 22bd 332c e33d 8945 1fbd
000000c0: 76d7 613d de61 b03b 3f28 00be 24d9 8abd
000000d0: 9de9 0c3e d620 4a3d 89bc 8fbc da96 9fbd
000000e0: c6a6 3b3c eeae 163d 3937 b2bc ca5e db3d
000000f0: 6115 bc3d ba3f e33b 50ec d5bc 2b87 943d
00000100: ca80 a5bd 2e19 883d 85da 4dbd 7c8a 693d
00000110: 53a8 44bd d980 1cbd b720 97bd 33be 6f3d
00000120: e190 613d 477f 7dbd 6ce1 32bc d373 3a3d
00000130: db14 89bc 77ac 1c3e 8102 ae3d 6491 a03d
00000140: 8207 86bd 54f4 603d 8463 a4bc c17b 2c3d
00000150: 2a6e d7bb 70ca 21bd 1c13 8bba 0b9b babd
00000160: df51 86bb 15c2 e13d 9b68 4ebd 81dc 0e3b
00000170: c55b 67bd ad79 3a3d 214d 1cbd 60e4 623d
00000180: b733 273e 7a33 dd3c ef20 a33d 371f c7bb
00000190: ef6a 0f3d a823 d8bd dacc 5bbd 94c8 cbbd
000001a0: 87ed 3bbc 7e71 0dbd 61d7 983c ca77 1a3d
000001b0: e077 07bd bcf1 3cbd 8fa0 893d 7323 9d3c
000001c0: 8457 653d 855b db3d 3064 f03d 8362 0b3e
000001d0: 6378 a13c 70d0 6b3d e8ff 763d 3f85 eebd
000001e0: 8cf3 63bc 8ad4 16bd 3aba f3bd 3f38 08bd
000001f0: 3bce 093b 8d39 8abd 3337 683b 7436 ad3c
00000200: 4159 b13c e6fa ccbd e2ae ed3d feba 0436
00000210: 8fe4 343d bfe2 94bd 0249 0e3d 60e9 59bd
00000220: d88e ad3d c881 53bd 5690 bf3d cd14 5f3d
00000230: c9f2 243d 8ae4 c0bd 1353 92bd 5c18 55b7
00000240: 4a5d 87bc 6ff2 a83c c7f5 c7bd ac3a bb3b
00000250: ddb0 343d 50ce 8e3b 1772 5d3d 76cf 003d
00000260: 07ff 34bd 1d47 b83b 464d 943d 48fe 223d
00000270: f7d7 293d d4e9 e93d 1cc7 aa3d 1aaa 54bd
00000280: b7e1 f63c f623 a7bc 741a 713d 2de3 643d
00000290: 099c 5bbd c325 7f3c ff7a 883d 44e4 2139
000002a0: 0481 62bd 34ca 483c 13ed bebd e140 9fbb
000002b0: aa1c 273c cf27 42bc 861f 12be 10b9 6ebc
000002c0: cdc1 9ebd e84e 7c3c a085 a03d d559 293d
000002d0: aad0 913d ba30 5dbb df96 3a3c 5fc1 753c
000002e0: a9ba 4cbd 7d70 99bb 487b 15bd eff4 96bd
000002f0: 502c 9dbd 0918 b2bc ca55 073d 1673 c3bc
00000300: eb2c 9cbd df7e 233e 37b5 88bd 144b 3abd
00000310: cb61 d93c 0705 953c 3843 843c 01c9 b93b
00000320: b854 e0bc 0e4b 78bd 2889 7bbd a0b1 8dbc
00000330: ee53 273d 333d da3d 7dd4 d1bd 03ec 00be
00000340: 8c5a 7c3d 4017 8bbc 5aa6 e13b 7c5d 54bd
00000350: d1fb 933d 28d8 2c3d e156 98bc 20de d73d
00000360: 519d 063e ee26 96bc 6faa f13c 13fc b43d
00000370: fab9 b03d 8473 10bd 8b35 f6bd deeb 2bbd
00000380: fe9c aa3d cec5 98bd 8350 5d3d 4b21 963c
00000390: 8456 993b 2b39 24bd 8213 573c 478c f4bc
000003a0: a08b 45bc 464a 3c3d 6399 01be c676 95bd
000003b0: f706 ccbc 99c7 cc3c 3582 803d 7560 8fbc
000003c0: 9cbb 26be cf59 723d 9ef3 7b3d 1c95 773d
000003d0: a45d a53c ec24 cb3d f8f2 ac3d 0aa1 993c
000003e0: 3fa6 c13d 084b 57bd 14cb bf3c 19e4 5c3d
000003f0: 7fa2 f3bd 4f6d 87bc 1af3 9e3c 9449 cc3d

network_body._body_endoder.seq_layers.4.weight f4 [256, 256]
0.051387798 -0.020878112 0.002728579 0.03042521 0.03590551 0.18353266 0.08190678 0.024192544
0.028859839 -0.004287047 -0.04266529 -0.023179434 -0.015058692 -0.075862736 0.0031809043 0.033972107
-0.01185287 -0.042253397 -0.11260692 -0.028835297 -0.12180481 -0.036167774 -0.041553516 0.030410325
-0.0882941 -0.039741825 0.08394817 -0.038144745 0.098975554 -0.032312654 0.05312592 0.058433667
0.047981404 0.07226992 0.017402079 0.017514737 -0.040882226 0.019487998 0.052576352 0.07139884
0.08096375 0.04094684 0.02617557 0.03189289 0.044060778 -0.07168176 -0.0015104942 0.044998642
-0.029366912 0.14676157 -0.12564842 0.05296533 0.018997826 -0.008398577 0.06823056 -0.009704682
0.013587964 0.038279988 0.10972951 -0.030904679 0.0666788 -0.051889393 -0.007480787 0.06100033
-0.054307923 0.17144299 -0.022113694 0.016315708 0.010713889 -0.03926364 0.0011813829 0.043845702
-0.07834561 -0.048790205 -0.12341644 -0.03848575 -0.028699491 -0.062362794 0.09563306 0.087567836
-0.10247209 -0.07556442 0.004493463 0.096791334 -0.08119665 -0.0744294 0.037341096 -0.0658785
0.06730385 0.098981455 -0.035179593 -0.005085393 -0.0074417377 -0.04858984 -0.0015061859 0.11227372
0.020785352 -0.01577224 -0.0058294353 0.03678115 0.0021647017 -0.033379816 0.006763104 0.02752378
0.03965359 -0.027935186 0.07672593 0.040640194 0.020022295 0.071200825 0.025947396 0.083873816
0.023355218 0.05592999 0.016630935 -0.07198416 0.044303995 -0.013221621 -0.041271694 -0.04890346
-0.0029460345 -0.04908159 -0.16851516 -0.07753975 -0.0023423384 0.008282728 -0.052947182 0.014473676
-0.016264832 0.001347195 0.07880805 0.010810757 0.0032381846 0.0010455913 -0.05783841 0.0329223
0.026889218 -0.15042828 -0.024929164 -0.023827707 0.035626564 -0.010307134 0.02372426 -0.013972184
-0.08755049 0.03597379 0.09472834 0.06184388 0.049817864 0.052428465 -0.056638706 -0.04257895
-0.093701616 -0.0013436107 -0.056531865 -0.001951187 -0.0225627 -0.06841906 0.042216323 0.13385345
-0.09391009 0.040283035 0.0043106223 -0.050594144 -0.11874114 0.04691232 -0.119662076 0.00020857918
0.023598019 -0.08460909 -0.07775439 0.048027888 -0.06319323 -0.02166155 0.03935488 0.08387901
0.08198688 -0.033648334 -0.007848104 0.02802516 0.03405648 -0.051945098 -0.018836372 0.02960829
0.045692075 0.08046014 0.017656662 -0.012362406 0.070752814 -0.044241596 -0.0022085847 0.0051670577
0.08686103 -0.020232325 0.14752753 0.09136579 -0.07883122 -0.02514343 0.03008499 0.12581594
-0.069896996 -0.018304385 0.009984365 -0.06377171 -0.038192995 -0.11606679 0.029636007 -0.049801975
-0.02689141 0.03021576 -0.007599263 -0.0927463 0.046527132 -0.010301513 0.043219205 0.040589802
-0.07040423 -0.060630765 0.10473995 0.008760253 0.054754376 -0.074862555 -0.047738887 -0.016403759
-0.00572751 0.016075129 0.026167734 0.012847968 -0.050894946 0.019373648 -0.042919226 -0.03560288
-0.10544339 -0.137088 0.028528478 0.037168507 0.023042506 0.10284504 0.054671668 -0.07677392
-0.05332541 0.016019648 0.022160826 -0.1121559 -0.0214834 0.05439731 -0.01305373 0.07486508
-0.07349473 0.112784766 -0.028512996 0.120665014 0.040329326 -0.0038017929 0.048631173 0.044944465
00000000: 037c 523d 9308 abbc f6d1 323b 4a3e f93c
00000010: a811 133d fcef 3b3e bebe a73d 712f c63c
00000020: 786b ec3c 5b7a 8cbb cdc1 2ebd cce2 bdbc
00000030: bbb8 76bc ec5d 9bbd b876 503b 5626 0b3d
00000040: 8a32 42bc e611 2dbd 759e e6bd 0038 ecbc
00000050: cd74 f9bd a924 14bd 0534 2abd 131f f93c
00000060: 89d3 b4bd 53c8 22bd 05ed ab3d aa3d 1cbd
00000070: b2b3 ca3d 465a 04bd 919a 593d 2458 6f3d
00000080: 2688 443d 4002 943d ce8e 8e3c 117b 8f3c
00000090: 1f74 27bd 4ba5 9f3c 4d5a 573d 8e39 923d
000000a0: 53d0 a53d e0b7 273d 266e d63c 1ea2 023d
000000b0: 1379 343d e3cd 92bd c6fb c5ba 7f50 383d
000000c0: e192 f0bc aa48 163e fba9 00be 2df2 583d
000000d0: 54a1 9b3c 2f9a 09bc 77bc 8b3d 6300 1fbc
000000e0: 0da0 5e3c 7acb 1c3d deb9 e03d cf2b fdbc
000000f0: e58e 883d f989 54bd 6421 f5bb 7bdb 793d
00000100: fc71 5ebd c08e 2f3e c727 b5bc 85a8 853c
00000110: 4f89 2f3c e9d2 20bd a2d8 9a3a 8d97 333d
00000120: aa73 a0bd 3dd8 47bd c2c1 fcbd 3ca3 1dbd
00000130: 321b ebbc 2170 7fbd 44db c33d c456 b33d
00000140: e3dc d1bd 85c1 9abd e63d 933b 893a c63d
00000150: 6e4a a6bd 716e 98bd faf2 183d 4feb 86bd
00000160: 9ad6 893d cab6 ca3d 7a18 10bd 5ea3 a6bb
00000170: d2d9 f3bb 2406 47bd 366b c5ba c4ef e53d
00000180: 0b46 aa3c c934 81bc d904 bfbb d5a7 163d
00000190: abdd 0d3b 46b9 08bd 079d dd3b 8d79 e13c
000001a0: ce6b 223d 55d8 e4bc 7c22 9d3d 5576 263d
000001b0: cc05 a43c bdd1 913d a28f d43c 09c6 ab3d
000001c0: 7153 bf3c d816 653d 993d 883c 6e6c 93bd
000001d0: 1b78 353d 7f9f 58bc 820c 29bd ff4e 48bd
000001e0: 4212 41bb c709 49bd 3d8f 2cbe 29cd 9ebd
000001f0: eb81 19bb 47b4 073c 25df 58bd ff22 6d3c
00000200: d33d 85bc 5d94 b03a 1d66 a13d 9a1f 313c
00000210: b937 543b 390c 893a f8e7 6cbd 89d9 063d
00000220: c746 dc3c df09 1abe 3f38 ccbc 5332 c3bc
00000230: 29ed 113d 41df 28bc 6159 c23c 96eb 64bc
00000240: ac4d b3bd 4159 133d ef00 c23d 0250 7d3d
00000250: d10d 4c3d 3bbf 563d fdfd 67bd 4467 2ebd
00000260: a2e6 bfbd 181c b0ba f58d 67bd f9be ffba
00000270: 69d5 b8bc 4b1f 8cbd 06eb 2c3d e110 093e
00000280: ef53 c0bd d3ff 243d 1f40 8d3b ce3b 4fbd
00000290: 8e2e f3bd 2227 403d 6411 f5bd 0cb6 5a39
000002a0: a250 c13c 8847 adbd b23d 9fbd e4b8 443d
000002b0: 746b 81bd 9073 b1bc 9532 213d c2c8 ab3d
000002c0: bde8 a73d d6d2 09bd 5695 00bc 0595 e53c
000002d0: cf7e 0b3d 62c4 54bd bc4e 9abc 168d f23c
000002e0: 9d27 3b3d 49c8 a43d b4a4 903c b08b 4abc
000002f0: dae6 903d ad36 35bd e7bd 10bb 6c50 a93b
00000300: 32e4 b13d 43be a5bc 7511 173e fd1d bb3d
00000310: 4372 a1bd 98f9 cdbc cc74 f63c e5d5 003e
00000320: 2826 8fbd 14f3 95bc 7695 233c be9a 82bd
00000330: 4270 1cbd 6db4 edbd 36c7 f23c 28fd 4bbd
00000340: 604b dcbc 0b87 f73c 3d03 f9bb c6f1 bdbd
00000350: 3c93 3e3d adc7 28bc 9f06 313d 7e41 263d
00000360: 1830 90bd f757 78bd e681 d63d 2a87 0f3c
00000370: 2046 603d 8a51 99bd da89 43bd 2d61 86bc
00000380: d6ad bbbb fdaf 833c b75d d63c 4980 523c
00000390: 3877 50bd 7cb5 9e3c 12cc 2fbd 53d4 11bd
000003a0: b4f2 d7bd cc60 0cbe 8eb4 e93c 013e 183d
000003b0: a3c3 bc3c 6ca0 d23d 66ef 5f3d a53b 9dbd
000003c0: bf6b 5abd a33b 833c 9f8a b53c feb1 e5bd
000003d0: f5fd afbc b7cf 5e3d 50df 55bc dd52 993d
000003e0: 6884 96bd b3fb e63d 1694 e9bc 381f f73d
000003f0: 5d30 253d 8027 79bb 7b31 473d b017 383d

action_model._discrete_distribution.branches.0.weight f4 [1, 256]
-6.920448e-05 0.004406698 0.008696559 0.0014383829 -0.0039243437 -0.014445272 0.0046035275 0.0066188346
0.009847767 0.00020031077 0.015491158 0.0030116495 0.0039162626 0.012325795 0.0011418033 -0.0036364754
0.0047551706 -0.008484574 0.0042147306 0.0065477393 0.0022126194 -0.0033190132 -0.005547185 0.0060718707
-0.0047473735 -0.0051965634 -0.008953451 -0.0052219452 0.00042836304 0.003981769 -0.007803568 -0.007284336
-0.007632089 -0.0069781216 -0.000597017 0.009963532 0.0049953326 -0.0056234477 -0.0056083105 -0.0046304744
-0.0011205304 -0.001919085 -0.014765764 0.0038013575 0.004705071 -0.0071539464 0.0035228287 0.0063933977
-0.005810485 -0.00954461 0.006261357 -0.010822414 -0.005537867 0.0013117286 0.0032779553 0.00016179286
-0.0021723644 0.0039469507 -0.0005483682 0.00465159 0.0026778323 -0.001519421 -0.00037902698 -0.008110618
-0.00047853726 0.0039282977 0.0029812106 -0.003151693 -0.006868345 0.00021619245 0.005668273 -0.00062668807
-0.0036933895 -0.00073428906 0.014039394 -0.0010410413 -0.0030499205 0.013854682 -0.0034570482 0.0069678784
0.009853882 0.0025262223 0.0056858817 0.002041005 -0.002938369 -0.0012869365 -0.002353046 0.008626491
0.0030223962 0.00297335 0.0022998063 0.0049931495 0.009202267 0.0019150844 -0.0085548675 0.006812607
-0.005164026 -0.008622799 -0.0066552856 -0.009200046 -0.0063526253 -0.0028195863 -0.0074002915 -0.004334987
0.0065124915 -0.0061413427 -0.012001027 -0.0039782706 0.0055575743 -0.008214979 -0.0016503449 0.0001536875
0.0066793635 -0.0047922838 0.010671419 -0.00017667339 0.008763018 0.0035400332 0.0025365448 0.0011783632
0.0013607508 -0.0029183715 0.0032372444 0.0044330065 0.006333442 0.0057130256 -0.0073806397 0.00013719808
-0.0039592753 -0.0021823556 -0.007154153 -5.462141e-05 -0.0057147117 -0.0007689012 -6.2281e-05 -0.0022552605
0.006443421 0.0010342823 0.01158216 0.0074558887 -0.0019358719 0.009257804 -0.0014783021 0.0018072147
-0.0010536545 0.007242847 -0.00092766824 0.008415239 0.003994674 -0.009616613 -0.0049966048 -0.0003564355
0.0045605884 -0.0091782715 -0.00043772277 -0.0039254604 -0.00503685 -0.00037908336 -0.004939775 -0.009793426
-0.0011011215 -0.0013280674 -0.0010188756 0.011819761 0.0013048523 0.006304686 0.0007121774 0.009622774
-0.00012938793 0.0011803417 0.0057755685 0.003607244 0.0029781347 0.003424057 0.009327131 -0.0037781463
-0.0107563175 0.005405612 -0.002326741 0.0037081826 -0.00098221 0.00074056414 4.1098597e-06 0.0040510525
-0.018514406 0.0093685975 0.0072566974 -0.017883753 -0.0032737 -0.0019121837 0.0007660812 -0.0051695793
-0.0019169748 -0.0018281697 0.00032062104 -0.015388406 -0.00507095 -0.004128003 0.0042126975 -0.0066807265
0.0030400641 -0.0025255533 0.01101524 -0.010687988 -0.011256956 0.009986713 0.0028668328 0.008212295
-0.007024062 0.0005342675 -0.0007012197 0.001138518 -0.003979105 -0.009917854 -0.0030824568 0.007254068
0.005339934 0.0036032745 -0.0014790673 -0.0013369973 0.0170953 -0.004844143 0.0033266598 0.00393819
0.008283494 0.0012817625 -0.0036125386 -0.0007027275 -0.0055908933 -0.014072591 -0.00503699 -0.009659915
-0.0049188 0.006215151 0.006620356 -0.008724152 0.005180649 -0.00070116634 -0.0025182643 -0.007986976
0.0064598448 -0.0009348264 -0.0004068357 -0.0032601363 0.0004899614 -0.0013360124 -0.004280781 -0.0024888015
-0.004764493 0.0066801845 -0.00030815203 0.008267099 0.007987629 -0.002170015 -0.005166682 -0.006571849
00000000: df21 91b8 1066 903b 037c 0e3c 1f88 bc3a
00000010: c897 80bb ddab 6cbc 30d9 963b cfe2 d83b
00000020: 8758 213c 830a 5239 a0ce 7d3c 185f 453b
00000030: fe53 803b 22f2 493c 90a8 953a ef51 6ebb
00000040: 43d1 9b3b e202 0bbc b91b 8a3b 6b8e d63b
00000050: 9801 113b cd83 59bb 29c5 b5bb 8bf6 c63b
00000060: db8f 9bbb ef47 aabb 7fb1 12bc da1c abbb
00000070: ea95 e039 8079 823b 13b5 ffbb 70b1 eebb
00000080: 9a16 fabb baa8 e4bb 2281 1cba 153e 233c
00000090: e3af a33b e644 b8bb ebc5 b7bb 3cbb 97bb
000000a0: c3de 92ba cf89 fbba 1aec 71bc 3220 793b
000000b0: ff2c 9a3b a76b eabb 42df 663b b57f d13b
000000c0: e265 bebb ff60 1cbc 122c cd3b 7f50 31bc
000000d0: ff76 b5bb 4fee ab3a f7d2 563b f1a6 2939
000000e0: 3a5e 0ebb 6c55 813b 5ec0 0fba 5d6c 983b
000000f0: 927e 2f3b 4f27 c7ba 24b8 c6b9 66e2 04bc
00000100: 2fe4 fab9 f3b8 803b 6a60 433b a28c 4ebb
00000110: db0f e1bb b8b1 6239 ecbc b93b 5348 24ba
00000120: cb0c 72bb 4e7d 40ba 7d05 663c 8d73 88ba
00000130: 2de1 47bb c0fe 623c a58f 62bb cd52 e43b
00000140: 2d72 213c fa8e 253b a250 ba3b 62c2 053b
00000150: a791 40bb 6cae a8ba 9035 1abb 2056 0d3c
00000160: 6513 463b 89dc 423b 59b8 163b 939d a33b
00000170: 1bc5 163c 9203 fb3a b729 0cbc 4a3c df3b
00000180: fd36 a9bb a446 0dbc 9514 dabb cabb 16bc
00000190: af29 d0bb cfc8 38bb 257e f2bb 820c 8ebb
000001a0: bd66 d53b 513d c9bb f59f 44bc 275c 82bb
000001b0: 501c b63b 1f98 06bc 6350 d8ba 2d27 2139
000001c0: 90de da3b 9708 9dbb 2dd7 2e3c 6741 39b9
000001d0: c392 0f3c e7ff 673b 293c 263b 4f73 9a3a
000001e0: 385b b23a 2642 3fbb f327 543b c142 913b
000001f0: c388 cf3b 5534 bb3b 4bd9 f1bb d4dc 0f39
00000200: cfbc 81bb da05 0fbb 636d eabb 4b19 65b8
00000210: 7a42 bbbb 1690 49ba db9c 82b8 fecc 13bb
00000220: 5523 d33b c190 873a 1ac3 3d3c 8750 f43b
00000230: 15bd fdba 0bae 173c 96c3 c1ba 10e0 ec3a
00000240: c71a 8aba 6755 ed3b c32e 73ba 12e0 093c
00000250: c1e5 823b 008f 1dbc 8fba a3bb f7df bab9
00000260: fd70 953b 7660 16bc 287e e5b9 26a1 80bb
00000270: 290c a5bb b5bf c6b9 d6dd a1bb 9b74 20bc
00000280: 8253 90ba 8c12 aeba cb8b 85ba aca7 413c
00000290: 9407 ab3a 8a97 ce3b 6bb1 3a3a d7a8 1d3c
000002a0: 4fac 07b9 b2b5 9a3a fb40 bd3b 8367 6c3b
000002b0: cf2c 433b 2566 603b d3d0 183c c79a 77bb
000002c0: 443b 30bc 8f21 b13b 3d7c 18bb fb04 733b
000002d0: 80bd 80ba 6b22 423a 6de7 8936 b1be 843b
000002e0: 86ab 97bc bf7e 193c 97c9 ed3b f380 92bc
000002f0: 928b 56bb 3da2 faba d7d2 483a 9365 a9bb
00000300: 0043 fbba 329f efba 0719 a839 a71f 7cbc
00000310: 362a a6bb 3344 87bb ab0a 8a3b ffe9 dabb
00000320: d03b 473b c183 25bb 4479 343c ac1c 2fbc
00000330: 186f 38bc 4f9f 233c 79e1 3b3b dd8c 063c
00000340: 1a2a e6bb 160e 0c3a 0fd2 37ba 533a 953a
00000350: 2763 82bb 7f7e 22bc 0b03 4abb 88b3 ed3b
00000360: 9dfa ae3b ea24 6c3b 43dd c1ba 2f3e afba
00000370: 710b 8c3c 9ebb 9ebb 1704 5a3b ef0b 813b
00000380: 7eb7 073c d000 a83a 57c0 6cbb 3f37 38ba
00000390: d033 b7bb ba90 66bc 560d a5bb 9f44 1ebc
000003a0: e32d a1bb 77a8 cb3b 92ef d83b bfef 0ebc
000003b0: 6fc2 a93b 7ace 37ba 7709 25bb cedb 02bc
000003c0: 1bad d33b 230f 75ba 904c d5b9 03a8 55bb
000003d0: c170 003a 231d afba cb45 8cbb 291b 23bb
000003e0: 771f 9cbb 73e5 da3b 778f a1b9 ba72 073c
000003f0: 8bde 023c cf36 0ebb 454d a9bb aa58 d7bb

onnx::Div_57 f4 [14]
70.907646 31.167603 54.17844 12.538638 11.267866 13.320839 3.8044786 130.92928
0.11695293 82.36804 0.11695293 42.767765 0.12357551 162.12054
00000000: b7d0 8d42 4057 f941 b9b6 5842 439e 4841
00000010: 2e49 3441 2822 5541 947c 7340 e5ed 0243
00000020: 0585 ef3d 70bc a442 0585 ef3d 3112 2b42
00000030: 2815 fd3d dc1e 2243
